models/mnist/classif.pth (torch_old, 280862 bytes, 24 tensors)

weight f4 [10, 1, 5, 5]
000000 31 01 f5 3c b1 4f 24 3d aa f3 44 be c7 e1 13 be
       0.029907795 0.040115062 -0.19233575 -0.14441596
000010 2d 89 a4 bb 91 25 04 3e 20 2e 67 3b 29 a1 bb 3b
       -0.0050212354 0.12904955 0.0035275295 0.005725999
000020 ab 12 8a be c4 93 74 bd 00 6e 92 3d ab 84 36 3e
       -0.26967368 -0.059711233 0.07149887 0.17824046
000030 83 13 73 be 1a 4d b5 be 88 ba fc bd d8 d1 87 3d
       -0.23737912 -0.35410386 -0.123402655 0.066318214
000040 ce 03 99 3e 2b 10 55 3e 2b 49 04 be 63 9e 96 bd
       0.29885715 0.20806949 -0.12918536 -0.073544286
000050 22 23 0e 3d e9 50 96 3e f7 3f 15 3e 08 88 94 3e
       0.034701474 0.29358605 0.14575182 0.29010034
000060 e6 92 f7 3c a0 f0 3e 3e ff 63 a1 3e 49 88 07 be
       0.030221414 0.18646479 0.31521603 -0.13235582
000070 9e 80 8a be c3 6e f7 be 81 01 28 3e cd 49 84 3e
       -0.27051252 -0.48326692 0.16406824 0.25837556
000080 a1 98 86 be 43 76 90 be cf 5c 93 be 4e ff 23 3e
       -0.26288322 -0.28215227 -0.28781745 0.1601536
000090 98 4c e8 bd fb 3f 7a be dc a9 81 be 8f de 6b bd
       -0.11342734 -0.24438469 -0.25324905 -0.057585295
0000a0 99 82 02 3d 51 df ad be 5a b4 99 be 80 75 8a be
       0.03186283 -0.3395944 -0.3002041 -0.2704277
0000b0 59 40 e5 bc 8e 26 c3 be ae 95 65 be 45 77 11 be
       -0.027984785 -0.38115352 -0.2242038 -0.14205654
0000c0 86 f0 dd bd 94 49 3d 3b d5 51 b0 3c 22 b5 0b 3d
       -0.10836892 0.0028882967 0.021523396 0.03410829
0000d0 4f 79 79 3c 40 15 4c 3d ed b8 4e 3e 49 4a fa bd
       0.015226676 0.049824953 0.20187731 -0.122212
0000e0 8a 96 ab bc 64 7b 91 bd 7d 0a 87 bd 8f 09 46 3c
       -0.020945806 -0.07103613 -0.06593797 0.01208724
0000f0 39 09 1a be 54 98 ac bd 79 41 03 be 98 29 b8 3d
       -0.1504258 -0.08427492 -0.12817945 0.089923084
000100 7f 52 4b 3e fa 87 9d be a5 2c f9 bd 18 ca 48 bd
       0.19855689 -0.30767804 -0.121667184 -0.049020857
000110 c7 c5 fc 3d 8c 3e 84 3e 0c 5d b1 be 95 79 3a be
       0.123424105 0.2582897 -0.34641302 -0.18210442
000120 2e 6b cc 3c b1 60 39 3e 1c 63 95 3e 3b 88 66 3e
       0.024953451 0.18103291 0.29177177 0.22512905
000130 78 61 04 3e d2 37 a3 bd df 42 8f 3d 57 f0 54 be
       0.12927806 -0.07969631 0.069951765 -0.20794807
000140 2a 9e 9e bd 80 0e 8f 3e c5 d3 48 3e bb 89 7d be
       -0.07745011 0.2794075 0.19612034 -0.24759571
000150 93 d2 54 be 9e 0a c4 3d 9f ae 1e 3e c7 54 6c bc
       -0.20783453 0.095723376 0.154963 -0.014424509
000160 12 e7 b9 bd 01 d1 ff be b5 98 11 3e 1a c2 44 3e
       -0.09077276 -0.49964145 0.1421841 0.19214669
000170 9e 4f 27 3e 46 93 c6 bd 54 68 fc be 3e 0d e1 b9
       0.16338965 -0.09696059 -0.49298346 -0.0004292521
000180 5f bc 68 3e e1 de ec 3d 27 92 21 be 6c 9f 92 be
       0.22728108 0.11565948 -0.15778409 -0.28637254
000190 64 5f ac 3e e3 af 7d 3e 82 cc a3 bc 24 3b 1a be
       0.33666527 0.24774127 -0.019994978 -0.15061623
0001a0 1e 91 83 be ac 89 d9 3c db 04 eb be 03 db ee be
       -0.25696653 0.026554905 -0.45902142 -0.46651468
0001b0 0f dd 58 be ba 5c 5d 3d 46 b2 ab be 4e 16 6b be
       -0.21178077 0.05404351 -0.3353445 -0.22957727
0001c0 51 c9 68 be 7a 6e 83 3e be 23 8a 3e 98 56 8f be
       -0.22733046 0.25670224 0.26980394 -0.27995753
0001d0 b2 63 0c 3a 34 4d 5b 3e 85 00 73 3e e2 3c c8 3d
       0.0005355432 0.2141617 0.23730667 0.097772375
0001e0 0e 39 72 3e 36 ab 5a 3e 14 12 03 3e 02 fb dd 3d
       0.23654577 0.21354374 0.12799865 0.108388916
0001f0 c2 53 90 be ef c7 d6 bd 9e 6a cd bd 63 37 02 be
       -0.28188902 -0.10487353 -0.10030101 -0.12716441
000200 d6 a7 4f be e5 85 5e be 6f 5d 54 3c e9 4c 94 bd
       -0.20278868 -0.21730764 0.012961729 -0.07241232
000210 eb 5f 61 be 65 61 ed bb 0c 5d 6c 3e 28 45 19 3e
       -0.22009246 -0.0072442763 0.2308237 0.14967787
000220 46 4c 1b bc 46 a2 35 3d 03 e0 8b 3e 08 11 97 3e
       -0.009478634 0.04434421 0.27319345 0.2950518
000230 c0 48 7f 3e 21 f2 20 3e 7c 4b 5d 3e 1e d6 cb 3d
       0.24930096 0.15717365 0.21610826 0.09952949
000240 fa 24 ff bd c9 ff fa bd 2d b9 10 3e f9 58 cd bc
       -0.124582246 -0.122558184 0.14133139 -0.02506684
000250 8e 82 33 be 25 37 84 be cb 6e e5 be ce fc 1f be
       -0.17530271 -0.25823322 -0.4481109 -0.15623781
000260 92 ec c5 3d f3 ce ba 3e d9 51 bd 3e f0 af 2a bf
       0.09664263 0.36486015 0.36976507 -0.6667471
000270 3d 56 e4 be 18 4a 28 bf 7f 0b 9f be 09 86 a0 bd
       -0.44597045 -0.6573806 -0.31063458 -0.07838065
000280 ca 15 a5 3d cd 73 1e be 7b 84 ea be ab b3 07 bf
       0.080607966 -0.15473862 -0.458042 -0.53008527
000290 6b de d0 be 58 1a 6a 3e a4 af 1c 3e 02 89 1f 3e
       -0.4079469 0.22861612 0.15301377 0.15579608
0002a0 60 d7 37 be 34 92 3c be 3e f0 7c 3e a4 ea 8b 3d
       -0.17953253 -0.18415147 0.2470102 0.068318635
0002b0 66 77 94 3e 20 17 66 3e 62 57 f0 bc 31 e5 7e 3e
       0.28997344 0.22469759 -0.029338542 0.24892117
0002c0 68 95 a4 3d 7e 63 36 3d 96 9e 9b 3e 08 eb 92 3d
       0.080363095 0.044528477 0.3039443 0.07173735
0002d0 cc 8d 1b 3e 8f 20 d7 3d 49 aa 76 3e 38 a6 34 3e
       0.1519081 0.10504257 0.24088396 0.17641532
0002e0 41 64 86 3e 2c dd ab 3d ff f1 38 bc 13 4d 4f 3c
       0.26248363 0.083917946 -0.011288165 0.012652653
0002f0 6a 1c ed bd 4d 3c eb 3d 08 af 3e bd 3f c9 85 bb
       -0.11577685 0.11486111 -0.04655364 -0.0040828283
000300 7b 5f 8c be ca a0 ff bd 73 26 b7 be 03 17 c2 be
       -0.27416596 -0.1248184 -0.35771522 -0.37908182
000310 c9 f2 ec be e3 a5 b5 be 2b 23 84 be 56 7e be bd
       -0.4627898 -0.35478124 -0.2580808 -0.093014404
000320 55 a5 43 3e b3 60 4a 3e ee 90 9f be 75 f6 86 be
       0.19106038 0.1976345 -0.3116526 -0.26359907
000330 81 14 66 bd a5 d6 83 3e e5 42 79 3c c1 3f d9 3d
       -0.056171898 0.25749698 0.015213703 0.10607863
000340 10 73 bc bd 3c 9b cc bb 19 20 9c bc 0d c1 0a 3c
       -0.09201634 -0.0062440913 -0.019058274 0.008468878
000350 7c bf f6 3c a0 04 80 bc 21 cf a1 3b eb b8 e7 3c
       0.030120604 -0.015627205 0.004938022 0.028286418
000360 95 74 25 be 23 77 c7 bd cc 4f 95 3e 5f 7e 12 be
       -0.16157754 -0.097395204 0.29162443 -0.14306019
000370 44 20 52 3c c4 31 41 3e 32 39 87 3d 8a 1f 9c 3d
       0.012825076 0.1886664 0.06602706 0.07623203
000380 4e 23 3e be 41 13 48 3e a9 d1 16 be bf cd d1 bd
       -0.18568155 0.19538595 -0.14728417 -0.10244321
000390 9d b0 0a be f9 04 25 be 82 0a 4e bc f6 d3 15 3e
       -0.13543935 -0.16115178 -0.012575747 0.14631638
0003a0 bd 0f 90 3d 9d 4a c4 3e 72 32 84 3e 46 4c ae bd
       0.07034252 0.38338175 0.25819737 -0.08510642
0003b0 62 fa 11 3e a7 4b 78 bd 76 bc 6d 3d ef e2 84 3e
       0.1425567 -0.060619023 0.05804106 0.25954387
0003c0 f3 77 2f bc 18 a7 05 3e 3a 21 0e be 09 77 f9 bd
       -0.0107097505 0.13052022 -0.13879862 -0.12180907
0003d0 b2 bb 4f 3e 55 77 bc be 9b 04 e5 bc eb 47 c6 be
       0.20286444 -0.36809793 -0.027956298 -0.38726744
0003e0 05 66 40 be df 10 9d bd
       -0.18788917 -0.076692335

bias f4 [10]
000000 dc 06 86 be 0f 22 07 bc 86 4e 28 bd 64 28 0a be
       -0.26177108 -0.008247866 -0.04109051 -0.1349197
000010 cb 17 2d be 5d c5 32 be 78 75 81 be 81 95 91 3b
       -0.16903608 -0.174581 -0.25284934 0.004442871
000020 af 11 31 be 08 c9 9a bd
       -0.17291902 -0.07557875

weight f4 [20, 10, 5, 5]
000000 f2 c7 40 be 9f b9 69 3d 27 79 1c 3e c3 af 0e 3e
       -0.18826273 0.057061788 0.15280591 0.13934235
000010 d8 8a 2c 3d 16 db 09 be 8f 27 7c bd 5c 74 26 3e
       0.0421246 -0.13462481 -0.061561164 0.16255325
000020 78 07 45 3e a1 a0 89 3d 84 f4 7b bd ef 76 eb 3c
       0.1924113 0.06720091 -0.061512485 0.028743235
000030 31 bf 8b bd b6 16 35 3d 27 4a a4 bd c8 d9 cf bd
       -0.06823576 0.044211112 -0.08021956 -0.1014896
000040 fe f5 e0 3d b0 de 4a be 45 8f 16 be 2d 50 cc bd
       0.10984419 -0.19811511 -0.1470309 -0.0997623
000050 d5 41 c3 bd 02 6a ad bd eb 98 67 be 39 76 c1 bd
       -0.09534041 -0.08467485 -0.22616927 -0.09446377
000060 b7 e3 29 bd 47 84 0a 3d 8d 90 da 3d 9f 58 fe 3c
       -0.04147693 0.033817556 0.10672102 0.031048117
000070 dd 21 a4 bb 50 1f b8 bd 1a 22 38 bd 6c de 50 bd
       -0.0050089196 -0.089903474 -0.044954397 -0.050993368
000080 16 c8 26 bc c4 2c e7 bd a0 09 15 be 38 d2 8d bd
       -0.01017954 -0.11287835 -0.14554453 -0.06924862
000090 28 79 bf 3c c5 e3 af bc 3c a1 d2 bc 3a 90 58 bd
       0.023373201 -0.021470914 -0.025711648 -0.05287192
0000a0 b9 4b ce bc 9b 97 36 3d 2c 8b af 3d 5d 7a f2 3d
       -0.025182592 0.044578176 0.08571467 0.11839745
0000b0 d3 e5 a4 3d 7d 5c 98 bd a9 53 7d bc af bb 34 3d
       0.08051648 -0.07439516 -0.015461841 0.0441243
0000c0 21 50 54 3e 92 d2 a3 3d 75 68 52 bd ec 3f fe bc
       0.20733692 0.079991475 -0.05136915 -0.03103634
0000d0 8a 94 94 bc 1a 72 80 bd 4d 7a 35 3e f5 a1 40 3d
       -0.018137235 -0.06271763 0.17722435 0.047029454
0000e0 b2 de 6c bd 83 ee 97 3c 82 85 56 3d dd fb cb 3d
       -0.057829566 0.018546348 0.052373417 0.099601485
0000f0 2a d8 87 bd cd fd 05 be ad 72 3d bd c0 fd d4 3c
       -0.06633027 -0.13085099 -0.04625194 0.025999904
000100 b5 74 17 3e 5f ce c7 bc 71 d4 38 bc 23 ec e8 3c
       0.14790614 -0.024390398 -0.011281119 0.028432911
000110 56 0c 84 3d 35 c1 01 3b 9d 02 a6 bc 8a 79 dd bc
       0.064476654 0.0019798998 -0.020264918 -0.027035493
000120 59 b7 a9 3d 74 20 cd 3d 59 6f 67 bd 5c 68 57 be
       0.08286924 0.100159556 -0.056502674 -0.21035904
000130 4b c8 ec 3d 26 bb 1a 3e 34 a4 e7 3d 52 5c e6 3c
       0.1156164 0.15110454 0.11310616 0.028120194
000140 82 db 02 be e4 0d 53 3d 8e 1e b0 3d 1b 16 51 3d
       -0.12779048 0.05152692 0.08599578 0.051046472
000150 bc 3f 21 be a9 7f 94 bc 94 a7 2a 3c 81 5c b4 bd
       -0.15746969 -0.01812728 0.01041593 -0.08806706
000160 71 fe 3e bc fc 73 e4 bb 11 e7 df bd d0 68 e1 bd
       -0.011657343 -0.006971834 -0.10932744 -0.110063195
000170 8a e2 3d be b1 62 59 3d 2f c2 40 3d 6a d4 2c be
       -0.18543449 0.053072635 0.047060188 -0.16877905
000180 05 ca 70 be ab 08 0a 3d be dd 96 bc ac 97 f6 3d
       -0.23514564 0.033699673 -0.018416282 0.12040648
000190 e0 18 8a 3d 20 95 b4 bd b0 58 37 be 57 7d 55 bb
       0.06743026 -0.08817506 -0.17904925 -0.003257593
0001a0 75 63 d5 3d ed b1 2d 3e 0e 3e 0b 3e b3 ea 2c be
       0.104193605 0.16962405 0.1359789 -0.16886406
0001b0 6c 02 5c be 7a 98 1b be aa a3 fa 3d 1b 26 06 3e
       -0.21485299 -0.15194884 0.12238248 0.13100474
0001c0 b2 b8 8d 3b 6f ed 42 be 91 54 52 be b1 3e f6 bc
       0.004324996 -0.19035886 -0.20540072 -0.03005919
0001d0 cf fa 17 3e 5f 84 51 3e 7d c3 8f 3d be fc a2 bc
       0.1484177 0.20460652 0.07019708 -0.019895907
0001e0 2f 9e 3b 3d b5 bc 40 3e ed 3b 71 3e c5 52 6f 3e
       0.045805153 0.18821986 0.23558016 0.23371418
0001f0 4c d7 07 3e e0 78 31 3e 5a b8 62 3d 5f 1b 91 3d
       0.13265723 0.17331266 0.055351593 0.07085299
000200 87 5f b2 bd 9c b2 e0 bc e5 44 30 3d 11 44 99 bc
       -0.08709627 -0.027428918 0.043034453 -0.018709214
000210 10 d3 91 bd 29 6e 00 bc 41 6f 08 3d 91 80 21 3e
       -0.07120335 -0.007838764 0.033309225 0.157717
000220 a4 c6 32 3d 72 42 29 be 84 a9 1c be fa 66 6a 3d
       0.04364647 -0.16529253 -0.1529904 0.057227112
000230 0b 4c d4 3d 29 f2 ac 3d 0c 5c 6d 3c 90 d5 c2 bc
       0.103660665 0.08444626 0.014487278 -0.023783475
000240 3f 6f 34 bc f7 d8 c0 bd 57 ea 59 3e b4 f9 20 3e
       -0.011012851 -0.09416383 0.212808 0.15720254
000250 51 e3 dc 3a 32 db 12 bd bd 11 d8 bd d4 7e 72 bd
       0.0016852414 -0.035853572 -0.10550258 -0.059202984
000260 b8 2a 04 3e c8 85 c1 3d f4 28 96 bd 13 40 81 be
       0.12906921 0.09449345 -0.0733203 -0.25244197
000270 be dc cc bd 11 cf db 3c 35 f4 12 3e f4 5e ca 3d
       -0.10003041 0.026832135 0.1435097 0.09881392
000280 ae 91 48 be 6c 51 e6 bd 70 c9 de 3d 5a 58 89 3d
       -0.19586822 -0.11245999 0.10878265 0.06706305
000290 e3 83 12 3c 59 11 b5 bd 3a 45 51 3c 2d 02 5f 3d
       0.008942577 -0.088411994 0.012772853 0.054445434
0002a0 a1 c0 e3 bd dc c1 9d be 77 c9 0e be fb 21 d4 bd
       -0.111207254 -0.30811965 -0.1394404 -0.10358044
0002b0 db 23 12 3c 16 72 3b be 49 1e 94 be 93 02 e3 ba
       0.008919681 -0.18305239 -0.28929356 -0.0017319493
0002c0 69 74 12 be bd 70 5c be d9 84 6e bc 03 a2 ef bc
       -0.1430222 -0.21527381 -0.014558041 -0.029252058
0002d0 af f8 c1 bd d3 fd 9c bc 4e 07 88 3d 06 81 bc bc
       -0.09471261 -0.019164002 0.06642018 -0.023010742
0002e0 c9 ff bc be 05 87 9c 3c 57 fc 2e 3d 57 3d c4 3d
       -0.369139 0.019107351 0.04272112 0.09582012
0002f0 61 99 6b bd 0e 80 1a be c2 69 9e 3d ad ae 8f bd
       -0.05751932 -0.15087911 0.077350155 -0.07015739
000300 b5 7a 2e bd df e9 6e bd 2c 86 56 bd 5f 62 10 3e
       -0.04259749 -0.058328506 -0.05237405 0.14100026
000310 1f f4 8c bd fa b1 2c bb eb eb 9c bd 0b 43 f3 bc
       -0.068825 -0.00263512 -0.07662185 -0.029695055
000320 9c d0 05 be 6e 63 09 3e 74 fe 81 bc 05 16 e0 bd
       -0.1306786 0.13416836 -0.015868403 -0.109417
000330 11 3e 02 bd 93 bb 39 bd 04 28 03 3d 48 04 88 3b
       -0.031797472 -0.0453449 0.032020584 0.004150901
000340 89 01 76 3d 06 23 b0 bc 74 d2 f1 3d cc 4d 77 bd
       0.060060058 -0.021501075 0.11807719 -0.060376927
000350 32 14 cb 3d 70 16 bb 3d 54 32 2f 3d ee e0 f1 bc
       0.09915961 0.09135139 0.042772606 -0.0295262
000360 44 2e b1 39 90 79 98 3d 1f 4d a8 bd 5e 13 43 bc
       0.0003379454 0.07445061 -0.08217835 -0.011906473
000370 36 b1 2c be 4d 91 c7 bb 30 bb f4 bd b2 ff 15 bd
       -0.16864476 -0.0060903192 -0.11949766 -0.036620803
000380 09 8e 25 bd 55 20 ef 3d 03 12 dd 3c e9 a9 8e 3c
       -0.04041866 0.11676089 0.026986128 0.017415004
000390 f4 12 a6 3c 89 d9 d7 3d 2c 4a fd bc 10 c4 e2 3d
       0.02027271 0.105395384 -0.030919157 0.11072552
0003a0 c4 5d 41 3e 4d 39 d6 3c b3 34 aa 3d 7b 2a 63 bd
       0.18883425 0.02615037 0.08310833 -0.055460434
0003b0 0f e6 4d bd 3a 7a 3d 3d c3 f6 a6 3d cc 8b e0 3d
       -0.05026823 0.046259142 0.08152535 0.10964164
0003c0 53 15 22 3a 77 e9 9b bd 1f cb 7c bd 5f b5 64 bd
       0.0006182987 -0.07612889 -0.06171715 -0.05583703
0003d0 5d 19 8a 3d 7d 87 eb 3d d1 a8 39 3d 16 8d c0 3c
       0.06743119 0.11500452 0.04532701 0.023504775
0003e0 28 7b 13 bd fa d7 25 bd d9 d6 b1 bd 60 07 97 3d
       -0.036006123 -0.040489174 -0.08683557 0.073744535
0003f0 62 3f aa 3d 26 fe eb bb c3 8c 2f 3d a9 48 28 3d
       0.083128706 -0.0072019277 0.04285885 0.04108492

bias f4 [20]
000000 71 84 3e 3d 57 d8 17 bd ac b2 22 3d 94 80 bd 3d
       0.046513025 -0.037071552 0.039721176 0.0925304
000010 78 ea c7 bb 6e 7e 8b bc 1a 10 d8 bc ee 3d 19 bd
       -0.006100949 -0.01702806 -0.026374865 -0.037412576
000020 76 14 00 bd c8 22 35 3d db a1 ec bc c9 4a 91 bd
       -0.031269513 0.044222623 -0.028885772 -0.07094342
000030 b5 65 2e bd 10 1a a7 3c fa f8 a3 bc e9 5f 30 bc
       -0.042577464 0.02039817 -0.020016182 -0.010765054
000040 ce 9b 5d 3d 0e 72 2d 3d 48 9a 10 3d fd 23 ee 3c
       0.054103665 0.0423451 0.035303384 0.029069895

weight f4 [50, 320]
000000 b8 6c 20 3d 9a 39 ca 3d dc c6 a3 b8 7d a4 5d 3d
       0.039166182 0.09874268 -7.809486e-05 0.054111946
000010 d5 69 3c bc 04 ce f8 3c 73 81 09 ba 62 5f 7c 3b
       -0.011499842 0.030371673 -0.00052454247 0.0038509
000020 56 9d 6a bd 24 8a 7e 3d 1d 5f 7c bd 94 27 83 bd
       -0.057278953 0.06214346 -0.061614145 -0.06404033
000030 19 54 8e 3c 9a 99 28 bd ae e8 e3 bd a0 eb 28 bd
       0.017374085 -0.04116211 -0.111283645 -0.041240335
000040 6e f1 b4 bb ce 8c 2b 3c 9f 84 7c 3c f3 a9 c9 bd
       -0.0055219447 0.010470582 0.015412479 -0.09846868
000050 6b 57 98 3d f3 2e bc 3a 27 5a 85 bd a0 ce 23 be
       0.07438549 0.0014357254 -0.06511336 -0.1599679
000060 b0 31 76 3d 1a 37 00 3d 11 de 33 3c 72 fb 02 bd
       0.06010598 0.03130255 0.010978238 -0.03197808
000070 0d 90 89 3d 80 24 aa 3d dc af 30 bc 7f e9 89 3d
       0.06716929 0.08307743 -0.010784116 0.06733989
000080 e1 c9 84 bd 90 0a 84 bd 2c aa bd 3d 8c b7 bb 3c
       -0.06483818 -0.06447327 0.09260973 0.02291467
000090 14 4f a6 bd eb a1 40 be 6b c0 af 3c 78 83 4c 3d
       -0.08120552 -0.18811767 0.021454057 0.049930066
0000a0 91 51 a4 bd 79 59 19 bd 3c 6b ce 3d 6f d9 f7 bd
       -0.0802337 -0.037438843 0.10079047 -0.12102019
0000b0 9c 9f 5c 3b 06 0d 44 3d 44 fd ee bc a7 44 55 be
       0.003366447 0.047863983 -0.0291735 -0.2082697
0000c0 14 89 58 bd d9 2c 36 3c bb bc ea bc 94 7b a4 3c
       -0.052865103 0.011119091 -0.028654447 0.020078458
0000d0 04 26 81 bd e2 7b 84 bc 06 83 f3 3d 38 b4 dc 3d
       -0.06306079 -0.016172353 0.11890225 0.107765615
0000e0 22 7b 63 3d b4 b3 9f 3d e8 76 16 3e b0 21 cd 3c
       0.05553735 0.077979475 0.14693797 0.025040478
0000f0 4d 56 4e bd 79 3b 2c 3d 6b 47 32 3d c7 d1 16 be
       -0.05037527 0.042048905 0.04352514 -0.14728461
000100 cd fe 01 bc 2f f8 bb 3d be 1f 92 3d 01 45 ef 3c
       -0.007934284 0.09178197 0.071349606 0.029207708
000110 f6 a9 14 be eb a6 ea bd 84 de cd bd 62 32 ee bb
       -0.1451796 -0.11457618 -0.10052207 -0.0072691897
000120 86 82 0a be a9 59 8e bd bf 63 e7 bd 80 6a 52 3d
       -0.13526353 -0.06950695 -0.11298322 0.051371098
000130 1e e9 3a 3c fa d9 06 3d 66 6a 2b 3d 8b 01 0e 3e
       0.0114081185 0.032922722 0.041849516 0.13867776
000140 24 a5 99 bc 8c 02 c1 3c a9 bb 66 bd 2b 45 61 bb
       -0.018755503 0.023560785 -0.05633131 -0.0034373503
000150 5f 77 b8 3d cd 6f ea 3c 9a 68 8f bd 0e b5 39 bd
       0.09007143 0.028617764 -0.07002373 -0.045338683
000160 f5 f3 8e 3d 2f 70 51 3d 14 a2 01 3e 4c 52 0a be
       0.06980125 0.051132377 0.12659484 -0.13507956
000170 9c cf 15 3c 6e 10 84 bc 5f 1c bd 3d 91 ad 8a bc
       0.009143736 -0.016121116 0.09233927 -0.016928466
000180 e2 b1 1b 3d e0 d9 3f 3d 52 c7 1d 3d a6 f8 a4 bd
       0.03801144 0.04683864 0.038520165 -0.080552384
000190 24 88 7b 3d 5e 76 95 bc da 94 92 bd 33 df 14 be
       0.06140913 -0.018244918 -0.071572974 -0.14538269
0001a0 14 b2 35 3c 6c dc b3 bd d4 51 e7 bd 62 53 b8 3c
       0.01108982 -0.087822765 -0.11294904 0.022500698
0001b0 67 fa 99 bc dd 0d 15 3c ed 74 25 bb 51 80 05 3e
       -0.018796159 0.009097544 -0.0025246695 0.1303723
0001c0 16 be f5 3b 46 29 90 bc 23 91 06 3e 5a b5 30 bd
       0.0074994667 -0.017597806 0.13141303 -0.0431417
0001d0 f7 42 00 bd d1 57 f8 bd 6c 34 63 bd 00 d2 d9 bd
       -0.031313863 -0.12126125 -0.055469915 -0.106357574
0001e0 ec f1 41 bd c1 b8 79 bc 53 db 59 bb 15 ec 05 3e
       -0.047349855 -0.015241803 -0.00332423 0.1307834
0001f0 31 37 ef 39 d8 72 83 bc 25 57 5b 3d 04 19 ff 3d
       0.00045626753 -0.016045973 0.053549904 0.12455943
000200 7f 7c be bd 96 ee 11 3d 38 1e 0d 3d eb d1 fb 3b
       -0.093010895 0.035627924 0.034452647 0.0076849363
000210 84 f5 e8 bd 6c 5c 4e 3c f8 c9 89 3d fc f5 90 bc
       -0.113749534 0.012595277 0.067279756 -0.01769542
000220 09 09 46 ba d6 ba a9 3a 89 01 4a 3c 0a 2d 05 3e
       -0.0007554447 0.0012949358 0.012329468 0.13005462
000230 66 00 99 3d 52 c3 6c 3d b7 31 90 bd 25 29 e0 bd
       0.07470779 0.05780346 -0.07040732 -0.10945348
000240 e8 d1 0e bd 04 21 ea 3c 15 ae 04 3d 25 92 a9 3c
       -0.03486815 0.028580196 0.03239258 0.02069957
000250 80 d4 7f bc 22 34 9e bc 0c 7c bf ba c3 6e bb 3c
       -0.015614629 -0.019311968 -0.0014609112 0.022879964
000260 0a 76 2c ba b8 1f 9e bc 24 97 91 3d f6 ba 8f 3e
       -0.00065788685 -0.019302234 0.07108906 0.28072327
000270 ea 38 03 bd 7b 57 1d 3d 9c fc 91 bc 43 95 a9 3d
       -0.0320367 0.038413506 -0.017820649 0.082804225
000280 2d c1 06 bc 5c 04 83 3d db a0 92 3d fa 7f 5f 3d
       -0.008224768 0.06397316 0.07159587 0.054565407
000290 0d 74 89 3c 72 3f 7d bd db c3 2f 3d 00 64 78 3d
       0.01677897 -0.061828084 0.04291139 0.060642242
0002a0 da 1a b6 bd 91 6e 9f bd dd e9 0b 3e d1 6c 7e bd
       -0.0889184 -0.07784761 0.1366343 -0.062115494
0002b0 9e 27 11 be af f8 e9 bd 55 1e 3a 3d 64 72 a8 3c
       -0.14175269 -0.11424386 0.045439083 0.020562358
0002c0 3a 57 c1 3d de 1f 13 3d a4 2d a5 3c 1b ba c1 3d
       0.09440465 0.035919063 0.020163365 0.09459325
0002d0 f5 1b 54 bd f7 02 19 be ea f5 21 bd 67 ce 02 3c
       -0.051784474 -0.14942537 -0.039541163 0.0079837805
0002e0 a9 fa 02 be 88 65 81 be 78 de ef bc e7 5a 6d bd
       -0.12790932 -0.25272775 -0.029280886 -0.05794802
0002f0 0e 1f 77 bd a9 a5 24 bd 93 39 cd 3d a2 6d d3 3c
       -0.06033235 -0.04019705 0.10020747 0.025809113
000300 14 b2 a6 bd fd 2e d0 3d 6c e8 a5 3d 14 76 32 3d
       -0.081394345 0.10165212 0.081009716 0.04356964
000310 a3 e3 4d bd da 53 0c 3d f9 30 00 3e 54 a1 0f 3e
       -0.05026592 0.034259655 0.12518682 0.14026386
000320 dc 0d bd bd 73 9a 5e 3c f9 7c 55 3d 89 31 92 bb
       -0.09231159 0.013586628 0.052121136 -0.0044614715
000330 5e 3f 1d be 89 98 a2 3d 79 2e 6e 3d 1d 50 13 3d
       -0.15356204 0.0793925 0.05814979 0.035965074
000340 38 8b f8 bb 03 95 61 3d 4e f4 33 3d 8c 3d 1d bd
       -0.0075849555 0.05507375 0.04393416 -0.038388774
000350 b2 a1 24 bd 64 99 48 3c 68 56 09 3d 2a f3 e0 3d
       -0.040193267 0.012243602 0.03352967 0.1098388
000360 26 f5 5c 3d ed 23 39 bc 48 47 16 3e b5 30 1c 3d
       0.05394473 -0.011300069 0.14675629 0.03813239
000370 4c 9f 06 bc eb 7d 9e 3d 59 9d df 3c c4 da 2a bd
       -0.00821669 0.07738861 0.027296709 -0.041712537
000380 65 9e 9b 3d d9 a0 1c 3e 3b d0 d4 bc 54 63 90 bd
       0.07598571 0.15295734 -0.025978198 -0.07050195
000390 9e e1 f3 3c c1 f5 24 3d 36 a9 78 bc 68 b9 83 bd
       0.029770669 0.04027343 -0.015177062 -0.06431848
0003a0 47 46 ab bd b2 d5 77 bd 7d 0b 26 3d 86 52 4d be
       -0.08363014 -0.06050653 0.0405383 -0.20051011
0003b0 93 38 8b bb a9 5f 5f 3c 22 9d 89 3c d5 ee b5 bc
       -0.0042486875 0.013633647 0.01679856 -0.02220861
0003c0 07 de 17 bd 8e 96 91 bc 65 f3 2e bd 93 27 ed 3c
       -0.037076976 -0.017771985 -0.042712588 0.028949535
0003d0 ea 46 86 3d 80 e7 1e be 8a fa 6d be d4 96 37 be
       0.065564945 -0.15517998 -0.23240104 -0.1792863
0003e0 90 02 23 bc 55 4d 2b bd a7 70 c3 bd 07 76 38 3d
       -0.009949341 -0.041821796 -0.09542971 0.045034435
0003f0 15 09 56 3d f8 4a 81 3d 03 73 24 3d cc 09 de 3d
       0.052254755 0.06313127 0.040148746 0.10841712

bias f4 [50]
000000 aa 98 7a 3e b1 40 2c 3e d1 49 df 3d ca 5e 83 3d
       0.24472299 0.16821553 0.10902751 0.06414564
000010 29 cc 23 3e 79 00 8d 3e 20 78 a6 3d 57 fb 72 3d
       0.1599585 0.27539423 0.08128381 0.059321728
000020 d2 96 0c bd 92 87 ab 3d 30 02 3a 3d 74 8b c8 3d
       -0.03432352 0.08375467 0.045412242 0.097922236
000030 0d b9 0f bd 2f fa 8e 3e 4a 4d 0b 3d 51 dc 0c 3e
       -0.035088588 0.2792525 0.034009255 0.13755919
000040 85 1b 21 3e 5c 47 7e 3d 6c 16 99 bb 15 9a 5c bd
       0.15733154 0.062079772 -0.0046718623 -0.05385788
000050 9f 12 27 3e 61 82 09 3d 53 9b ee 3d 46 63 ea 3c
       0.16315697 0.033571605 0.116507195 0.02861179
000060 22 26 62 3e 61 ca 9d 3e 05 50 af 3d 14 36 ce 3d
       0.22084859 0.30818465 0.085601844 0.10068908
000070 28 6e 48 3e 94 ba 4d 3d 21 cd 89 3d 43 2f 6a 3d
       0.19573271 0.050226763 0.06728578 0.05717398
000080 39 c1 bc 3d 9e b1 48 3d a3 f0 2c 3d b7 7c 7c 3e
       0.09216542 0.048997514 0.042221677 0.2465695
000090 83 08 2c 3e 58 82 9b 3e 80 fd 4a 3d 87 8a 23 bc
       0.16800122 0.30372882 0.049558163 -0.009981758
0000a0 46 fd e4 3d f4 15 96 3e 2c 7d 31 bd 43 15 3c 3e
       0.111811206 0.29313624 -0.043332264 0.18367486
0000b0 3f c5 96 3e 48 51 bb bb d4 b1 25 bc 58 f9 9e bd
       0.29447362 -0.0057164766 -0.010113198 -0.07762402
0000c0 45 db 62 3d 84 c2 e4 3d
       0.055384893 0.111699134

weight f4 [10, 50]
000000 c9 c2 1e 3e 07 3d 98 be 9f 4c 8e be 8d 1f c5 bd
       0.15503992 -0.2973406 -0.27792832 -0.096251585
000010 fd 18 99 be a8 c3 43 be e1 46 91 3d 54 62 15 3e
       -0.29901877 -0.19117606 0.07093597 0.1458829
000020 d2 d0 cd bd 51 02 bb 3d bf 8f 8b be 41 fc 7f be
       -0.10049595 0.09131301 -0.27258107 -0.24998571
000030 83 68 54 be d3 68 97 be fe e6 f0 3d f1 40 f7 3d
       -0.20742993 -0.29572162 0.11762808 0.120729335
000040 89 4c 8c bd c7 ad 91 be bd 90 7a be 4f 7e 11 3e
       -0.068505354 -0.28452894 -0.24469276 0.14208339
000050 a4 cb bf be 0c c1 61 be ae d9 da 3d dd c3 f5 3d
       -0.37460053 -0.22046298 0.1068605 0.120002486
000060 19 d3 96 be 39 7e 03 3e 4c 0b 32 be 0f 7c 43 be
       -0.2945793 0.12841119 -0.17387122 -0.19090293
000070 85 99 9e 3d 49 92 96 3d 72 81 11 be ec 88 f5 3d
       0.07744125 0.073521204 -0.14209536 0.119890064
000080 b1 22 af 3d d7 1a 17 be 97 6f 12 3e e7 c5 56 be
       0.08551539 -0.14756332 0.1430038 -0.20973931
000090 44 ca 9a bd f0 ae d4 3c 48 34 32 3e 91 7a 41 3c
       -0.0755811 0.025962323 0.17402756 0.011809007
0000a0 14 1b 4f 3d fe a0 cf bd 04 a2 93 be 36 79 a9 be
       0.050562933 -0.10138129 -0.28834546 -0.3310029
0000b0 4f 53 eb 3d 5e 96 09 be 6b f4 e3 3d 62 26 97 bd
       0.11490499 -0.13436267 0.111306034 -0.07380368
0000c0 e7 69 13 3e 41 31 b8 3d 91 33 54 3e 5b ca 36 3e
       0.14395867 0.089937694 0.20722796 0.1785063
0000d0 7c 60 a1 3d b0 a1 01 be 71 b3 ee 3d 77 eb f8 3d
       0.07879731 -0.12659335 0.116553195 0.12154286
0000e0 df e6 8b be ad 9a ab bd 5d 6e 65 bd b4 14 0d be
       -0.27324578 -0.083791114 -0.056013454 -0.13777429
0000f0 67 ef 3f be 7e 5c ae bc ab 27 53 be 77 84 16 3e
       -0.18743668 -0.021284338 -0.20620601 0.14698969
000100 23 72 29 be 71 18 9b be d9 eb 1b be 16 c0 bb 3d
       -0.16547446 -0.30292085 -0.15226687 0.09167497
000110 91 e2 51 be c3 b4 94 be 4d 9e d3 3d 8a 46 50 be
       -0.20496584 -0.2904416 0.10332928 -0.20339409
000120 18 eb 84 be bd 9a 5b be b1 91 e6 3d ec 1e 2c 3e
       -0.25960612 -0.21445747 0.11258257 0.16808671
000130 21 d8 88 be e8 6a 2e 3d 06 46 da 3d c9 18 7b be
       -0.26727393 0.042582422 0.10657887 -0.24521174
000140 21 50 88 3d 4a 14 54 be 26 d3 fb bd 96 76 0a be
       0.066559084 -0.20710865 -0.12296133 -0.135218
000150 1c 58 ef bd 03 c0 99 3d e5 67 b0 3d a4 f3 6b 3e
       -0.116867274 0.075073265 0.08613566 0.2304216
000160 97 ab 42 be 2a 4c 0b 3d b2 8b 13 3e ff d3 4e 3e
       -0.19010769 0.034008183 0.14408758 0.20198058
000170 6e 2c 91 bd 07 c2 54 3e 8e 05 ce 3d 7f d0 8c be
       -0.070885524 0.2077714 0.10059653 -0.2750282
000180 8c a8 a9 3b 11 56 8c be d2 b3 ab be 04 0e 3d be
       0.005177563 -0.27409413 -0.3353563 -0.18462378
000190 06 3e 33 3e c8 fd 39 3e 77 6d c3 3d 38 68 c0 3d
       0.17504129 0.18163216 0.09542363 0.09394878
0001a0 13 39 1e be b0 ba 17 be 40 f7 c1 bd 82 78 ea 3d
       -0.1545146 -0.1481731 -0.09470987 0.11448766
0001b0 d5 1a 0a be a8 7f 3b be 76 e6 ba 3d b6 b9 96 3d
       -0.13486798 -0.18310416 0.09125988 0.0735964
0001c0 0f 8b 98 be 88 2f 5f bd e0 19 e2 3d da f7 26 be
       -0.29793593 -0.05448869 0.110400915 -0.16305485
0001d0 c8 05 4d bd 14 0d 11 be 07 94 15 be 93 c0 aa bd
       -0.05005434 -0.14165145 -0.14607249 -0.08337512
0001e0 c8 77 56 bd 3e 26 d7 bd a5 c3 84 be 0e d5 1f bd
       -0.052360326 -0.10505341 -0.25930515 -0.039021544
0001f0 57 43 43 be da c4 1e be 44 35 ee 3c 65 a4 c4 be
       -0.19068657 -0.1550478 0.029078133 -0.38406673
000200 85 85 db 3d 03 ec 9a 3d 4f 91 ba 3d ff 0f d3 bd
       0.10718826 0.07564547 0.09109747 -0.103057854
000210 88 26 c6 3d f2 90 30 3d 31 3a 34 3e 1c 37 9b 3d
       0.09675318 0.04310698 0.17600323 0.07578871
000220 22 84 e5 3d 1b 88 4c be a1 18 30 3e 9c 62 21 3e
       0.11206843 -0.19973795 0.17196895 0.15760273
000230 aa 54 e0 bd 0c 2e 88 bd 8d 59 17 3e 73 23 92 bd
       -0.109536484 -0.06649408 0.14780255 -0.07135668
000240 79 3d 94 bd 04 f9 a5 bd eb 30 09 3e 16 b6 0d be
       -0.072382875 -0.081041366 0.13397567 -0.13838992
000250 83 d6 10 be a8 12 fb bd 8e 70 20 3d a7 79 be bc
       -0.1414433 -0.12259418 0.03916984 -0.023251368
000260 73 5c be 3d 76 74 ae bd 7b fb 0e 3e 1e 98 95 be
       0.09294977 -0.08518307 0.1396312 -0.2921762
000270 ff 0b df bc 50 b6 52 be 8d 32 31 3e 2f d7 1a be
       -0.0272274 -0.20577359 0.1730444 -0.15121149
000280 ae cb cf 3d 06 28 84 bd 52 17 8f bd 5c d3 34 be
       0.10146271 -0.06452946 -0.0698687 -0.17658752
000290 7f b7 fa bd 14 cb 31 be 66 90 cc bd c9 25 f2 3d
       -0.1224203 -0.17362624 -0.09988479 0.11823613
0002a0 cb d7 6f 3d 5d 9b f6 3d b9 8d 0e 3e 9b f6 32 be
       0.058555406 0.12041352 0.1392125 -0.17476885
0002b0 5e 4c 51 be 7c 17 1d be b4 02 49 be d5 8b 2d be
       -0.20439288 -0.1534099 -0.19629937 -0.16947873
0002c0 3b 53 e2 3a 15 35 5d be da c2 93 bd 40 53 74 be
       0.0017267236 -0.2160228 -0.07214899 -0.23859882
0002d0 d3 aa 9a 3d 89 ff 0c 3e 89 ab cc 3d e3 6f 5e bd
       0.075521134 0.13769354 0.09993655 -0.054305922
0002e0 63 b0 81 bd 9f e8 96 be 2e 19 e5 3d fc 42 6a be
       -0.06332471 -0.2947435 0.11186443 -0.22877115
0002f0 d9 cd 79 bd cc d8 12 3e 23 f5 9b be 74 b5 9f be
       -0.060987327 0.14340514 -0.30460462 -0.31193125
000300 48 93 26 3e c2 30 ef bd 00 73 4f be bf 93 1e 3e
       0.16267121 -0.11679222 -0.20258713 0.15486048
000310 e7 1f 0d 3e 72 29 e3 bd 9c 6d 6f 3d 8a 93 09 be
       0.13781701 -0.110918894 0.05845414 -0.13435188
000320 31 82 92 bd 02 35 f7 3c e3 bb 49 3d a7 d6 4f 3e
       -0.07153738 0.030176643 0.04925145 0.20296727
000330 09 f7 54 be 26 aa 25 3e f7 7f c1 bd d9 e6 a0 3d
       -0.20797361 0.16178188 -0.094482355 0.07856531
000340 6c 59 95 be a9 16 03 be 1a 82 b8 3d d3 0a 14 3c
       -0.29169786 -0.12801613 0.0900919 0.009035784
000350 da 08 39 bd 85 25 3a 3e 62 7f c8 3d 20 e6 4b be
       -0.045174457 0.18178375 0.09789921 -0.19912004
000360 93 64 22 3e 9d 8b f1 3d 5c d9 4a 3d 23 55 fc bd
       0.15858679 0.11794207 0.049523696 -0.12320926
000370 8e b8 08 be dc 00 f6 3d 81 1b f0 bc 43 9c 04 3e
       -0.13351652 0.12011883 -0.02930999 0.12950234
000380 8d 0b 15 3e 86 00 1c be 63 b3 f0 bd c9 ce b5 bd
       0.14555188 -0.15234575 -0.11752965 -0.08877332
000390 69 97 6e 3d 26 bb e4 3d 46 7b 1a be c9 b0 72 be
       0.058249865 0.11168508 -0.15086088 -0.2370025
0003a0 1a 24 98 be 5a d8 cd 3d d6 86 8a bd b4 51 23 be
       -0.29715043 0.100510314 -0.06763999 -0.15949136
0003b0 91 47 27 be 1e 2e 08 be 39 5b 28 be da d2 3e be
       -0.16335894 -0.13298842 -0.16441049 -0.18635121
0003c0 bf 06 48 3e 1e d3 bc bd 02 d1 b4 bd d7 12 2e 3e
       0.19533823 -0.09219955 -0.088289276 0.16999374
0003d0 1c 76 23 be c8 d5 a9 3d 73 6e 15 be 62 9c bb 3d
       -0.15963024 0.08292729 -0.14592914 0.09160687
0003e0 92 00 02 3e 49 e7 5a be e4 c1 d9 bd c5 a4 24 be
       0.1269553 -0.21377291 -0.10632685 -0.1607848
0003f0 03 81 9b 3d a8 8b c5 3b 79 7d 01 3e ec d9 58 be
       0.075929664 0.006028611 0.1264552 -0.2117688

bias f4 [10]
000000 ba b8 b9 3b 92 11 18 3f da 53 b2 3d 0e 57 27 3e
       0.005667773 0.5940181 0.087074 0.16341802
000010 91 f5 97 bc dc 82 eb bd 92 19 35 3d 27 7b ab be
       -0.018549712 -0.11499569 0.04421384 -0.33492395
000020 36 73 56 bd 7a af 49 3c
       -0.052355967 0.012309903

exp_avg f4 [10, 1, 5, 5]
000000 5c d6 a7 bb f0 9a f1 bb 7d a9 b0 bb a0 27 54 ba
       -0.005121989 -0.0073732063 -0.0053912983 -0.0008093063
000010 23 03 a2 3a 15 ae 6c bb 01 48 bc bb b9 ef 43 bb
       0.0012360554 -0.0036114503 -0.005745888 -0.0029897525
000020 fe e1 4c 38 68 2a 22 3b 9f 5d 05 bc 90 84 fb bb
       4.884786e-05 0.0024744514 -0.008139997 -0.007675715
000030 d5 31 2b bb 3c d6 df 38 f2 1f e4 3a 08 43 2c bc
       -0.0026122232 0.00010673373 0.001740454 -0.010514028
000040 dd c4 e3 bb 63 fc ad ba 3c 55 43 bb 71 3c 4b bb
       -0.006950958 -0.001327407 -0.0029805442 -0.0031011368
000050 ee 29 2e bc 46 0b 9b bb 58 c6 2b bb 1f 63 ae bb
       -0.010630114 -0.0047315685 -0.0026210751 -0.0053218747
000060 fd e5 90 bb 98 a4 e4 3b 9d 61 b3 3b ff 0c 16 38
       -0.004421948 0.006977629 0.005474283 3.577489e-05
000070 bf 23 cb 37 cb ac 21 ba 27 01 0c 3c 68 bb fb 3b
       2.4216131e-05 -0.0006167411 0.008545197 0.0076822527
000080 4e 9a c4 39 df 8c 30 ba 2c a1 d5 b9 8d 7c 19 3c
       0.00037499 -0.00067348586 -0.00040746608 0.009368074
000090 07 4e dd 3b 8a 1f 10 3b fa 38 40 39 99 9e 78 ba
       0.0067536863 0.0021991455 0.00018331772 -0.0009484082
0000a0 45 51 1f 3c 18 73 85 3b 00 eb fc 3a f0 27 75 3a
       0.009723966 0.004072558 0.001929611 0.00093519595
0000b0 9e db 51 3b 10 76 92 3b 39 d3 2a 3b 0f 3b 26 3b
       0.0032021771 0.0044696406 0.002606584 0.0025364792
0000c0 fb 58 7c 3b 38 9a a3 3b 3b cf 9e 3b 4f a2 9d 3b
       0.0038505185 0.0049927495 0.004846481 0.0048106085
0000d0 2f 0d 5d 3b 10 5a 20 3a 1f 82 23 39 8c a2 a0 3b
       0.0033729782 0.0006116936 0.00015593365 0.0049021896
0000e0 68 b8 69 3b 01 13 bd 3a 25 8c 0f b8 fc 4b ba b9
       0.0035662893 0.0014425219 -3.4224377e-05 -0.00035533297
0000f0 92 0a 99 3b a5 b6 58 3b 7e 6f af 3a 73 30 71 ba
       0.0046704495 0.003306785 0.0013384668 -0.000920064
000100 15 ac 42 bb d2 79 8d 3b d8 7a 78 3b 3f 82 a9 3a
       -0.002970462 0.0043175006 0.0037915017 0.0012932493
000110 a5 81 a7 ba f7 c8 68 bb fd d7 86 3b ea e0 2a 3b
       -0.0012779726 -0.0035520175 0.0041151033 0.0026074
000120 ab 78 ea 39 95 3c 04 bb 4f a6 cb bb 2c 5c 0b bc
       0.00044721863 -0.0020177711 -0.006214894 -0.008505862
000130 a5 30 47 bb 16 b1 bd 3a f9 11 3a 3a 18 46 6f 3a
       -0.0030393985 0.0014472331 0.0007098015 0.0009127571
000140 6f 8c 20 bc bb a2 83 bb 53 0d c5 39 f4 56 9e b9
       -0.009799107 -0.0040172017 0.00037584695 -0.00030200894
000150 52 63 a1 39 a7 a6 cd bb 6e 4c 1c bb 9e 40 f3 3a
       0.00030782312 -0.00627597 -0.0023849267 0.0018558686
000160 b4 96 15 3b 5f 96 52 3b 54 36 22 ba bb 7b db ba
       0.0022825422 0.0032133085 -0.0006187905 -0.0016745249
000170 7d 46 13 ba 0e 99 c6 3a 2d e3 32 3b a1 51 26 3b
       -0.00056181086 0.0015151815 0.0027296052 0.0025378244
000180 00 71 45 bb ba ef ec ba 77 b5 86 3a f8 a0 17 3b
       -0.0030127168 -0.0018076815 0.0010277469 0.0023136716
000190 e5 f9 b2 bb 42 54 2c bb 8f 4f 0c bb 22 16 03 bb
       -0.0054619187 -0.0026295339 -0.0021409725 -0.0020002206
0001a0 64 7a 3c 3b ff be 83 bb 24 2b 2d bb b9 27 a3 bb
       0.0028759474 -0.0040205712 -0.002642342 -0.0049791005
0001b0 65 63 2b bb 31 c0 f2 3a 95 a9 0d bb 44 32 b5 ba
       -0.0026151773 0.0018520412 -0.0021615971 -0.0013824184
0001c0 33 e6 70 bb d7 8e c3 b9 36 a8 87 3b 67 e6 85 ba
       -0.0036758303 -0.00037299722 0.0041399254 -0.001021576
0001d0 34 9b a2 ba f4 96 97 39 80 1e 76 3b 35 0e 6a 3b
       -0.0012405873 0.00028913433 0.00375548 0.0035714034
0001e0 99 49 80 ba c6 8f 3a 3a 85 b0 34 3b cf 2f 02 3b
       -0.0009787559 0.0007116761 0.0027571034 0.0019864922
0001f0 fb 17 11 3b 1d e7 a4 3a 28 1d 69 3a 51 b1 3f 3a
       0.0022139538 0.0012581084 0.0008892589 0.0007312494
000200 9b b0 1a b9 c0 6e 42 3b bc 45 8b 3a 2d 06 1c 3b
       -0.00014752375 0.0029668063 0.0010625641 0.0023807392
000210 af 8c d7 3a d2 0f 00 3b f2 a4 38 3b 7b 62 7c 3b
       0.0016445125 0.001954068 0.0028174487 0.0038510847
000220 84 74 89 3b 97 40 0f 3b d3 0a 49 3a 23 9c 7d 3b
       0.004194798 0.0021858567 0.00076691544 0.00386978
000230 2c 21 d7 3a 2d 66 3c 3b db 21 29 3b 18 b3 0b 3b
       0.0016413084 0.0028747425 0.0025807533 0.0021316465
000240 c6 ff a6 3b af f7 2d 3a 30 b7 4a ba c7 f0 64 ba
       0.0050964085 0.0006636334 -0.00077329855 -0.00087333884
000250 62 a8 a5 39 be d0 68 3b 7b 40 98 3b af 05 97 3b
       0.00031596707 0.003552481 0.0046463585 0.004608832
000260 85 c2 be 3b 82 8d 16 3c 92 aa 35 3c 8a ec 8a 3b
       0.0058215284 0.0091890115 0.01108803 0.0042396234
000270 d6 f6 45 3b 7c ca 3e 3b 2d ce af 3b 6f d8 0a 3c
       0.003020694 0.002911239 0.0053651542 0.008474453
000280 07 7f ab 3b 58 a7 a3 3b d4 60 96 3a 6d b2 27 3b
       0.0052336487 0.004994314 0.0011472949 0.0025588528
000290 0e 78 9b 3b 7a ef fb 3b c2 a6 b2 3b 6c 22 7b 3b
       0.0047445362 0.00768846 0.005452008 0.0038320078
0002a0 d3 f9 f5 3a 58 9b 45 3b e2 85 30 3c e7 c0 2b 3b
       0.001876647 0.0030152407 0.010774108 0.0026207508
0002b0 85 2d 19 b9 34 2e 13 ba 4d d4 44 3a f9 46 52 3b
       -0.00014608174 -0.000561449 0.0007508442 0.003208576
0002c0 60 8b de 3b 6e d3 39 3c 52 7c 56 3c 18 cc 52 3c
       0.006791517 0.011341913 0.013091164 0.012866043
0002d0 ff cd a4 3b ce f1 f2 3b 24 8a 05 3c 22 a9 14 3c
       0.0050294395 0.0074140793 0.008150611 0.0090735275
0002e0 76 36 21 3c 12 e9 a2 3b aa 24 99 3b 59 7b 7c 3b
       0.009839645 0.004971632 0.00467356 0.003852567
0002f0 47 6a 34 3b 6d 08 c4 3b 65 7a e4 3b c3 36 93 3b
       0.0027529167 0.0059824497 0.0069725984 0.004492612
000300 47 56 39 3a d7 ad 5f 3a e4 9c 5c 3b 23 d7 a6 3b
       0.0007070046 0.0008532679 0.003366285 0.0050915643
000310 1b 30 42 3b bb c1 f7 39 0c aa b8 38 87 5d 54 3b
       0.0029630724 0.00047255852 8.8054774e-05 0.003240438
000320 6a 1a d4 ba 5a 63 83 b9 6d 83 47 3b 23 60 3b 3b
       -0.0016182188 -0.0002506029 0.0030443326 0.0028591237
000330 fb 76 f7 3a b6 66 0a bb 5a ed 61 ba ea b0 65 3a
       0.0018880063 -0.002111835 -0.0008618437 0.0008762019
000340 62 07 ca b9 51 a6 93 ba ef b5 a6 bb 4e c7 14 bb
       -0.00038533943 -0.0011264776 -0.005087606 -0.0022701803
000350 23 39 92 bb 3b 94 de bb a0 b9 b5 bb 41 25 b5 bb
       -0.0044623776 -0.006792573 -0.00554581 -0.0055281227
000360 35 00 c8 bb a2 76 2b bc 0c a9 5b bc 3a 98 f7 bb
       -0.0061035403 -0.010465296 -0.013407003 -0.0075559886
000370 99 68 ea bb a8 b4 0f bc 8c 4f 37 bc a6 0f 2b bc
       -0.0071535823 -0.008771099 -0.011188399 -0.010440743
000380 0d 07 b0 bb ec 53 97 3b cb b9 a7 3b 28 26 d0 3b
       -0.0053719343 0.0046181586 0.005118584 0.006352205
000390 ef b2 02 3c 3e 5b 16 3c 8b d8 9d 3b ea c3 ce 3b
       0.007977231 0.009177027 0.0048170737 0.006309976
0003a0 6e f9 1b 3c 5a 6d 2f 3c c4 53 2e 3c 4d 45 d3 3a
       0.009519918 0.010707224 0.0106400885 0.0016118676
0003b0 bc 51 99 3b 57 cc a5 3b 62 b2 e4 3b 52 35 11 3c
       0.004678933 0.0050597596 0.0069792727 0.00886281
0003c0 28 30 eb 3a e2 81 72 3b 7a f0 97 3a a2 0f 04 3b
       0.0017943429 0.0037003686 0.0011592053 0.002015092
0003d0 3c 9c a3 3b ba 03 44 3a 67 07 94 3a 16 21 c1 3a
       0.00499299 0.0007477362 0.001129371 0.0014734592
0003e0 95 8f 12 3b 58 04 3e 3b
       0.0022363414 0.0028994288

exp_avg_sq f4 [10, 1, 5, 5]
000000 cb f1 22 3a d2 a1 36 3a f1 5c 07 3a ce 70 ab 39
       0.00062158395 0.0006966862 0.00051636907 0.00032699708
000010 2e 2e 92 39 cb 69 29 3a 0f 54 21 3a 66 11 d6 39
       0.00027881697 0.0006462603 0.00061541883 0.00040830224
000020 1e 6f 7f 39 c5 ae 85 39 46 8e 28 3a 1c fe 1e 3a
       0.0002436009 0.0002549795 0.0006429892 0.0006065087
000030 a6 88 c2 39 7f 49 95 39 01 3a c0 39 a3 85 31 3a
       0.00037104374 0.00028474253 0.0003666431 0.00067719276
000040 4a ea 38 3a 9e 98 1d 3a 40 d7 13 3a 5e e7 30 3a
       0.0007053955 0.00060118164 0.000563968 0.00067483436
000050 57 0d 29 3a d8 60 45 3a 2c 59 52 3a d6 8c 5c 3a
       0.0006448826 0.00075293845 0.0008024152 0.000841332
000060 81 62 51 3a 80 70 6a 3a f0 2e 49 3a 54 d3 b5 39
       0.00079873955 0.00089431554 0.0007674536 0.00034680462
000070 59 8b 25 39 68 24 fb 38 82 96 52 3a 31 c0 fc 39
       0.00015787537 0.00011975394 0.00080332917 0.0004820838
000080 d5 ec 23 39 73 89 cd 38 32 9e c9 38 4c ce 14 3a
       0.00015633118 9.800764e-05 9.613893e-05 0.00056764926
000090 81 ba 75 39 28 48 ea 38 d5 81 df 38 1a c5 f3 38
       0.00023434499 0.0001117143 0.00010657652 0.00011623856
0000a0 60 8b b4 39 d1 36 28 39 8b 99 cd 38 88 bf cc 38
       0.00034436118 0.00016042149 9.803761e-05 9.7631535e-05
0000b0 fd c9 22 39 21 aa 89 39 db 58 2e 39 d7 da 02 39
       0.0001552477 0.00026257432 0.00016627034 0.0001247929
0000c0 0c c2 1e 39 0d 34 9e 39 86 81 aa 39 e5 fc a3 39
       0.00015140342 0.0003017489 0.0003252143 0.00031278204
0000d0 59 00 b4 39 d2 e8 ea 39 00 9d 1f 3a 56 3a 48 39
       0.00034332534 0.00044805423 0.00060887635 0.00019095218
0000e0 75 fd 50 39 03 86 80 39 9e 3e d3 39 be 22 2a 3a
       0.00019930846 0.0002451391 0.0004029171 0.00064901623
0000f0 e2 0a 0b 39 8a a7 19 39 33 fb 73 39 0c 05 0d 3a
       0.00013260127 0.0001465363 0.00023267865 0.0005379475
000100 8b 7b 56 3a 58 bd cd 38 4a 71 09 39 22 0d a0 39
       0.00081818615 9.81043e-05 0.00013107542 0.00030527363
000110 80 9b 48 3a 50 4b 73 3a 41 3e ef 38 c4 bc 5b 39
       0.0007652566 0.0009280937 0.00011408004 0.00020955788
000120 76 1a 0d 3a 19 b7 73 3a 1c 5e 76 3a c3 c4 8e 3a
       0.0005382666 0.0009296998 0.00093981787 0.001089238
000130 e8 26 ae 3a 10 f9 a9 3a 2b c7 67 3a a2 d9 d8 39
       0.0013286741 0.0012967903 0.0008841629 0.0004136088
000140 a0 67 92 3a 8d 21 b6 3a 9d 12 99 3a 34 77 f8 39
       0.0011169799 0.0013895497 0.0011678521 0.0004739106
000150 10 94 46 39 c8 25 97 3a 17 4d a2 3a 4a c4 52 3a
       0.00018937909 0.0011531645 0.0012382594 0.00080401136
000160 f4 f3 88 39 0d ad d7 38 b6 c4 99 3a b7 be 95 3a
       0.000261217 0.00010284232 0.0011731598 0.0011424635
000170 07 59 37 3a 0c b4 78 39 ac ab f4 38 74 57 8e 3a
       0.0006994162 0.00023718196 0.00011666803 0.0010859803
000180 82 79 87 3a c5 93 38 3a 11 00 b5 39 16 03 6b 39
       0.0010335895 0.00070410623 0.0003452306 0.00022412496
000190 13 fa 0f 3a 9f d9 b0 39 6c 45 59 39 4d 06 68 39
       0.0005492281 0.00033731476 0.00020720594 0.00022127591
0001a0 24 03 ae 39 33 84 87 39 7a cd f9 38 e2 e7 07 39
       0.00033190206 0.00025847703 0.00011911518 0.00012960986
0001b0 c3 e0 8c 39 fc d4 01 3a be c9 33 39 91 d0 1c 39
       0.0002687034 0.00049526966 0.00017145925 0.00014955016
0001c0 91 6a 75 39 72 86 13 3a db 5b 4a 3a d7 d9 9c 39
       0.0002340472 0.0005627639 0.0007719376 0.00029916942
0001d0 42 d1 c1 39 da 32 1b 3a 52 47 54 3a 2a 44 4a 3a
       0.00036967738 0.0005920358 0.0008097786 0.0007715846
0001e0 2a b5 14 3a a3 73 32 3a cd 0c 4e 3a 6c e0 43 3a
       0.00056727475 0.00068073923 0.0007860184 0.0007472101
0001f0 d4 1b 14 3a cc 16 a6 39 93 2c 96 39 f8 bc 79 39
       0.00056498987 0.00031678972 0.0002864344 0.00023816887
000200 a3 b1 a5 39 b9 00 f0 39 93 28 ca 39 99 64 b5 39
       0.00031603602 0.00045776906 0.00038558673 0.0003459796
000210 03 93 a5 39 6f f9 07 3a 3e db 34 3a a4 85 01 3a
       0.00031580785 0.000518701 0.0006899125 0.00049408735
000220 4b 5d fa 39 4e 7b 18 3a 32 d8 56 3a c8 88 43 3a
       0.00047753224 0.00058167137 0.0008195668 0.00074590417
000230 21 74 0e 3a 6c 46 25 3a 15 fc 4d 3a e9 1a 4a 3a
       0.00054341747 0.0006304744 0.00078576925 0.00077096984
000240 bb 5f 02 3a fe bf ff 39 1e e1 26 3a e2 e5 31 3a
       0.00049733714 0.00048780435 0.00063659425 0.00067862694
000250 26 09 02 3a da 20 a6 39 76 9c 86 39 38 1d 70 39
       0.00049604697 0.00031686464 0.00025675044 0.00022899068
000260 25 00 ac 39 36 47 23 3a 13 5f 7c 3a 9d fd 51 39
       0.00032806504 0.0006228568 0.0009627204 0.00020026272
000270 20 c5 2e 39 69 20 48 39 a6 37 82 39 fe a3 dd 39
       0.00016667368 0.0001908556 0.00024836994 0.00042274588
000280 ca 56 02 3a b9 be 92 39 15 de 53 39 4e d6 4b 39
       0.0004972039 0.0002798939 0.0002020526 0.00019439423
000290 75 cc 96 39 29 87 9c 3a 59 54 66 3a 92 50 26 3a
       0.00028762562 0.0011942136 0.00087863725 0.00063444034
0002a0 d8 01 15 3a 09 27 4e 3a 73 60 d8 3a 94 7e c9 3a
       0.00056841737 0.0007864093 0.0016508236 0.0015372806
0002b0 93 11 c6 3a dc 3e c7 3a 02 16 cd 3a ca b9 47 3a
       0.0015111439 0.0015201229 0.0015646818 0.0007618932
0002c0 59 53 52 3a 3d 22 66 3a 79 40 8b 3a fa 98 8d 3a
       0.0008023284 0.00087789056 0.0010624073 0.0010803037
0002d0 64 3e 60 3a c2 7b 72 3a 0a f9 74 3a b2 06 77 3a
       0.0008554219 0.0009250009 0.0009344971 0.00094233
0002e0 4a a2 81 3a 80 29 5e 3a 8c 4f 3c 3a 53 c1 0a 3a
       0.0009890285 0.0008474812 0.0007183484 0.000529309
0002f0 72 bf fe 39 30 4d 2b 3a fa 9e 15 3a fd a4 a5 39
       0.00048589293 0.0006534634 0.0005707588 0.00031594178
000300 16 37 44 39 35 12 6c 39 c3 41 d5 39 8e 53 a2 39
       0.00018712538 0.00022513497 0.00040675522 0.000309613
000310 6d f7 19 39 53 18 ee 38 c6 74 39 39 d4 af d7 39
       0.0001468339 0.00011353255 0.00017686476 0.00041138998
000320 29 bb 0f 3a dc 6b e9 39 d2 c1 6b 39 56 6a 25 39
       0.0005482906 0.00044521585 0.0002248355 0.0001577524
000330 db fd 58 39 76 d8 0b 3a 5b b3 e0 39 bf a4 96 39
       0.00020693934 0.00053346844 0.0004285824 0.00028732975
000340 26 78 77 39 00 26 b6 39 e2 92 d8 39 2e ad cb 39
       0.00023600514 0.00034742057 0.00041308167 0.00038848206
000350 48 1e bd 39 8b 6f e5 39 e1 96 0c 3a e6 a2 c6 39
       0.0003607145 0.0004376139 0.0005363059 0.00037886872
000360 76 b9 be 39 97 45 02 3a ea 50 2e 3a 3b 0f 08 3a
       0.00036377803 0.0004969476 0.00066496304 0.0005190258
000370 1b f8 e4 39 95 3e 1b 3a a1 fa 34 3a bc d3 1e 3a
       0.00043672402 0.0005922106 0.00069038017 0.00060587726
000380 8e 96 c7 39 53 6f 22 3a 1c 32 e1 39 d1 53 dd 39
       0.0003806841 0.0006196398 0.0004295268 0.00042214853
000390 c4 69 0c 3a 6e 1d 3d 3a 44 56 ff 39 55 32 08 3a
       0.00053563365 0.0007214163 0.00048701663 0.00051954883
0003a0 46 5b 17 3a 3d 8f 4b 3a 76 be 7f 3a 4c 7a db 39
       0.00057737937 0.00077651796 0.0009755859 0.00041862053
0003b0 95 4f 04 3a 55 76 01 3a c7 d5 20 3a fc c7 77 3a
       0.0005047259 0.00049385923 0.0006135371 0.0009452102
0003c0 0f ae c0 39 35 28 cb 39 96 c2 95 39 1d 88 c8 39
       0.00036750778 0.00038749134 0.00028564472 0.00038248385
0003d0 74 a8 4a 3a 66 54 73 39 83 5a 65 39 57 bc 15 39
       0.000773079 0.00023205727 0.0002187286 0.0001427991
0003e0 49 7e a4 39 28 f7 16 3a
       0.00031374607 0.0005758875

exp_avg f4 [10]
000000 ae 61 92 bb f8 f4 0c bb e6 c0 ab bb fe 9a e0 bb
       -0.0044672107 -0.0021508317 -0.005241501 -0.006854414
000010 6e fc 0e 3c 9b 68 2f 3b 1e 79 4f b9 c4 11 2c bb
       0.008727176 0.002676523 -0.00019786178 -0.0026255706
000020 ff d2 7a bb 5c 3a 25 3b
       -0.0038272736 0.0025211787

exp_avg_sq f4 [10]
000000 e4 b8 00 39 9a 28 03 3a 20 b8 8b 39 94 5d ee 39
       0.00012275908 0.00050033035 0.0002664933 0.0004546462
000010 ec 6f 84 39 0a 9a 2c 39 60 ff 2d 3a 45 c0 b3 39
       0.0002526039 0.00016460582 0.000663748 0.00034284792
000020 77 09 1a 39 ed 20 ae 39
       0.0001469011 0.00033212398
