checkpoints/mnist/classif.pth (torch_old, 280367 bytes, 24 tensors)

weight f4 [10, 1, 5, 5]
0	0x3e89eaf2	0.26937062
1	0xbd8f97af	-0.07011353
2	0xbd235708	-0.03987792
3	0x3ce8651b	0.028368523
4	0x3ea0514b	0.31312022
5	0x3d4a0ec4	0.049330488
6	0x3e69653d	0.22792526
7	0x3e94f451	0.2909265
8	0x3e99c573	0.30033454
9	0xbd5a3788	-0.053275615
10	0xbe1a9b51	-0.15098311
11	0xbe02004e	-0.12695429
12	0xbe4c5d24	-0.19957405
13	0x3d0bfb8c	0.03417544
14	0x3da5fcb6	0.081048414
15	0xbeaf3fdd	-0.3422841
16	0xbe890c01	-0.2676697
17	0xbde3b7ad	-0.11119018
18	0x3d8e91b1	0.06961382
19	0x3e78b6cd	0.24288483
20	0xbd61af10	-0.055098593
21	0xbde87469	-0.113503285
22	0xbe12c74d	-0.1433384
23	0x3cace21e	0.021103915
24	0xbe04a69e	-0.12954184
25	0x3da31a65	0.07964019
26	0xbdbb99e1	-0.091602094
27	0xbb65f9c1	-0.0035091492
28	0x3e54c4a3	0.20778136
29	0x3dfdca06	0.123920485
30	0x3def8102	0.11694528
31	0x3cc7fcf5	0.024412611
32	0x3d89fb1c	0.067373484
33	0x3e62cd90	0.22148728
34	0xbca08f83	-0.019599682
35	0x3e1c5d0d	0.15269871
36	0x3e83151b	0.2560204
37	0x3e4062aa	0.18787637
38	0x3e752458	0.23939645
39	0x3dd07e12	0.10180296
40	0xbe0234ab	-0.12715404
41	0xbd597971	-0.05309433
42	0x3df5d273	0.12003031
43	0x3d0c375a	0.034232475
44	0x3e88d10c	0.2672199
45	0xbd2dbf15	-0.04241856
46	0xbdfef263	-0.12448575
47	0xbea00197	-0.31251213
48	0xbe78b204	-0.24286658
49	0x3e05bd6d	0.13060541
50	0xbea545a9	-0.3227971
51	0xbe4d9800	-0.20077515
52	0x3e151a1c	0.14560741
53	0x3e0dbddb	0.13841955
54	0x3e6f843b	0.23390286
55	0xbea21cb8	-0.31662536
56	0x3d8c75da	0.06858416
57	0x3e4a090a	0.1973001
58	0x3e5bec58	0.21476877
59	0xbcddd877	-0.027080758
60	0xbe8d92db	-0.27651104
61	0x3e3fbc7e	0.18724248
62	0x3e83119a	0.25599366
63	0xbd3a70d4	-0.045517758
64	0x3d87c594	0.06629482
65	0x3d56185e	0.052269332
66	0x3e124607	0.14284526
67	0x3e319e0f	0.17345451
68	0x3bcb666a	0.006207277
69	0x3e27981f	0.16366623
70	0xbd2fcbfb	-0.04291914
71	0x3e5d5545	0.21614559
72	0xbc3e6733	-0.011621284
73	0x3df85546	0.121256396
74	0xbe77b173	-0.24188785
75	0xbe4fcb90	-0.20292497
76	0xbdb28a08	-0.087177336
77	0xbd59cd0e	-0.05317407
78	0x3e73a488	0.23793232
79	0xbe086a61	-0.1332183
80	0xbe494c3e	-0.1965799
81	0xbdc50905	-0.09620861
82	0x3e86228e	0.26198238
83	0x3e09d950	0.13461804
84	0x3e45b79e	0.19308326
85	0xbd29b140	-0.041428804
86	0x3e0878ba	0.13327304
87	0x3e817cf8	0.25290656
88	0x3e9b4572	0.3032642
89	0x3e2c4072	0.16821459
90	0xbd8c6ac5	-0.06856302
91	0xbe078ffc	-0.1323852
92	0x3c58bcd7	0.013228617
93	0x3e133bca	0.14378276
94	0xbcc03811	-0.023464235
95	0x3dcec521	0.10096193
96	0xbdfeafbd	-0.12435863
97	0xbdbff357	-0.09372585
98	0x3e170a6d	0.14750071
99	0xbba2291e	-0.004948749
100	0xbe165c7b	-0.14683716
101	0x3c03e89a	0.008051062
102	0x3e935aab	0.28780112
103	0x3e8b911e	0.27259153
104	0xbe153394	-0.14570457
105	0x3d42e180	0.047578335
106	0x3ddcaf9f	0.107756846
107	0x3e98675d	0.2976636
108	0x3e66e5e6	0.22548637
109	0xbe8096bc	-0.25115
110	0x3e73f17e	0.2382259
111	0x3e1fc406	0.15602121
112	0x3db498b7	0.088181905
113	0x3e5cad6f	0.21550535
114	0xbe8cadaa	-0.27476245
115	0xbc8558ba	-0.01627766
116	0xbd8a86db	-0.06764003
117	0x3d96c09f	0.07360958
118	0x3c200553	0.009766894
119	0xbe4405f5	-0.19142897
120	0xbd049110	-0.032364905
121	0x3e353ff2	0.17700174
122	0x3dd668cf	0.104692094
123	0xbe44d924	-0.19223458
124	0xbea3efaa	-0.32018787
125	0xbe36ead9	-0.17863025
126	0xbd4c94ba	-0.049946524
127	0xbb87b8ae	-0.0041418886
128	0xbe6055bb	-0.21907704
129	0xbe97e693	-0.29668102
130	0xbd852b96	-0.06502454
131	0x3e6cad6d	0.23113032
132	0x3e0d25b9	0.13783921
133	0x3e6af810	0.22946191
134	0x3e746044	0.23864847
135	0x3de64081	0.11242772
136	0x3e962bbc	0.29330242
137	0x3e9be41a	0.30447465
138	0x3e2e27f6	0.17007431
139	0x3d8451c0	0.06460905
140	0xbdac0e34	-0.084011465
141	0xbe0afead	-0.13573714
142	0x3cc7e144	0.024399407
143	0x3dc2a825	0.09504727
144	0x3dbb190c	0.09135637
145	0x3d381f34	0.044951633
146	0xbe37396c	-0.17892998
147	0xbeb38b83	-0.35067376
148	0xbe908be6	-0.28231734
149	0x3d3f1869	0.04665414
150	0xbdd69758	-0.10478085
151	0xbe6ed530	-0.23323512
152	0xbdc48902	-0.09596445
153	0x3e838a85	0.2569162
154	0x3e6dbea4	0.23217255
155	0x3e31c914	0.17361861
156	0x3e383ba6	0.17991504
157	0x3e5e3aeb	0.21702163
158	0xbd339acc	-0.043848798
159	0x3e283e0e	0.16429922
160	0x3e11827a	0.14209929
161	0x3e0c89e5	0.13724478
162	0xbdefa213	-0.11700835
163	0x3c01e387	0.007927782
164	0x3e716e8a	0.23577324
165	0x3cf9f621	0.030512871
166	0xbe0cd20b	-0.13752
167	0xbe304316	-0.17213091
168	0x3e13fe03	0.14452367
169	0x3d6383de	0.05554568
170	0xbe11605f	-0.14196919
171	0x3daed849	0.08537347
172	0x3de3e97a	0.111285165
173	0x3e372c22	0.17887929
174	0xbe2dc5cd	-0.16969986
175	0x3e0e49ab	0.1389529
176	0x3e35ab29	0.17741074
177	0x3e148da8	0.14507163
178	0xbe0e1471	-0.13874985
179	0x3cfbc4ec	0.030733548
180	0x3e0fb6c2	0.1403456
181	0x3cdb3b9d	0.026761824
182	0x3e241de3	0.16027026
183	0xbe227e4e	-0.15868494
184	0x3daf7288	0.08566767
185	0x3e8cd102	0.2750321
186	0x3e1d7c50	0.15379453
187	0x3e80dadf	0.25166985
188	0x3da63ad6	0.08116691
189	0x3e034a99	0.12821425
190	0x3e572d0c	0.21013278
191	0x3e45ae32	0.19304731
192	0x3e516054	0.20446903
193	0xbd97349a	-0.0738308
194	0x3de65c84	0.11248115
195	0x3ce73aed	0.02822634
196	0xbc58d792	-0.01323499
197	0x3ddb9d6f	0.107233874
198	0xbda2f090	-0.0795604
199	0x3e046638	0.12929618
200	0xbe3b46d0	-0.18288732
201	0xbe834cf2	-0.25644642
202	0xbdd2d327	-0.1029418
203	0xbd9aa7a2	-0.07551505
204	0xbe9df946	-0.30854243
205	0x3dcebec0	0.100949764
206	0x3dd1435c	0.10217926
207	0x3c2fa144	0.010719601
208	0xbe905aa4	-0.28194153
209	0xbd939627	-0.07206374
210	0x3e0d38f4	0.13791257
211	0x3cf0a0c0	0.029373527
212	0xbd77b352	-0.060473748
213	0x3d155af1	0.03646368
214	0x3e87fa52	0.26558167
215	0x3e7d92b5	0.24762996
216	0x3cf26f79	0.02959417
217	0x3e61ea70	0.22062087
218	0x3e5bfa35	0.21482165
219	0x3e309b89	0.17246832
220	0x3e552724	0.20815712
221	0x3e420789	0.18948187
222	0x3db393c5	0.08768419
223	0xbe07a143	-0.1324511
224	0x3df009f6	0.1172065
225	0x3e8bfb42	0.27340132
226	0x3df7400a	0.12072761
227	0xbc57c145	-0.013168638
228	0xbe03619c	-0.12830204
229	0x3d82cf3a	0.063871816
230	0x3dcba7a7	0.099440865
231	0x3e63ab96	0.22233424
232	0x3db0e456	0.086373016
233	0x3e38d995	0.18051751
234	0xbd84e265	-0.06488494
235	0x3e32ac6d	0.17448588
236	0xbd9ac275	-0.07556621
237	0x3e0dd25e	0.1384978
238	0x3e6d8e1f	0.23198746
239	0x3e632075	0.2218035
240	0x3e3ad4d8	0.18245256
241	0xbe0bdeab	-0.1365916
242	0x3c04869c	0.008088734
243	0x3e605f89	0.21911444
244	0x3e57dacc	0.21079558
245	0xbc614ede	-0.013751714
246	0xbca01068	-0.019539073
247	0x3e1c55a3	0.15267043
248	0x3e429d34	0.1900528
249	0x3da253de	0.07926153

bias f4 [10]
0	0x3dab5564	0.08365896
1	0x3cba7a17	0.022763295
2	0xbe2b7f11	-0.1674769
3	0x3e760121	0.24023868
4	0x3d2d3844	0.042289987
5	0x3bbe0692	0.005799123
6	0xbe0c637c	-0.13709825
7	0x3e5743aa	0.21021906
8	0x3e141514	0.14461166
9	0xbc4092e5	-0.011753772

weight f4 [20, 10, 5, 5]
0	0x3d347863	0.044060122
1	0x3d41b52b	0.047291916
2	0xbb9f1791	-0.0048551043
3	0xbcccade4	-0.024985261
4	0xbd5d063a	-0.053961016
5	0x3c4967b9	0.012292796
6	0xbd3ef0d4	-0.04661639
7	0xbbc893cc	-0.0061211344
8	0x3d2c7fe6	0.04211416
9	0x3d191a60	0.03737867
10	0xbcc553e0	-0.024087846
11	0xbda321ce	-0.07965432
12	0xbd205de6	-0.03915205
13	0x3cdbb484	0.026819475
14	0x3bb71396	0.0055870516
15	0xbd899884	-0.06718543
16	0xbd0eb9a6	-0.034845017
17	0x3d33018b	0.043702643
18	0xbc7d38f8	-0.015455477
19	0x3cce7a7a	0.025204886
20	0xbcbd163d	-0.023081893
21	0x3d82e2d4	0.0639092
22	0x3be08ee1	0.00685297
23	0x3d199adf	0.037501212
24	0x3bb2b539	0.0054537323
25	0x3d3125b3	0.043248843
26	0xbc8b3fde	-0.016998228
27	0x3c413b6c	0.011793952
28	0x3d8038cc	0.06260833
29	0x3da37775	0.07981769
30	0xbd1dfccf	-0.038571175
31	0xbcfb885e	-0.030704673
32	0x3d801534	0.06254044
33	0x3d1af414	0.037830427
34	0x3ce81c9d	0.028333956
35	0x3c26e7ba	0.010187084
36	0x3d097cec	0.0335664
37	0xbc29cee6	-0.01036427
38	0xbd1571d1	-0.036485497
39	0x3afc4c82	0.0019248875
40	0x3d6653e7	0.05623236
41	0x3d00077d	0.03125714
42	0xbd1c38c1	-0.038140062
43	0x3c8e353d	0.01735937
44	0xbc10d30e	-0.008839382
45	0x3cd32f5a	0.025779415
46	0x3bdb0ff2	0.0066852504
47	0x3c9b3c05	0.018949518
48	0xbd05cb67	-0.032664683
49	0xbd4387db	-0.047736984
50	0xbe2b22cc	-0.16712493
51	0xbb74b3f6	-0.003733871
52	0x3b1225da	0.0022300393
53	0x3ddd3f14	0.10803047
54	0x3d972ecd	0.073819734
55	0x3c3ec9de	0.011644809
56	0x3dbd944e	0.092568025
57	0x3d12e632	0.035864063
58	0xbc990600	-0.018679619
59	0x3ca07294	0.019585885
60	0x3d4ae214	0.04953201
61	0x3dd2e7b5	0.10298101
62	0xbc7022c0	-0.014656723
63	0xbde993cd	-0.11405144
64	0xbe005a94	-0.12534553
65	0x3d928d10	0.07155812
66	0x3cef35fb	0.029200545
67	0xbcca6cb7	-0.024710042
68	0xbd471610	-0.048605025
69	0xbc8ac359	-0.016938852
70	0xbc3f3320	-0.011669904
71	0xbd3d5f69	-0.04623357
72	0xbde2a6ac	-0.110669464
73	0x3ba28efd	0.004960893
74	0x3d68f779	0.056876633
75	0xbcacf753	-0.021114027
76	0x3d2f8f35	0.042861182
77	0xbb8987ad	-0.004197082
78	0x3d8d407d	0.06897066
79	0x3c05aa21	0.008158238
80	0x3c86b8c0	0.016445518
81	0x3dab1908	0.08354384
82	0x3d7f979c	0.062400445
83	0x3d182544	0.037144914
84	0x3b69ec1b	0.0035693708
85	0x3d29dd58	0.041470855
86	0x3d83ba5e	0.06432031
87	0xbd683ed1	-0.05670053
88	0xbd188847	-0.03723934
89	0xbda3aca0	-0.0799191
90	0x3cd5b284	0.0260861
91	0xbd200cda	-0.039074756
92	0xbcf263b6	-0.029588562
93	0xbd34dbd1	-0.044154946
94	0xbc342d20	-0.010997087
95	0xbcee4a26	-0.029088091
96	0xbd7ac414	-0.06122215
97	0xbd7a45f0	-0.061101854
98	0xbb79203e	-0.0038013603
99	0x3ccf5a34	0.025311567
100	0xbcdfe67a	-0.02733158
101	0xbd43905d	-0.047745097
102	0xbd3e07e8	-0.04639426
103	0x3c45d2b2	0.012074159
104	0x3dc19692	0.09452547
105	0xbda0b8ab	-0.078477226
106	0x3dd06ea2	0.101773515
107	0x3d81f7b2	0.06346072
108	0x3cebe52c	0.028795801
109	0xbcb6b368	-0.022302344
110	0xbc9f7805	-0.01946641
111	0x3db110f3	0.08645811
112	0x3d7c0fc9	0.06153849
113	0xbc9c8998	-0.019108579
114	0xbd8a6bf8	-0.06758875
115	0x3da96306	0.0827084
116	0xbb6f98c6	-0.0036559566
117	0xbc97106b	-0.018440446
118	0xbcce8de1	-0.025214138
119	0xbd9bd319	-0.07608623
120	0xbd0ae896	-0.033913217
121	0x3a98e0d2	0.0011663681
122	0xbdb290f5	-0.087190546
123	0xbcbd81d9	-0.023133205
124	0xbd1335b2	-0.03593988
125	0x3d80a974	0.062823206
126	0x3ce58af9	0.028020369
127	0xbc7de1c6	-0.015495723
128	0x3db3d2d8	0.0878045
129	0x3dd1dc3c	0.102470845
130	0xbd4fb3f4	-0.050708726
131	0xbc09ea1a	-0.008417631
132	0x3d0f3be2	0.034969218
133	0xbd63960d	-0.05556302
134	0x3d836cdd	0.064172484
135	0xbda0a3d0	-0.07843745
136	0x3da2d384	0.079505
137	0xbd92cdd1	-0.071681626
138	0xbd97ce57	-0.07412403
139	0xbd0cff61	-0.034423236
140	0x3cca1b5a	0.024671245
141	0x3d113cbe	0.03545832
142	0xbd574f9a	-0.05256615
143	0xbd6da2cd	-0.058016587
144	0x3ad2d63d	0.0016085576
145	0x3c3062de	0.010765759
146	0xbddcf416	-0.10788743
147	0x3cbd9057	0.023140116
148	0xbcc23e2a	-0.023711283
149	0xbc7f1299	-0.015568399
150	0xbc23ba3e	-0.009993134
151	0xbd44bd55	-0.048032124
152	0x3d75b622	0.05998815
153	0x3d9bec30	0.076134086
154	0x3db432a6	0.08798723
155	0x3a2958db	0.0006460079
156	0x3bc86952	0.006116071
157	0x3d6a5902	0.05721379
158	0x3c37ff1a	0.011230255
159	0xbc45f3c5	-0.012082045
160	0x3dc0e6f1	0.094190486
161	0x3d453213	0.048143458
162	0xbd82d6d9	-0.06388635
163	0xbdabd708	-0.08390623
164	0x3c9bbc5a	0.019010711
165	0x3cd7511f	0.026283799
166	0xbcfdc278	-0.030976519
167	0x3afa9307	0.0019117304
168	0xbd1d5437	-0.03841039
169	0xbcb341c8	-0.021881953
170	0xbcbb1404	-0.022836693
171	0xbd943bab	-0.07237943
172	0xbd5980f6	-0.053101502
173	0xbd0b8a3a	-0.03406737
174	0xbd1f1fdb	-0.03884874
175	0xbcb550e0	-0.02213329
176	0xbd2c22bc	-0.042025313
177	0x3d756cee	0.059918337
178	0x3d72324d	0.05913
179	0x3df0e9a2	0.11763312
180	0xbd6c99d2	-0.057763882
181	0xbccfbeab	-0.025359472
182	0x3cb8ac30	0.022543043
183	0xbc3817ed	-0.011236173
184	0x3cb452a0	0.022012055
185	0xbcfee0c6	-0.03111304
186	0x3c661ede	0.014045445
187	0x3bc3c858	0.0059748106
188	0xbd9dd981	-0.07707501
189	0xbd2e710e	-0.042588286
190	0x3d0067e7	0.03134909
191	0x3d94f614	0.07273498
192	0x3ba04dec	0.0048921015
193	0xbd79ac4c	-0.06095533
194	0xbd408770	-0.047004163
195	0xbc3e22f7	-0.011605016
196	0xbdac5830	-0.08415258
197	0x3b84bb4f	0.0040506492
198	0xbd45851e	-0.048222654
199	0xbaa6a74d	-0.0012714654
200	0xbd61da17	-0.055139627
201	0x3d97b540	0.074076176
202	0x3de7dac1	0.11321021
203	0x3dd17cc3	0.102288745
204	0x3dfe7ca2	0.124261156
205	0x3c6f62ab	0.014610927
206	0xbc9da031	-0.019241424
207	0x3a6449b1	0.00087084906
208	0xbd48ff18	-0.0490714
209	0x3d0643b8	0.032779425
210	0xbc037c5d	-0.008025256
211	0x3ce140cb	0.027496716
212	0x3b5da579	0.0033820553
213	0xbd7b2b4c	-0.061320588
214	0xbc7b6718	-0.015344404
215	0xbcc01329	-0.023446636
216	0xbd8617c9	-0.065475054
217	0xbaf9aee1	-0.001904931
218	0xbcdd75a2	-0.02703363
219	0xbda7d35b	-0.0819461
220	0xbdc22916	-0.09480493
221	0xbd27098b	-0.040780585
222	0xbdb356f6	-0.08756821
223	0x3c1e974f	0.0096796295
224	0xbc6bad36	-0.014384558
225	0xbc2cd9a3	-0.0105499355
226	0xbc8bf8ff	-0.017086504
227	0xbbcc98fc	-0.006243823
228	0x3ce9e824	0.028553076
229	0x3d87329f	0.06601452
230	0xbc8f6132	-0.017502401
231	0x3d61aa27	0.05509391
232	0x3a8ec6a9	0.0010892946
233	0xbd923182	-0.07138349
234	0xbd15d918	-0.03658399
235	0x3cb73e5e	0.022368606
236	0xbd34d2fb	-0.04414652
237	0x3bd8e563	0.006619142
238	0xbce80fb1	-0.028327795
239	0xbcbb6046	-0.022873055
240	0x3ca34be2	0.019933645
241	0x3d6ead14	0.05827053
242	0x3c80ca82	0.015721563
243	0xbd6636da	-0.056204654
244	0xbd8f6397	-0.07001417
245	0xbd845e6c	-0.06463322
246	0x3bce6cb4	0.0062995795
247	0x3c097e5a	0.008391941
248	0x3d13dc5d	0.036098827
249	0xbd04ab77	-0.032390084
250	0xbc645085	-0.013935213
251	0x3d2e3843	0.042534124
252	0x3ba903fa	0.0051579447
253	0x3ba4c951	0.0050288816
254	0xbd5f0f39	-0.054457877
255	0x3c340a2e	0.010988755

bias f4 [20]
0	0x3c080f73	0.008304465
1	0x3c6cc85e	0.014452068
2	0xbc452b18	-0.0120342
3	0x3d195336	0.03743287
4	0x3d482fcd	0.04887371
5	0x3c92b89f	0.0179103
6	0xbc187e4d	-0.009307456
7	0xbc1154ae	-0.008870287
8	0xbd11dc0a	-0.035610236
9	0xbda14af2	-0.07875623
10	0xbd3499ef	-0.044092115
11	0xbc646655	-0.0139404135
12	0xbd4bc5e6	-0.049749278
13	0xbcf32405	-0.029680261
14	0xbbe35f0e	-0.0069388216
15	0x39c8ae39	0.0003827678
16	0xbd5351ba	-0.051591612
17	0xbd982a2e	-0.0742992
18	0xba89c246	-0.0010510169
19	0x3d8d51d5	0.06900374

weight f4 [50, 320]
0	0xbc533861	-0.01289186
1	0x3d914f15	0.07095162
2	0x3ba35d54	0.004985491
3	0xbdc56158	-0.096377075
4	0xbd8b37ce	-0.06797753
5	0x3d99c40b	0.07508095
6	0x3c1458a0	0.009054333
7	0x3d80f4ef	0.062967174
8	0xbd0b0308	-0.033938438
9	0x3b843ea7	0.004035789
10	0x3cc6ca72	0.024266455
11	0x3c7d2eb7	0.015453032
12	0xbcb100df	-0.02160686
13	0xbbdfa133	-0.0068246364
14	0xbd7c5b33	-0.06161041
15	0xbcf1e7d7	-0.029529495
16	0xbe0a5e19	-0.13512458
17	0x3cda47f6	0.026645642
18	0x3d475e4f	0.048673924
19	0x3da11bbe	0.078666195
20	0xbdebacfb	-0.11507603
21	0xbbcae932	-0.00619235
22	0x3d4ef7d5	0.05052932
23	0x3cef5b40	0.029218316
24	0x3cad6cea	0.021170098
25	0xbc5b7705	-0.013395076
26	0x3c548063	0.012970063
27	0x3cf4558b	0.029825946
28	0xbd14212e	-0.036164455
29	0x3c57f8bf	0.013181864
30	0xbd3ce1dc	-0.046113834
31	0x3aee491e	0.001817975
32	0xbddeba2b	-0.108753525
33	0xbb915ffd	-0.0044364915
34	0x3d716575	0.058934648
35	0x3e075e7d	0.13219638
36	0x3d3eaae6	0.0465497
37	0x3d2b6b5a	0.041850425
38	0xbc1ecab6	-0.009691885
39	0x3d4f99b3	0.05068369
40	0xbcca823a	-0.0247203
41	0xbcd5ba57	-0.02608983
42	0x3d5c9271	0.053850595
43	0x3c7f348e	0.015576495
44	0xbc16d295	-0.00920548
45	0x3ca67c96	0.02032308
46	0xbce0c409	-0.027437227
47	0xbd754e1b	-0.05988894
48	0xbdd35766	-0.10319404
49	0x3dc3c7d1	0.09559596
50	0x3de0bcb5	0.10973493
51	0x3d638eb3	0.05555601
52	0xbc028285	-0.007965689
53	0xbd25c7ae	-0.040473633
54	0x3bdf6feb	0.0068187616
55	0x3d9bb129	0.0760215
56	0xbd073b1a	-0.033015348
57	0x3d098ecf	0.03358346
58	0xbd3f6c92	-0.0467344
59	0xbd5c3d6c	-0.053769514
60	0x3c9883fe	0.018617626
61	0xbce5d0ea	-0.02805372
62	0xbcc4d703	-0.024028307
63	0xbd726691	-0.059179846
64	0xbdf5ac2c	-0.1199573
65	0x3cb62875	0.022236088
66	0x3de71465	0.11283187
67	0x3d3a09ef	0.04541963
68	0x3c81ff4d	0.015868807
69	0x3c47e841	0.01220137
70	0x3bb990d8	0.0056630187
71	0x3d00fe35	0.03149243
72	0x3d936ac3	0.071980976
73	0xbc69ee0f	-0.014277949
74	0xbd2a0b76	-0.041514836
75	0xbc62abac	-0.013834875
76	0xbcac4a07	-0.021031393
77	0xbd0c1406	-0.034198783
78	0xbd58efea	-0.052963175
79	0xbd25ff8a	-0.040526904
80	0xbc6663fc	-0.014061924
81	0xbd7fa470	-0.06241268
82	0xbe01e3e9	-0.12684597
83	0xbcf2bdd0	-0.029631525
84	0x3d95e5e5	0.073192395
85	0x3d4392f9	0.047747586
86	0xbc061b11	-0.008185164
87	0xbd21a283	-0.039461624
88	0x3d3434fd	0.043995846
89	0xbd2136b4	-0.03935881
90	0xbd1a88b4	-0.037728027
91	0x3d4375f8	0.047719926
92	0x3d007922	0.03136552
93	0x3c87884f	0.01654449
94	0xbafa777d	-0.0019109097
95	0xbddd596e	-0.10808073
96	0xbccb3d73	-0.024809575
97	0xbcd19e3e	-0.025588151
98	0xbcf5a93e	-0.029987928
99	0xbd0b6f1a	-0.0340415
100	0xbd28388c	-0.041069552
101	0xbce2e138	-0.027695283
102	0x3c2371fa	0.009975905
103	0x3dc42ea3	0.09579208
104	0x3d18dfd4	0.037322834
105	0x3d0e6948	0.034768373
106	0xbc907b11	-0.017636808
107	0x3ca04df4	0.019568421
108	0xbca78cc6	-0.020452868
109	0xbd208dcc	-0.039197728
110	0x3d23fd1d	0.04003631
111	0xbbb7cb9a	-0.005608988
112	0x3dbd4ec6	0.092435405
113	0x3a4fb075	0.00079227175
114	0xbe146e66	-0.14495239
115	0xbdd7a537	-0.10529559
116	0x3cf70a44	0.030156262
117	0xbd49db74	-0.049281552
118	0xbd66f513	-0.056386065
119	0xbdadcce6	-0.08486347
120	0xbd0b7cb8	-0.034054488
121	0xbd59e856	-0.05320009
122	0xbd1243b1	-0.035709087
123	0xbcd17eb2	-0.025573108
124	0x3d1c397e	0.038140766
125	0xbbf794b5	-0.007555569
126	0x3cd2dc58	0.025739834
127	0x3d2559e9	0.040368948
128	0xbd9c860e	-0.076427564
129	0xbdd25873	-0.102707766
130	0xbd9bac5a	-0.07601233
131	0x3c84302f	0.016136257
132	0x3d040d5b	0.0322393
133	0x3c9b7f3d	0.01898157
134	0x3ad4f459	0.0016247138
135	0xbd4fbad8	-0.050715297
136	0x3d17873b	0.0369942
137	0x3d5b8b45	0.053599615
138	0xbd0263ad	-0.03183334
139	0x3be166b1	0.006878697
140	0x3d8ed500	0.0697422
141	0xbd17693b	-0.03696559
142	0xbc54699e	-0.012964634
143	0xbbe765c7	-0.0070616934
144	0xbd91cb75	-0.071188845
145	0x3ce39802	0.027782444
146	0x3d86ef56	0.065886185
147	0x3cc0472c	0.023471437
148	0xbc4763eb	-0.012169818
149	0xbda8ea9a	-0.08247872
150	0x3d200f29	0.039076958
151	0x3a2c3760	0.0006569531
152	0xbcd193c7	-0.025583161
153	0x3ca025c9	0.019549267
154	0x3c4fe445	0.012688701
155	0xbc8f0ac8	-0.017461196
156	0x3c8f0db9	0.017462598
157	0xbc27d18a	-0.010242829
158	0x3b53e1a4	0.0032330537
159	0xbd511d81	-0.051053528
160	0xbd684a41	-0.05671144
161	0x3c3c03fa	0.011475557
162	0xbbc6733b	-0.006056217
163	0x3c02780c	0.007963192
164	0xbd0f36a3	-0.034964215
165	0xbb50e918	-0.0031877216
166	0xbcecca9b	-0.028905204
167	0x3d327a79	0.04357383
168	0x3d1fef12	0.039046355
169	0x3d1b0ece	0.037855916
170	0xbd381633	-0.044943046
171	0x3c1635f6	0.009168139
172	0x3bd13511	0.0063845
173	0xbb386481	-0.0028136077
174	0x3ca1d070	0.019752711
175	0x3d3b1a2a	0.04567925
176	0x3d09478a	0.03351549
177	0xba4a3dad	-0.0007714879
178	0x3c83e70b	0.01610138
179	0x3c018b1f	0.007906704
180	0xbb519901	-0.0031982067
181	0xbd8f5832	-0.06999244
182	0xbd10cac8	-0.035349637
183	0xbd407cbe	-0.046993963
184	0xbdd7ed13	-0.10543265
185	0xbdd17c57	-0.10228794
186	0x3d152cc7	0.036419656
187	0x3d361e69	0.044462595
188	0xbdac6f2c	-0.08419642
189	0xbd032f60	-0.032027602
190	0x3c601371	0.01367651
191	0x3d80a5d8	0.06281632
192	0xbceb6f94	-0.028739728
193	0x3d9c3ec0	0.07629156
194	0x3c17c2e0	0.00926277
195	0xbd7f726f	-0.06236499
196	0x3d7986b9	0.060919497
197	0x3cd18ce9	0.025579887
198	0xbc648584	-0.013947848
199	0xbcebb360	-0.028772056
200	0x3d576d38	0.052594393
201	0xbd0c8d73	-0.034314584
202	0xbd5c66e9	-0.05380908
203	0xbdaa3206	-0.083103225
204	0x3a024082	0.0004968719
205	0x3bb1dcb4	0.005427921
206	0xbcd31e00	-0.025771141
207	0x3c5ec5d6	0.013596972
208	0x3c9ec528	0.01938112
209	0xbd60cce6	-0.054882906
210	0x3c05f358	0.008175693
211	0x3c4d94dd	0.012547699
212	0x3d92586a	0.0714577
213	0x3d0b79e0	0.034051776
214	0xbd344a8e	-0.044016413
215	0xbd9ea3c8	-0.077460825
216	0x3d6201ed	0.055177618
217	0xbc070429	-0.008240738
218	0xbd004c9a	-0.031323053
219	0x3b215253	0.002461572
220	0xbbd1a5d0	-0.00639794
221	0x3c1f16be	0.009710012
222	0xbc0b2480	-0.008492589
223	0x39892d88	0.000261646
224	0xbdd79f1d	-0.10528395
225	0xbccb0686	-0.024783384
226	0x3c38bc5d	0.011275378
227	0x3d87bd2b	0.06627878
228	0x3da46a4d	0.08028088
229	0xbc5aaced	-0.013346893
230	0xbd6f3572	-0.05840058
231	0xbd818b91	-0.06325448
232	0x3d01380e	0.0315476
233	0x3d174683	0.03693248
234	0xbc422742	-0.01185018
235	0x3d1a7b05	0.037714977
236	0xbd9160a1	-0.070985086
237	0x3d0ed632	0.03487224
238	0xbc2bd89b	-0.0104886545
239	0xbc9379dd	-0.018002445
240	0x3ca14679	0.019686924
241	0xbd069eb9	-0.032866213
242	0x3d90ce86	0.07070641
243	0xbcae6242	-0.021287087
244	0x3d180b15	0.037119944
245	0xbc01627f	-0.007897018
246	0x3d69e1f2	0.057100244
247	0x3d280572	0.041020818
248	0x3d23a38e	0.0399509
249	0xbb6732a1	-0.003527798
250	0xbc03772b	-0.008024017
251	0xbd92f029	-0.07174713
252	0x3c3c017b	0.011474962
253	0xbbb99a32	-0.0056641335
254	0xbda9f5d9	-0.08298845
255	0xbc91421b	-0.017731717

bias f4 [50]
0	0xbc453591	-0.012036697
1	0xbd28bfd0	-0.04119855
2	0x3dc17265	0.09445647
3	0x3d44c4c1	0.0480392
4	0xbd5f7d63	-0.054562937
5	0xbc9fec12	-0.019521747
6	0x3d10c57a	0.03534458
7	0x3cea6944	0.028614648
8	0xbceacbc6	-0.02866162
9	0x3bdd1b0f	0.0067476104
10	0x3cc2bfd6	0.023773115
11	0x3cff541b	0.031168034
12	0x3b98f193	0.0046674698
13	0xbc143025	-0.009044682
14	0x3bdab8dd	0.0066748695
15	0x3cb3b7f0	0.021938294
16	0x3d25b72f	0.0404579
17	0x3cbf2003	0.023330694
18	0x3cc14e27	0.023596836
19	0x3d6ce5df	0.05783641
20	0x3bb3f01a	0.005491269
21	0x3d89ca79	0.06728072
22	0xbd461711	-0.04836184
23	0x3d2867f4	0.041114762
24	0xbbf798f0	-0.0075560734
25	0xbc810efc	-0.015754215
26	0x3d00749b	0.031361204
27	0x3d5081a7	0.050904896
28	0xbd129a77	-0.03579184
29	0xbd274dee	-0.040845804
30	0xbd531521	-0.051533822
31	0xbbbac12e	-0.0056992983
32	0xbbbe2254	-0.005802432
33	0x3d44ece5	0.048077483
34	0x3aa75f29	0.0012769449
35	0x3dd24f44	0.10269025
36	0x3cf5adff	0.029990194
37	0xbc81ca5d	-0.015843565
38	0xbba561ea	-0.0050470727
39	0x3d1d5b80	0.03841734
40	0x3ce0b681	0.027430775
41	0x3d8ce9a3	0.068805
42	0x3d78db76	0.06075617
43	0x3d49a5e2	0.049230464
44	0xbc99f6c2	-0.018794421
45	0x3d57e132	0.052704997
46	0x3c4e6ea1	0.012599618
47	0x3d4cef86	0.050033115
48	0x3d59648f	0.053074416
49	0x3d8ba096	0.06817739

weight f4 [10, 50]
0	0x3ca927e3	0.020648902
1	0xbe01aa34	-0.12662584
2	0x3d6890d5	0.056778748
3	0x3d320ae8	0.043467432
4	0xbbce81bf	-0.006302088
5	0xbdf813c9	-0.12113149
6	0xbe32f8a6	-0.17477664
7	0x3e1cd5a5	0.15315874
8	0x3e484918	0.19559133
9	0x3dd9a148	0.10626465
10	0x3cb48cdb	0.022039821
11	0xbe102841	-0.14077856
12	0xbe6edba2	-0.23325971
13	0xbe03379f	-0.12814187
14	0xbe1c9533	-0.1529129
15	0x3dc66e03	0.09688952
16	0xbd102e75	-0.035200555
17	0xbe0f973c	-0.14022535
18	0xbd172ab6	-0.036905967
19	0x3da104fb	0.07862278
20	0x3d184739	0.0371773
21	0xbe137826	-0.14401302
22	0xbe3996de	-0.18123958
23	0x3d27fb18	0.041010946
24	0xbb9205d1	-0.00445626
25	0x3e1573f2	0.14595011
26	0xbe13f720	-0.1444974
27	0x3dcde031	0.10052527
28	0x3d8df572	0.069315806
29	0xbcc0019b	-0.023438266
30	0x3dc986eb	0.09840187
31	0xbddfc08a	-0.10925396
32	0xbceb6fde	-0.028739866
33	0xbe17d1e0	-0.14826155
34	0xbddc52ac	-0.10757956
35	0xbe435b2d	-0.1907775
36	0xbe0b7e48	-0.13622391
37	0x3d8e509b	0.06948968
38	0xbe419846	-0.18905744
39	0xbe46cf14	-0.19414932
40	0xbe094245	-0.13404186
41	0xbe3dce21	-0.18535663
42	0xbdcc205f	-0.09967112
43	0x3c78dbcc	0.015189122
44	0xbd97d45b	-0.074135505
45	0x3d3ebc5e	0.04656636
46	0xbe041078	-0.12896907
47	0xbe3652f5	-0.17805083
48	0x3dc081c1	0.093997486
49	0x3d2366bd	0.0398929
50	0xbdfbd98d	-0.12297354
51	0xbe45f338	-0.19331062
52	0xbdc2a1ce	-0.09503518
53	0xbe1cae7b	-0.15300934
54	0xbe1c9108	-0.152897
55	0x3dde4600	0.10853195
56	0xbdbac731	-0.09120024
57	0xbd994ee4	-0.0748575
58	0x3dd4c24c	0.10388622
59	0xbdf95490	-0.12174332
60	0x3c9d27c8	0.019184008
61	0xbddb710f	-0.107149236
62	0x3d42d424	0.047565594
63	0x3d8ba672	0.06818856
64	0x3ce579fb	0.028012266
65	0xbe3d5d31	-0.18492581
66	0x3dbc4430	0.09192693
67	0xbe14b228	-0.14521086
68	0xba6e1f14	-0.00090836105
69	0x3de6874f	0.11256277
70	0xba6d1b68	-0.00090449164
71	0x3e0e3619	0.13887824
72	0xbe08e5e2	-0.13368943
73	0x3ddf1540	0.10892725
74	0x3de3f06c	0.11129841
75	0x3db6bb7e	0.0892248
76	0xbcf2c000	-0.029632568
77	0xbd98970a	-0.074506834
78	0xbe539195	-0.20661004
79	0xbe225b29	-0.15855087
80	0xbe2a72b8	-0.16645324
81	0x3e16b4ad	0.1471736
82	0x3cff81c4	0.031189807
83	0x3dc8f9be	0.098132595
84	0xbd0ce231	-0.0343954
85	0x3e55dd14	0.20885116
86	0xbcd81498	-0.026377007
87	0xbde68097	-0.11254995
88	0x3db9b845	0.0906835
89	0x3e01bccb	0.12669675
90	0x3dda6cb1	0.106652625
91	0x3e33e2f6	0.17567047
92	0x3e5cbea6	0.21557102
93	0x3e36f9eb	0.17868774
94	0xbb33fc62	-0.0027463664
95	0x3c975646	0.018473756
96	0xbda65cc0	-0.081231594
97	0x3d4e114f	0.050309476
98	0xbe1c37d5	-0.15255673
99	0xbdd8ddac	-0.105891556
100	0xbd9158f1	-0.07097042
101	0x3cf81454	0.03028313
102	0xbe2c7382	-0.16840938
103	0xbdb56adc	-0.088582724
104	0x3db1efb9	0.086883016
105	0xbdbb66a6	-0.09150438
106	0xbd240856	-0.040047012
107	0x3df60a76	0.12013714
108	0x3e328479	0.17433347
109	0xbddf57e8	-0.10905439
110	0xbd5b912f	-0.053605255
111	0xbe0371b0	-0.12836337
112	0xbe23b473	-0.15986805
113	0x3d8a44b6	0.06751387
114	0x3db7bfc1	0.08972121
115	0xbd3556db	-0.044272285
116	0xbd1a1264	-0.037615195
117	0xbd2c8e72	-0.042128034
118	0x3dcb0088	0.09912211
119	0x3d3c06dc	0.04590498
120	0xbe345907	-0.17612086
121	0xbccfd6e6	-0.025371026
122	0xbd8e93dc	-0.06961796
123	0x3e09de7b	0.13463776
124	0x3dcf56f4	0.10124007
125	0x3c52c183	0.01286352
126	0xbcd197eb	-0.025585135
127	0x3d9043cd	0.07044182
128	0x3d2b5b8e	0.04183536
129	0xbd51c0cb	-0.051209252
130	0x3d686601	0.056737904
131	0x3bcf77d4	0.0063314233
132	0x3e31ffff	0.17382811
133	0x3d11ae4c	0.035566613
134	0x3deeb017	0.1165468
135	0xb92fcb34	-0.00016765
136	0xbcf4f1bf	-0.02990043
137	0xbe26563d	-0.16243835
138	0x3d9a26dc	0.07526943
139	0xbc345944	-0.011007611
140	0xbcd2926e	-0.025704589
141	0xbd65b443	-0.056080114
142	0xbe0eeaf2	-0.13956812
143	0xbd3a0259	-0.045412395
144	0x3e2db774	0.16964513
145	0xbd47c85b	-0.04877506
146	0xbdb9d611	-0.09074033
147	0xbdfd7cee	-0.12377344
148	0x3d00b4c6	0.0314224
149	0xbdc87cf9	-0.09789462
150	0xbda818fe	-0.08207892
151	0xbe16942b	-0.14704959
152	0xbe3d882b	-0.18508975
153	0x3da2870e	0.07935916
154	0x3d52f3a6	0.051501893
155	0x3a22ee09	0.00062152796
156	0x3d9e98e3	0.077440046
157	0xbd112a4d	-0.03544073
158	0xbd52d7cb	-0.051475327
159	0xbde126e6	-0.109937474
160	0xbdd97478	-0.10617918
161	0xbc3decd5	-0.01159211
162	0x3d81e1d7	0.06341904
163	0x3d83fdb1	0.06444872
164	0x3d7c04ab	0.06152789
165	0x3d66e657	0.056372013
166	0xbcb7a85c	-0.022419147
167	0xbe547caf	-0.20750688
168	0x3b7ae159	0.003828129
169	0xbdb81733	-0.089888
170	0xbe0284b0	-0.12745929
171	0x3cf69bfb	0.030103674
172	0x3d397656	0.04527887
173	0x3e08b9ea	0.1335217
174	0xbdc0be07	-0.09411245
175	0xbe00c10e	-0.12573645
176	0xbe45d6ea	-0.19320264
177	0x3db851c3	0.0899997
178	0xbde31bf1	-0.11089314
179	0x38c99a18	9.613129e-05
180	0x3da15f03	0.0787945
181	0xbcf1ea30	-0.029530615
182	0xbd5930ac	-0.053024933
183	0x3dcec280	0.10095692
184	0xbd70f095	-0.058823187
185	0xbe0a0ddd	-0.13481851
186	0x3d129dca	0.03579501
187	0xbd9d1bd3	-0.07671323
188	0xbae60164	-0.0017548022
189	0xbcc09926	-0.023510527
190	0xbdedc497	-0.11609762
191	0x3db1a7dc	0.08674595
192	0xbe11c882	-0.14236644
193	0xbd9f7a56	-0.077870056
194	0x3dfc3671	0.123150714
195	0x3d6e52ab	0.058184307
196	0xbd906a5e	-0.07051538
197	0x3d634e90	0.055494845
198	0x3d9a879a	0.07545395
199	0xbb7c5e89	-0.0038508496
200	0xbd75614d	-0.059907246
201	0x3d870d74	0.06594363
202	0x3d020a93	0.031748366
203	0x3db6cca6	0.08925752
204	0xbe1b58df	-0.1517062
205	0xbe00aa5a	-0.12564984
206	0x3c8438e5	0.01614041
207	0x3d1b9f2d	0.0379936
208	0xbbe06443	-0.0068478896
209	0xbdc43754	-0.095808655
210	0x3e165786	0.14681825
211	0x3e04939b	0.12946932
212	0x3d7b5c2b	0.061367195
213	0x3d9713b4	0.07376805
214	0xbe15d557	-0.14632164
215	0xbe55feab	-0.2089793
216	0x3de063fb	0.1095657
217	0x3e09a0ac	0.13440198
218	0x3df054a0	0.11734891
219	0xbdab7566	-0.08372001
220	0x3c75caa2	0.015001925
221	0x3d9c1087	0.0762034
222	0x3d68855b	0.056767803
223	0xbe0a4c88	-0.13505757
224	0x3df64e14	0.12026611
225	0xbe011225	-0.12604578
226	0xbab2f2d0	-0.0013652686
227	0xbe28b505	-0.16475303
228	0xbe2ccfaa	-0.16876093
229	0xbd4b90cd	-0.04969864
230	0xbde1e0b8	-0.1102919
231	0xbe1866e2	-0.14882997
232	0x3b8fdf18	0.0043906085
233	0xbd8ea521	-0.069650896
234	0x3dfa0ec7	0.1220985
235	0xbdabe4df	-0.08393263
236	0xbe4053a3	-0.18781905
237	0xbe1ce907	-0.15323268
238	0xbc87898b	-0.016545078
239	0x3dd2ec5e	0.1029899
240	0x3bdb454d	0.006691611
241	0xbdc5a1e0	-0.09650016
242	0xbdb1bfdc	-0.086791724
243	0x3df17d83	0.117915176
244	0xbc96f036	-0.018425088
245	0xbc76fc56	-0.01507481
246	0x3e08bc2f	0.13353036
247	0xbe046d56	-0.12932333
248	0xbd4be0f0	-0.049775064
249	0xbd411c9e	-0.047146432
250	0x3de674e1	0.11252762
251	0xbd99bd32	-0.07506789
252	0x3d84d5e6	0.064861104
253	0x3d8a94b4	0.06766644
254	0xbd3f4e5c	-0.04670559
255	0x3e18eab1	0.14933278

bias f4 [10]
0	0xbd5e40e3	-0.0542611
1	0xbdbcec0f	-0.09224712
2	0xbc91b7b0	-0.017787784
3	0x3c2a0a7f	0.010378479
4	0x3daac410	0.08338177
5	0xbdd02cb9	-0.1016478
6	0xbda8e310	-0.08246434
7	0x3d59220f	0.053010996
8	0xbde0110a	-0.1094075
9	0x3d89757f	0.06711864

exp_avg f4 [10, 1, 5, 5]
0	0xbc16a1e6	-0.009193873
1	0xbc27c2fb	-0.010239358
2	0xbc03e10e	-0.008049263
3	0xbb967417	-0.0045914757
4	0xbb9262b3	-0.0044673323
5	0xbc2bdf65	-0.010490273
6	0xbc399658	-0.011327349
7	0xbc23c970	-0.009996757
8	0xbbfad417	-0.0076546776
9	0xbbb1da17	-0.0054276097
10	0xbb569e79	-0.0032748266
11	0xbb86660d	-0.004101521
12	0xbba9ecf2	-0.005185717
13	0xbbc919da	-0.006137115
14	0xbbab8295	-0.0052340725
15	0x39caf46d	0.00038710554
16	0x3a3faa44	0.00073114433
17	0xba496cf4	-0.0007683777
18	0xba86a52a	-0.0010272611
19	0xbb462344	-0.0030233422
20	0x3a3400d1	0.0006866577
21	0x39c5a156	0.00037694973
22	0x3a8cad30	0.0010732766
23	0x3a16ce9d	0.00057528337
24	0xbae9b91e	-0.0017831658
25	0x3b229310	0.0024806894
26	0x3b3bc80e	0.0028653177
27	0x3aeb6beb	0.0017961239
28	0x3a297b8c	0.00064652483
29	0xb989f05b	-0.00026309755
30	0x39ce1975	0.0003931035
31	0xbaf9229e	-0.0019007509
32	0xbb4056c0	-0.0029348582
33	0xbb740d7b	-0.003723948
34	0xbb294cb6	-0.0025833077
35	0xba9dbf44	-0.0012035151
36	0xbb579bb1	-0.0032899196
37	0xbb52a928	-0.0032144282
38	0xbb6a66dd	-0.0035766878
39	0xbb9564e2	-0.0045591453
40	0xb92ef2ee	-0.00016684431
41	0x3a117c20	0.0005549807
42	0x3a7600e0	0.00093842857
43	0xbaa577f2	-0.0012624247
44	0xbb9accb5	-0.00472411
45	0x3af775ee	0.001887975
46	0x3b681a88	0.0035416204
47	0x3b41951f	0.0029538346
48	0x3afa5931	0.0019100067
49	0xbb7e0465	-0.0038759944
50	0x3bb90dbc	0.005647389
51	0x3b84dbd1	0.0040545245
52	0x3bbe608e	0.00580985
53	0x3bfd6c6e	0.007733873
54	0x3bebe21d	0.0071985857
55	0x3b9d1fd3	0.0047950535
56	0x3b910102	0.004425169
57	0x3ba27275	0.004957492
58	0x3bcc4436	0.0062337173
59	0x3bce40a3	0.0062943264
60	0x3bc26d84	0.0059334654
61	0x3bb1e256	0.0054285927
62	0x3bc13c3c	0.005897073
63	0x3bcd4cf0	0.006265275
64	0x3be92066	0.007114458
65	0x3c1dddf9	0.009635442
66	0x3c00b47c	0.007855531
67	0x3c006c90	0.007838383
68	0x3ba44a6e	0.0050137555
69	0x3b89e195	0.0042077997
70	0x3c246d76	0.010035863
71	0x3c2fac73	0.010722267
72	0x3c2c2015	0.010505696
73	0x3bccb5ca	0.006247257
74	0x3af48c88	0.0018657604
75	0x3adaa2ef	0.0016680638
76	0x39ee966f	0.0004550698
77	0x3a1ad03d	0.0005905664
78	0x3a0e05bc	0.00054177246
79	0x3a9f3625	0.0012146874
80	0x398ccd8b	0.00026856022
81	0xba2af2b2	-0.000652115
82	0xbad56e21	-0.0016283431
83	0xbab44c46	-0.0013755641
84	0x39b81c04	0.00035116088
85	0xba796cc8	-0.0009514806
86	0xbaf33c8b	-0.0018557472
87	0xbb1b9fd8	-0.0023746397
88	0xbb0c1d51	-0.0021379779
89	0xb9e047fe	-0.00042778248
90	0xbaa83d2f	-0.0012835617
91	0xbb2d7904	-0.0026469836
92	0xb9a45c98	-0.00031349505
93	0xbae309ff	-0.0017321705
94	0xbb2887d8	-0.0025715735
95	0xb878da5f	-5.933118e-05
96	0x39c0fcfb	0.0003680958
97	0x3b67cf0b	0.003537121
98	0x3ac7a1f0	0.0015230756
99	0xba997f77	-0.0011710961
100	0xba0782ba	-0.0005169321
101	0x3aa473be	0.0012546701
102	0x3b0a66c0	0.0021118373
103	0x3b966643	0.0045898273
104	0x3bbd62a7	0.0057795825
105	0x3a81e1c0	0.0009909198
106	0x3aad1eb3	0.0013208002
107	0x3b235bb4	0.0024926485
108	0x3bbedead	0.005824885
109	0x3c0431a7	0.008068479
110	0x3aeb7203	0.0017963055
111	0x3b3c1571	0.0028699304
112	0x3b999a5d	0.004687591
113	0x3bc4bec0	0.0060041845
114	0x3bf1f81f	0.0073843147
115	0x3b6099e4	0.0034271413
116	0x3b99719f	0.004682734
117	0x3baa1137	0.0051900405
118	0x3bac1c04	0.005252363
119	0x3ba957b5	0.005167926
120	0x3c00e14e	0.007866217
121	0x3c1997b0	0.009374544
122	0x3c0951ec	0.008381348
123	0x3ba8b6e6	0.0051487563
124	0x3b8411e9	0.0040304554
125	0xbb71faaa	-0.003692309
126	0xbb7d1f0c	-0.0038623242
127	0xbb1ce391	-0.002393935
128	0xbb145d0d	-0.002263847
129	0xba1df797	-0.00060259685
130	0xbc15ac38	-0.009135298
131	0xbc383cb6	-0.011244943
132	0xbc50a58c	-0.012734782
133	0xbc52f13b	-0.012874897
134	0xbc1aba7f	-0.009443878
135	0xbc1b5ec4	-0.009483043
136	0xbc41455c	-0.011796322
137	0xbc7df99e	-0.015501408
138	0xbc856a72	-0.016286109
139	0xbc415ca7	-0.011801875
140	0xbbf0837a	-0.007339892
141	0xbbeca676	-0.007221992
142	0xbc0dc047	-0.0086517995
143	0xbc202fb6	-0.009777
144	0xbbf2159f	-0.0073878313
145	0xbb853da4	-0.004066186
146	0xb9e1da47	-0.00043077974
147	0xba5287dc	-0.0008031109
148	0xbb47425a	-0.003040454
149	0xbb3cd9ad	-0.0028816268
150	0xbaa5111f	-0.0012593603
151	0xb9d5660f	-0.00040702565
152	0x396237f8	0.0002157389
153	0x3b35e79f	0.0027756465
154	0x3ba6a24a	0.0050852643
155	0xba33a00c	-0.0006852157
156	0xb9a1fadf	-0.00030895227
157	0x3b031c48	0.002000587
158	0x3b546889	0.003241094
159	0x3b82166e	0.003969959
160	0xbb2b9046	-0.0026178523
161	0xba48dd46	-0.0007662367
162	0x3b4a65ee	0.0030883509
163	0x3bbd9cab	0.0057864985
164	0x3b900fe6	0.0043964265
165	0xbb2d1496	-0.0026409975
166	0x3926b2e2	0.00015897633
167	0x3b48b631	0.0030626173
168	0x3babe250	0.0052454844
169	0x3b6b0a5e	0.0035864334
170	0xb8f851e7	-0.00011840817
171	0x3b14dc91	0.0022714476
172	0x3b803037	0.0039119977
173	0x3bb942d0	0.0056537166
174	0x3b67b4b1	0.0035355503
175	0x3a05379f	0.00050818356
176	0xb8ffd0ab	-0.00012198215
177	0x3a1a57a9	0.0005887696
178	0x3abdb4d6	0.0014473449
179	0x3b03274b	0.0020012434
180	0xbaf1812f	-0.001842534
181	0xbad9fb33	-0.0016630649
182	0xba72e978	-0.0009266357
183	0x3a55d318	0.00081567606
184	0x3b18e114	0.0023327516
185	0xbb2e2bda	-0.002657643
186	0xbb2b511c	-0.0026140874
187	0xba8e78c3	-0.001086973
188	0xba8a7972	-0.0010564758
189	0x3a53aff8	0.00080752326
190	0xbab31910	-0.0013664085
191	0xbae89a6d	-0.0017746218
192	0xbae6bc13	-0.0017603658
193	0xbac4e6a4	-0.001502235
194	0xb8fe598e	-0.00012128345
195	0x3ab7e6a3	0.0014030527
196	0xba08daab	-0.00052205723
197	0x39e46265	0.00043560858
198	0xb89becf0	-7.435109e-05
199	0xba485348	-0.00076418044
200	0x3b1089e1	0.0022054838
201	0x3b00eb9b	0.0019671682
202	0x3ad8a287	0.0016527929
203	0x3a801e5b	0.0009774672
204	0x39097a9f	0.00013111018
205	0xba7fcdbc	-0.0009758135
206	0xb9f1d18f	-0.00046123235
207	0xbac78ddc	-0.0015224773
208	0xbb004126	-0.0019570081
209	0xbb3e6af5	-0.002905545
210	0xbbb5f161	-0.0055524562
211	0xbb97dc8f	-0.004634447
212	0xbbaa7b80	-0.0052027106
213	0xbbe274ed	-0.0069109113
214	0xbbbd249c	-0.0057721864
215	0xbc2156a6	-0.009847319
216	0xbc300c97	-0.010745189
217	0xbc22a978	-0.0099281
218	0xbc10e3ff	-0.008843421
219	0xbbc35045	-0.0059604966
220	0xbbe33347	-0.006933603
221	0xbc1746ca	-0.009233186
222	0xbba9c882	-0.005181373
223	0xbb84966a	-0.004046251
224	0xbac7271a	-0.0015194148
225	0x3a1c0b77	0.0005952636
226	0x3ab43fd9	0.0013751938
227	0x3b2fc188	0.0026818234
228	0x3ad38835	0.0016138615
229	0x3b0758a4	0.00206522
230	0xb9acbe72	-0.0003294829
231	0x38df6ff8	0.000106543244
232	0x3a0b5f6e	0.00053166493
233	0x3ad94ab9	0.0016578055
234	0x3b4e46ae	0.0031475234
235	0xbaa94def	-0.0012916903
236	0xb96b8d82	-0.00022464062
237	0x3a30ed33	0.00067492126
238	0x3adf22c2	0.0017023908
239	0x3ada904a	0.0016675082
240	0xbb19a3e8	-0.0023443643
241	0xba9f6c9a	-0.0012163103
242	0x3969464f	0.00022246804
243	0xba95aea2	-0.0011419842
244	0xb93efd36	-0.0001821414
245	0xbb3272f2	-0.0027229157
246	0xbaf43628	-0.0018631862
247	0xba6602ca	-0.00087742193
248	0xba84e5b0	-0.0010139253
249	0xb9ffae76	-0.00048767374

exp_avg_sq f4 [10, 1, 5, 5]
0	0x38802b49	6.111578e-05
1	0x3872672b	5.779338e-05
2	0x387d06a3	6.032608e-05
3	0x388f87d7	6.8440735e-05
4	0x38a02f1a	7.638168e-05
5	0x385f1168	5.3183554e-05
6	0x386a9d40	5.5936398e-05
7	0x3884cb6d	6.3321415e-05
8	0x38a200db	7.724921e-05
9	0x38994eac	7.310262e-05
10	0x37e25d44	2.698473e-05
11	0x37d7a0ec	2.5704932e-05
12	0x380e1539	3.3875203e-05
13	0x3869ae64	5.5713943e-05
14	0x38855a6a	6.358775e-05
15	0x37587dfd	1.2903937e-05
16	0x3780743d	1.5312917e-05
17	0x38031d62	3.12602e-05
18	0x38591680	5.1757786e-05
19	0x38766c08	5.8751582e-05
20	0x37948e3d	1.770921e-05
21	0x37ded69b	2.6564396e-05
22	0x3835cf5d	4.3346885e-05
23	0x3857fe7a	5.1496994e-05
24	0x384d9826	4.9017508e-05
25	0x3858d774	5.169907e-05
26	0x38581ca1	5.1525076e-05
27	0x3869b197	5.5716922e-05
28	0x38943f37	7.0689646e-05
29	0x388f457b	6.831713e-05
30	0x386bbd07	5.620441e-05
31	0x3877fab0	5.912286e-05
32	0x389a37ce	7.353687e-05
33	0x38b9e6e9	8.864498e-05
34	0x3891e25c	6.9563015e-05
35	0x38814b6b	6.165247e-05
36	0x3894fdeb	7.104486e-05
37	0x38afc289	8.380885e-05
38	0x38b8f6f2	8.819801e-05
39	0x389bc251	7.42717e-05
40	0x385ca20c	5.2603005e-05
41	0x3866fedc	5.507363e-05
42	0x388c8bf9	6.701792e-05
43	0x388f5336	6.8342706e-05
44	0x3896645f	7.171253e-05
45	0x3861e2bd	5.3855347e-05
46	0x38670ace	5.5084754e-05
47	0x386c9d12	5.6413068e-05
48	0x385c7037	5.2556596e-05
49	0x386aa6f5	5.594544e-05
50	0x38042462	3.1505137e-05
51	0x38418024	4.6134126e-05
52	0x38c1682e	9.222362e-05
53	0x38e5ffde	0.0001096723
54	0x38c3624b	9.316633e-05
55	0x381179cf	3.4684137e-05
56	0x388a80d8	6.604352e-05
57	0x3900d6a0	0.00012286985
58	0x38effd32	0.000114435694
59	0x38a2fec6	7.772217e-05
60	0x384c1dbf	4.8665093e-05
61	0x38d02700	9.925477e-05
62	0x390ba27f	0.00013316608
63	0x38df8848	0.00010658853
64	0x3889cbbf	6.57062e-05
65	0x38968851	7.177948e-05
66	0x38f31568	0.0001159113
67	0x3902be27	0.00012468603
68	0x38c0c9bd	9.19285e-05
69	0x387a460a	5.9669874e-05
70	0x38a978ea	8.08107e-05
71	0x38f2a67e	0.00011570471
72	0x38dbe2d5	0.000104849845
73	0x389160d3	6.932174e-05
74	0x3846ce65	4.73991e-05
75	0x37f1fe75	2.884793e-05
76	0x381206cc	3.4815443e-05
77	0x3854fbd2	5.0779265e-05
78	0x38907c8b	6.889653e-05
79	0x3885e007	6.3836625e-05
80	0x3808ae21	3.2587097e-05
81	0x382663f8	3.9670587e-05
82	0x3888e183	6.52699e-05
83	0x38a0d0f1	7.668313e-05
84	0x389031be	6.87572e-05
85	0x382f6ef0	4.182657e-05
86	0x386c0eb9	5.6280496e-05
87	0x38abcc48	8.191966e-05
88	0x38b3d413	8.574887e-05
89	0x38857c19	6.365049e-05
90	0x384768d6	4.7542933e-05
91	0x385f5a70	5.325157e-05
92	0x3893e42f	7.052009e-05
93	0x38a16041	7.695007e-05
94	0x387c53a2	6.015937e-05
95	0x3868fe1c	5.5549768e-05
96	0x387676bc	5.876155e-05
97	0x38998b2a	7.32153e-05
98	0x38a18805	7.702414e-05
99	0x3876c9dc	5.8838967e-05
100	0x380505a1	3.1714913e-05
101	0x384cdc8e	4.8842798e-05
102	0x38a72c81	7.97147e-05
103	0x38a5052f	7.8687786e-05
104	0x38479a10	4.758878e-05
105	0x380f074b	3.410065e-05
106	0x387259e9	5.778103e-05
107	0x38b4ff5d	8.630634e-05
108	0x389699e1	7.1812196e-05
109	0x3825ea7f	3.9557457e-05
110	0x383cc13b	4.5002653e-05
111	0x38943c29	7.068396e-05
112	0x38c1e8f9	9.246352e-05
113	0x38850415	6.3426945e-05
114	0x3803c6a9	3.141785e-05
115	0x38499332	4.805922e-05
116	0x38a045e0	7.64241e-05
117	0x38bb417d	8.929053e-05
118	0x38432244	4.6523535e-05
119	0x37c22ee2	2.3148434e-05
120	0x38692812	5.5588847e-05
121	0x38b3c6ea	8.572436e-05
122	0x38a99ca9	8.087728e-05
123	0x380ded14	3.3837816e-05
124	0x37a55b7e	1.9712137e-05
125	0x3851f86f	5.0060855e-05
126	0x387a97b3	5.9745926e-05
127	0x389b004b	7.3910305e-05
128	0x38a0eabf	7.6731194e-05
129	0x38a6e375	7.957864e-05
130	0x3891ee86	6.958567e-05
131	0x38dbca05	0.00010480363
132	0x390c3e7f	0.00013374722
133	0x3915a10c	0.00014269742
134	0x39017c58	0.0001234872
135	0x38d2c336	0.00010049941
136	0x39188ce5	0.00014548337
137	0x393008c8	0.00016787939
138	0x3928302d	0.00016039675
139	0x391088c8	0.00013783865
140	0x38d38160	0.00010085362
141	0x38d0baaf	9.9529854e-05
142	0x38bec12a	9.0958856e-05
143	0x38c18c66	9.2291084e-05
144	0x38cc7a21	9.750226e-05
145	0x38b0dbc0	8.4332656e-05
146	0x38a95efe	8.076242e-05
147	0x388a9a0b	6.6090455e-05
148	0x3875ba13	5.8585847e-05
149	0x388b27d4	6.635455e-05
150	0x3820ef3f	3.8369788e-05
151	0x38312202	4.223176e-05
152	0x3853236e	5.0339317e-05
153	0x38863aba	6.4005566e-05
154	0x38977cda	7.2234965e-05
155	0x386fbf1b	5.716002e-05
156	0x387d2459	6.0353752e-05
157	0x38813e6f	6.1628285e-05
158	0x38874e61	6.451901e-05
159	0x38972380	7.2068535e-05
160	0x3888e49d	6.527568e-05
161	0x386f221a	5.70138e-05
162	0x3859a2ca	5.188844e-05
163	0x38913b56	6.925191e-05
164	0x389ab4df	7.376982e-05
165	0x3857d232	5.1455754e-05
166	0x382f4dae	4.1795596e-05
167	0x3854c6c1	5.0729843e-05
168	0x38949544	7.084993e-05
169	0x388332f4	6.2560575e-05
170	0x383f5854	4.562021e-05
171	0x386130a8	5.3689495e-05
172	0x3895a350	7.135293e-05
173	0x3898707b	7.268876e-05
174	0x384674cc	4.7315654e-05
175	0x386e7c24	5.6859237e-05
176	0x38949a81	7.0859685e-05
177	0x3887c48e	6.473913e-05
178	0x38688a04	5.5441647e-05
179	0x38818fdc	6.177995e-05
180	0x387c738d	6.0189097e-05
181	0x388f5f6d	6.836546e-05
182	0x3873ca33	5.8124027e-05
183	0x38424a89	4.632262e-05
184	0x3863f56f	5.4349595e-05
185	0x388ad813	6.6206e-05
186	0x38a378d4	7.794952e-05
187	0x38859fca	6.371697e-05
188	0x385b0ef5	5.22276e-05
189	0x386521d1	5.462935e-05
190	0x388bf6d5	6.6740125e-05
191	0x38a4d8d5	7.8605175e-05
192	0x3882aa48	6.2306004e-05
193	0x3859f52a	5.196516e-05
194	0x38701514	5.724009e-05
195	0x388133f7	6.1608785e-05
196	0x388ab682	6.6143475e-05
197	0x3871be1c	5.763593e-05
198	0x38489d48	4.7830195e-05
199	0x38567f9b	5.1140418e-05
200	0x382ffd0f	4.195893e-05
201	0x383c32be	4.486995e-05
202	0x384b7726	4.8509937e-05
203	0x385817e7	5.1520674e-05
204	0x38653c4c	5.465401e-05
205	0x3855639a	5.087592e-05
206	0x3872b546	5.786612e-05
207	0x387c0c9e	6.0093233e-05
208	0x386fda33	5.7185254e-05
209	0x38869a1a	6.4183216e-05
210	0x3895dabb	7.1456154e-05
211	0x38a086db	7.654513e-05
212	0x38ac89c3	8.227259e-05
213	0x38c7a8bf	9.520491e-05
214	0x38d0ee42	9.962592e-05
215	0x38bed434	9.099432e-05
216	0x38c519c3	9.3984905e-05
217	0x38e2112a	0.00010779717
218	0x38f7b1b2	0.00011810976
219	0x38e9d0fe	0.000111492336
220	0x38a9dc56	8.099589e-05
221	0x38a402c8	7.8206474e-05
222	0x38985d09	7.265254e-05
223	0x389ffc70	7.628731e-05
224	0x38a28194	7.748898e-05
225	0x38614fb0	5.3718395e-05
226	0x38676fac	5.5178694e-05
227	0x3854a16f	5.0695086e-05
228	0x38510a87	4.9839287e-05
229	0x386a741d	5.5898086e-05
230	0x385cb396	5.261934e-05
231	0x3862d64b	5.4082175e-05
232	0x385db4b0	5.2858784e-05
233	0x3864664e	5.4454715e-05
234	0x3852a580	5.0222035e-05
235	0x384fb926	4.952508e-05
236	0x3846302d	4.7251746e-05
237	0x386bfa37	5.6261397e-05
238	0x38849f9f	6.323982e-05
239	0x38715916	5.7541845e-05
240	0x3841b6c3	4.6184996e-05
241	0x382663a5	3.9670285e-05
242	0x38538348	5.0428585e-05
243	0x3885ef6e	6.3865315e-05
244	0x3884e6de	6.337253e-05
245	0x3833d098	4.2871194e-05
246	0x3827d7d2	4.00169e-05
247	0x3850ad07	4.975221e-05
248	0x38714cfc	5.7530575e-05
249	0x3867e1c4	5.5284952e-05

exp_avg f4 [10]
0	0xba252266	-0.0006299376
1	0x3900ba1d	0.00012276364
2	0x3bc0a654	0.005879203
3	0xb9450c49	-0.0001879196
4	0x3b2c0f68	0.00262543
5	0xbbaa9e62	-0.005206869
6	0x3aa57386	0.001262293
7	0x3a3eef6b	0.0007283601
8	0xbb848a14	-0.0040447805
9	0x3a69ad5f	0.0008914079

exp_avg_sq f4 [10]
0	0x37a06aeb	1.9123274e-05
1	0x378397b0	1.5687052e-05
2	0x37c29bf1	2.3199218e-05
3	0x373955d9	1.1046847e-05
4	0x3771bee3	1.4409164e-05
5	0x38120748	3.4815894e-05
6	0x3738366b	1.0979925e-05
7	0x3739d5b9	1.10766205e-05
8	0x37b134e5	2.1124675e-05
9	0x3778efdc	1.48377985e-05
