checkpoints/mnist/classif.pth (torch_old, 280252 bytes, 24 tensors)

weight f4 [10, 1, 5, 5]
000000 c7 a7 32 3e 64 0f 6f 3e 3e 9a 3c be 73 c3 7b bd
       0.17446814 0.23345715 -0.18418214 -0.06146569
000010 89 f0 6b be d8 73 1e 3e e4 2f 2c 3e e6 65 94 3d
       -0.23040976 0.15473878 0.16815144 0.07245998
000020 60 41 6d be 0f 72 8e be 84 4d e8 3d a3 c0 79 3e
       -0.2316947 -0.27821395 0.1134291 0.24389891
000030 e7 b4 05 3e 92 4e 88 bd a0 82 c3 be 5a f2 89 bd
       0.1305729 -0.06655611 -0.38185596 -0.06735678
000040 03 c8 10 3e 47 08 18 3e b2 b8 4b 3e d0 43 3b be
       0.14138798 0.14846908 0.19894674 -0.18287587
000050 51 a1 ad bb 35 e7 4a 3e 2c dd 71 bc 31 75 4d 3e
       -0.0052987714 0.19814761 -0.014762204 0.20064236
000060 4b 23 28 be f1 8b c0 3d 48 c5 e2 3d 38 0f 28 3e
       -0.16419713 0.09401692 0.11072785 0.16412055
000070 51 b2 89 3e 3c 6c 33 3d e3 92 97 3e f7 b3 92 3e
       0.26893857 0.043804392 0.29604253 0.28652927
000080 18 6f 85 3e 6f ba 35 3e cf a7 80 3e 0d c5 5e 3b
       0.2606132 0.177469 0.25128028 0.0033991963
000090 3e c2 02 3e c4 cf b4 bd 3e d4 85 3c 71 7d d9 3c
       0.1276941 -0.08828691 0.016336557 0.026549073
0000a0 50 78 42 be f6 38 83 be e9 aa 02 be 1b 9a 40 be
       -0.18991208 -0.25629395 -0.1276051 -0.18808787
0000b0 b8 86 ad bd c4 0f a1 be f2 f3 ba be fe 92 98 be
       -0.08472961 -0.3145734 -0.3651424 -0.29799646
0000c0 bd c7 6c be ce 4a 31 be 77 c4 48 bf 31 89 99 be
       -0.23123069 -0.17313692 -0.7842478 -0.2998748
0000d0 5f 27 4c be cf 62 b5 3d b0 6a 73 3e 47 d7 d4 be
       -0.19936894 0.08856737 0.23771167 -0.41570494
0000e0 bd 06 1e bf 75 4e 0f bf db bf d8 be 60 cb cf bd
       -0.6172903 -0.5597909 -0.42333874 -0.101462126
0000f0 71 cd be 3e 0f 82 4b 3c 41 e3 a3 be 54 a8 e6 be
       0.37266114 0.012421145 -0.32009318 -0.450503
000100 f6 8f aa be 6e ba 34 3e 7d 5f 9c 3e 8d 0c 2c bd
       -0.33312958 0.17649242 0.30541602 -0.042004157
000110 33 99 3e be 02 0f 00 bf ea 8c e2 3c 4b fc 92 3e
       -0.18613128 -0.500229 0.027655084 0.2870811
000120 42 90 91 3e ba a8 96 bd 48 3b ff bc 63 04 8b 3d
       0.28430372 -0.07356401 -0.031156197 0.06787946
000130 1c cc e8 3d cd a4 ad 3d 68 0e f4 be d6 47 e4 be
       0.11367056 0.08478699 -0.4766724 -0.44586056
000140 55 c7 26 be ba f7 62 bc 33 ae b6 3e 27 a9 99 3e
       -0.16286977 -0.013853008 0.35679778 0.30011865
000150 24 10 ba 3c eb 12 96 bd 15 bd 4a 3d fa 6c 4a 3e
       0.022712775 -0.07327827 0.04949673 0.19768134
000160 81 c9 b7 3e 98 91 4e 3d 82 d0 5b 3d fb 60 2c be
       0.35895923 0.050431818 0.053665645 -0.1683387
000170 df 1e ce bd 3b 5a 20 3e 34 ca 8b 3e 7e ba 9c be
       -0.10064482 0.1565942 0.27302706 -0.30611032
000180 ef 69 06 be d6 41 8c be 9a f6 b2 be 1c 47 1a be
       -0.13126348 -0.2739398 -0.34953767 -0.15066189
000190 4e 5f da 3e 81 a3 99 bd 81 3b a1 3c 5e ff ba be
       0.42650837 -0.07501889 0.019681694 -0.36522955
0001a0 a5 1e 3d be e2 ec be 3e 75 41 95 3d 86 1d 80 be
       -0.18468721 0.37290102 0.072878756 -0.25022525
0001b0 47 67 4f be e9 f1 5a be 15 c7 8a 3e 92 f7 c4 bc
       -0.20254241 -0.21381344 0.27105013 -0.024043832
0001c0 29 ae 77 be 74 b1 80 be 66 2a 4a be ba 37 7d 3e
       -0.2418753 -0.25135386 -0.19742736 0.24728289
0001d0 88 e9 34 38 44 d0 7e be 2a 8b 87 be 08 fc a0 bc
       4.3132837e-05 -0.24884135 -0.2647336 -0.019651428
0001e0 a4 90 6b 3d 06 f2 46 be 92 f2 57 be 8b 21 05 be
       0.057510987 -0.19428262 -0.21088627 -0.13001077
0001f0 0d 4b b2 3c fc 1f 90 3d 75 ac 1c be 2d c4 41 be
       0.021764303 0.070373505 -0.15300162 -0.18922491
000200 9d a2 05 be 89 fd 18 3e 3c f4 37 3e 51 d1 43 be
       -0.13050313 0.14940466 0.17964262 -0.19122817
000210 41 69 27 be fb 9f 24 be 5d c0 4e be e1 4c 87 3e
       -0.16348745 -0.16076653 -0.20190568 0.2642584
000220 58 d0 5f 3e 23 00 16 bd c3 e9 ce 3b 2a 53 27 be
       0.2185682 -0.036621224 0.0063144877 -0.16340318
000230 82 f2 bd 3d f1 aa c2 bc 9b dc 84 3e a2 69 4a 3c
       0.0927477 -0.023763152 0.2594956 0.012354286
000240 bb 7f 87 3c f6 fc 76 3d 16 32 38 bc a4 0e d2 3d
       0.016540399 0.060299836 -0.01124241 0.10256699
000250 da 74 40 3e 73 8d a8 3d 07 23 e0 bc 1f f3 62 3c
       0.18794575 0.08230104 -0.027360452 0.01385191
000260 c1 72 f8 bd cd fd 88 be 47 ab 9d be 80 13 87 3d
       -0.121312626 -0.26756135 -0.30794737 0.06595516
000270 8c 8f 48 be 42 ba 75 be da 3d f6 be c0 f5 2d 3c
       -0.19586009 -0.23996833 -0.48094064 0.010617673
000280 cd d9 a0 be 52 f3 be be 4d 06 d0 be 43 e7 88 bd
       -0.3141617 -0.37295014 -0.40629807 -0.06684735
000290 be 47 c4 3e da 8c 91 be 19 2f 81 be 25 26 0f 3d
       0.38335985 -0.28427774 -0.25231245 0.034948487
0002a0 f5 bd 35 3e 11 c5 51 3e ab dc f4 be 31 20 3d be
       0.17748244 0.20485331 -0.47824606 -0.18469311
0002b0 28 c7 e4 3d 2c 27 0d 3e 24 1b b1 3e 39 6e 17 3e
       0.111707985 0.13784474 0.3459102 0.1478814
0002c0 5f c6 e3 3c 82 f3 09 3e 7f 7c 20 3e 63 8a 1d 3e
       0.027804552 0.13471797 0.15672491 0.15384822
0002d0 31 1b 6f be 4f e5 f5 3d f9 f6 35 3e ca ab 28 3e
       -0.23350216 0.12006628 0.17769994 0.16471782
0002e0 b6 8b 54 3d bd f3 70 be f7 8b 21 be eb 19 92 3d
       0.05189105 -0.23530479 -0.15776049 0.0713385
0002f0 73 27 0b 3e 25 01 64 3d 51 ad 92 be 19 79 a2 3c
       0.13589267 0.055665154 -0.28647855 0.019833134
000300 1a 82 1f 3e 58 79 82 3d 76 08 c4 3d ad 23 70 be
       0.15576974 0.06370801 0.09571926 -0.23451109
000310 e3 05 bd bd 79 53 0e bc 1b da 99 3d d5 bf 14 3e
       -0.092296384 -0.008686894 0.075123034 0.14526303
000320 e9 6f 08 3e a0 52 64 bd 76 59 93 bd 9e 0a 0e be
       0.1332394 -0.05574286 -0.07194798 -0.13871238
000330 5e 2e d1 bc 7a 6c 02 bf 3e 09 94 be 1f 9e 92 be
       -0.025534805 -0.5094677 -0.289133 -0.28636262
000340 da 16 49 3c 52 18 91 3d 25 b0 b2 be 26 78 a6 bd
       0.012273515 0.07084717 -0.34900013 -0.08128385
000350 ca e9 a8 3b 66 94 99 3d d4 52 0b 3e eb d5 70 3e
       0.005154823 0.07499008 0.13605815 0.23519103
000360 92 1b 63 3e 69 f8 96 3e c0 ec 63 3e 2e ac 34 bc
       0.22178486 0.29486397 0.22258282 -0.011027379
000370 72 02 d6 3e 30 7f 81 3e c4 b9 c3 3c 8f 4b 2f 3d
       0.4179874 0.2529235 0.02389229 0.042796668
000380 ff 1d 97 be 48 03 1a be 5e 81 14 be 7f e2 27 3d
       -0.29515073 -0.15040314 -0.14502475 0.040987488
000390 96 0b 5f be f9 9d 63 be 5d 63 8c 3d 1d eb df 3c
       -0.21781763 -0.2222823 0.068548895 0.02733379
0003a0 d2 5f 66 bd 78 14 be be ed dd c0 3d 57 d7 ed 3d
       -0.056243725 -0.3712499 0.09417329 0.116133384
0003b0 4a 14 79 3e f3 63 29 3e 37 e0 79 bc 0c f3 3a 3e
       0.24324146 0.16542034 -0.015251211 0.18256778
0003c0 36 c6 a9 be 6b d9 5b 3d 97 e5 6d 3e e3 dd ed bd
       -0.33159035 0.053674143 0.23232113 -0.11614587
0003d0 59 6e 5c 3e f6 ef 3d be 84 15 9b 3d 41 00 3b 3e
       0.2152647 -0.18548569 0.07572463 0.18261816
0003e0 52 74 05 be 38 9b 5a be
       -0.13032654 -0.21348274

bias f4 [10]
000000 b1 d1 37 3d d2 b5 3b bc 64 fb 0b be cc af 41 bc
       0.04487771 -0.011456924 -0.13670117 -0.011821698
000010 c0 11 61 bd 50 6d 2a be 1b 8d c0 be 1a 34 1c bc
       -0.05494857 -0.16643262 -0.37607655 -0.009533906
000020 ae 3d 12 be 3e b6 ac 3d
       -0.14281341 0.084331974

weight f4 [20, 10, 5, 5]
000000 6a 2c 35 3c d6 74 8e 3d a7 c4 6e 3c 86 1b 93 ba
       0.011057952 0.069558784 0.014573253 -0.0011223413
000010 7e a5 8c 3b 51 af a5 3d 9a 4c 92 3d 83 43 ac 3c
       0.004292189 0.080900796 0.07143517 0.021028286
000020 43 33 43 bb 34 c7 d9 bb f1 ec 23 bb f5 a2 a9 3c
       -0.0029785193 -0.0066460613 -0.0025013054 0.020707587
000030 b5 7d 5a bc ed cf 56 bd c2 58 bf bc c1 38 de bd
       -0.013335635 -0.052444387 -0.023357753 -0.10850669
000040 15 e1 e6 bd 3c 62 cd bd 85 f1 80 bd f2 fb 5d bd
       -0.112734 -0.10028502 -0.06296066 -0.054195352
000050 85 57 c1 bd d7 1a 04 bd d0 c1 1e be fc df 2b bd
       -0.09440521 -0.03225216 -0.15503621 -0.041961655
000060 a1 60 72 bd 3e 19 64 3d 43 fb 83 bd 4f d4 4b 3c
       -0.059174184 0.055688135 -0.06444409 0.012440755
000070 ac 83 69 bd 23 45 8d bd fa 54 96 3d a0 70 88 3d
       -0.057010338 -0.068979524 0.07340427 0.066621065
000080 1c b3 f5 bc 65 a8 ef 39 a0 b2 9f 3c 0e a5 32 bb
       -0.029992633 0.00045711096 0.019494355 -0.0027259025
000090 5e 51 49 bc b8 d3 d6 3c c2 b5 92 3d 5a 1f ab 3d
       -0.012287466 0.026224002 0.07163574 0.08355589
0000a0 f8 fd 85 bd 61 7e d3 bc e6 be 2c 3e 63 98 59 3d
       -0.06542581 -0.025817098 0.16869697 0.053123843
0000b0 0b 7b 15 3d e6 12 dd bd 36 4d 16 be 16 78 e5 bc
       0.036494296 -0.1079462 -0.14677891 -0.028011363
0000c0 7a cc 88 bd 2c 43 cc bd 62 c5 4e 3d 66 1e 22 ba
       -0.06679626 -0.099737495 0.050481208 -0.0006184339
0000d0 bd 57 75 bd 80 11 e8 bc ca a7 dd bc 06 bd b2 bd
       -0.059898127 -0.028328657 -0.027057547 -0.087274596
0000e0 7a 61 88 bd 1f 68 06 be a3 26 36 bd c5 d7 29 be
       -0.06659217 -0.13125657 -0.04447044 -0.16586216
0000f0 81 fe 83 3c 3b c0 a1 bc 7d c4 35 bd ae 07 20 bd
       0.016112568 -0.019744983 -0.04437684 -0.039069824
000100 a2 18 cf bd 6f de 24 3e 18 2a 1b 3e 82 e6 a5 3d
       -0.1011212 0.16100477 0.15152776 0.081006065
000110 0a d0 e9 3c a8 84 58 bd 2f c0 16 3e 5d c3 34 3e
       0.028541584 -0.052860886 0.1472175 0.1765265
000120 74 da 23 3d 9f 8f 3b bc 50 26 aa 3d 05 59 69 3d
       0.040003255 -0.011447816 0.08308089 0.05696966
000130 28 4d 24 3e 18 c4 ce 3d 33 05 f9 3d 29 4e 6e 3d
       0.16045058 0.10095996 0.12159195 0.058180008
000140 d3 3b 98 3d 17 4d 8e 3c 16 c4 d8 3c 2c 99 09 bc
       0.074332856 0.017370744 0.026460689 -0.008398335
000150 11 72 8d 3d 0c 7f a9 3d a5 50 e5 3d 62 a9 7c 3d
       0.06906522 0.082761854 0.11197022 0.061684974
000160 bc 8f c6 3d ea fa 43 3d b1 f6 46 bd c5 10 1f 3e
       0.09695384 0.047846712 -0.048575107 0.15533741
000170 42 b1 45 3e ef b4 ce 3c bf 3b c5 bd df 7d fe 3c
       0.193059 0.02523276 -0.09630536 0.03106588
000180 89 2e c9 3d 10 e6 97 3c 99 56 84 39 83 f3 88 bd
       0.09823329 0.01854232 0.00025241522 -0.06687071
000190 86 94 b9 bc 1b cf bf bd 5c 2a 9a bd 88 62 ab 3b
       -0.02265383 -0.09365674 -0.07527611 0.0052302517
0001a0 c4 1e 78 3c 1d 1f f8 bc 31 34 9c bb 32 93 20 3d
       0.015144054 -0.030288273 -0.004766964 0.039202876
0001b0 54 38 12 3d e4 7d c3 3d 31 37 9b 3d a5 19 80 3c
       0.03569825 0.09545496 0.07578886 0.015637228
0001c0 25 d7 80 bd 14 18 33 3d 74 61 98 3c 39 f7 52 bc
       -0.062910356 0.043724135 0.018601157 -0.012876325
0001d0 06 96 a4 bc 50 66 83 bd 90 86 0f 3e 27 cb a1 bb
       -0.020091068 -0.06415999 0.14016175 -0.0049375477
0001e0 74 32 b2 3d 95 1a a5 bd ab ea 61 bd 29 94 9b bc
       0.087010294 -0.08061711 -0.055155437 -0.018991547
0001f0 ad 10 f0 bc 0e 0b fc 3b 6c 48 05 3b a3 cc ca 3d
       -0.029304827 0.0076917475 0.0020337356 0.099023126
000200 78 74 d8 3b f9 44 ae 3d 79 54 af bd df df 37 bd
       0.006605681 0.08509249 -0.08561034 -0.044891234
000210 77 f8 cd bb 50 39 f3 bb d5 c1 3a 3d 2b b1 09 be
       -0.006285723 -0.0074226037 0.04559501 -0.1344649
000220 9f f3 4f 3a 23 58 82 3c 72 e0 0b bd 29 52 c0 3c
       0.0007932726 0.015911167 -0.034149595 0.023476677
000230 f2 da 44 be 3c 15 97 bd 69 8b 00 be 55 a2 c3 bd
       -0.19224146 -0.07377097 -0.12553181 -0.09552447
000240 a8 ea 0e bc 6c ee 07 be f6 9e 0a 3e 54 cc 9f 3b
       -0.008722939 -0.13274544 0.13537201 0.0048766527
000250 11 da a2 bc ce c2 1c bd e6 b7 81 bd c0 3e a0 bd
       -0.019879373 -0.038271718 -0.06333904 -0.078244686
000260 88 3a 0b be e3 a6 09 be 41 c8 42 bd e0 bb f0 bc
       -0.13596547 -0.13442568 -0.04755426 -0.02938646
000270 5c 9a f8 bd a9 6d 8e bd 4d 96 36 be b0 fe 29 bb
       -0.12138817 -0.0695451 -0.17830773 -0.002593916
000280 87 de ef bd 5e 1b 83 bd 27 f1 38 3d b8 01 28 be
       -0.117123656 -0.06401704 0.045151856 -0.16406906
000290 75 54 77 be c9 8c e1 bc 4a 82 63 bc 63 5d d0 bd
       -0.24153312 -0.027532952 -0.013886044 -0.10174062
0002a0 26 76 21 be 1b c0 08 be 01 64 ae 3e 0d 9e 13 3e
       -0.15767726 -0.13354532 0.34060672 0.1441576
0002b0 01 17 dc 3d 83 3f 0c 3e 28 14 a8 bd 7c 77 ad bd
       0.10746575 0.13696103 -0.082069695 -0.084700555
0002c0 8b 08 aa bd 23 f0 25 bb a3 c4 a0 bc d9 b9 32 bd
       -0.08302411 -0.0025320135 -0.019625014 -0.04363427
0002d0 5f d4 fd 3b 1a 76 03 3e 04 c7 be 3d 63 a6 8c 3d
       0.007746264 0.12838021 0.09315303 0.06867673
0002e0 9a 3e e8 bc 62 3b ba bc e3 14 50 bd d9 e4 89 3d
       -0.028350163 -0.022733394 -0.05080117 0.06733102
0002f0 06 81 b1 3d 97 fc 82 bd 2c 4f 14 be a5 c5 94 bc
       0.086671874 -0.06395834 -0.14483327 -0.01816065
000300 49 5b f4 3d 37 3c f3 3d e1 7d 86 bb 15 59 b7 bd
       0.11931474 0.118767194 -0.0041043614 -0.08952538
000310 c6 80 2f be e2 3c 7b bd 0a 45 08 3d da 09 ee bd
       -0.17138967 -0.06133736 0.033268966 -0.11622973
000320 47 61 cf bd 09 b0 ba bd b8 de 56 3b a3 ba 9e bb
       -0.10125976 -0.09115607 0.003278656 -0.004844026
000330 08 91 44 bd fe ac 7a be ab c0 5d be 3c 8b 6c bd
       -0.047989875 -0.24480054 -0.21655528 -0.05774997
000340 91 8d 12 bd 79 49 c9 3d 34 63 80 be 11 a3 72 be
       -0.03577954 0.09828467 -0.25075686 -0.23695017
000350 44 a1 90 bc 0f d7 a9 bc 54 7a a0 3c 4b e7 b8 bd
       -0.017655022 -0.02073243 0.01958958 -0.09028491
000360 0b 67 16 be 7f b9 93 bd c7 57 17 bd dc 64 0a bd
       -0.14687745 -0.07213115 -0.036948945 -0.033787593
000370 29 4e 87 bc 1a a4 a4 3d 7c 5f f0 3d 4e ac 3d 3e
       -0.016516762 0.080391124 0.11736962 0.1852276
000380 d7 ae c3 3d d0 a0 eb 3d eb 81 d0 3d e5 22 b3 3d
       0.095548324 0.11505282 0.1018103 0.0874689
000390 82 ec 2a 3e c7 e0 09 3e 99 69 80 bd a1 b9 43 3d
       0.16691783 0.13464652 -0.06270141 0.04778445
0003a0 45 96 bb bd d6 fe 24 3d b1 23 22 3d 12 c2 b0 bd
       -0.09159521 0.040282093 0.03958482 -0.08630766
0003b0 e1 4a 96 bc d5 05 3a 3d 76 43 82 3c e4 95 05 3d
       -0.018346252 0.045415718 0.015901309 0.03261365
0003c0 15 f7 24 be 30 8c 08 be 76 80 c9 bd 40 71 c0 bd
       -0.1610988 -0.13334727 -0.09838955 -0.09396601
0003d0 c3 be e5 bc 85 3f e6 bc 24 8c cb bc 43 a1 55 3d
       -0.028045064 -0.02810646 -0.024847098 0.052155744
0003e0 ee 15 0e bd f6 de a8 3c 24 ec 07 bb 3d 63 31 bc
       -0.034688883 0.020614129 -0.0020740116 -0.010826883
0003f0 bd e3 01 3d 04 0f 20 3d 94 89 b9 b8 19 b8 92 bd
       0.03171133 0.03907682 -8.847113e-05 -0.0716402

bias f4 [20]
000000 3b e3 84 bd a7 55 b9 bd b2 fd ae 3c bd ac a1 3b
       -0.06488653 -0.0904954 0.021361206 0.004933922
000010 c2 63 a1 bc 00 95 8a bd 42 9e 61 3d 53 c7 92 bd
       -0.019700889 -0.06766701 0.055082567 -0.07166924
000020 1e c6 b8 bd 50 96 82 3b bd f1 0d bd 83 e1 d7 bb
       -0.09022163 0.003985204 -0.034654368 -0.0065881624
000030 50 99 8d bc eb 37 b0 3c 1e 48 97 3c 79 b7 60 3d
       -0.01728502 0.021511039 0.018467005 0.054862473
000040 c8 f4 ce 3c 19 72 f0 3d 70 0a 9f bc 7e 3a b6 bb
       0.025263205 0.117405124 -0.019414157 -0.005561172

weight f4 [50, 320]
000000 be ce 49 bb 8e 8a 9c bd e6 c2 2c bc 2f ac d3 3d
       -0.0030793394 -0.07643615 -0.010544514 0.10335576
000010 be 28 b3 3b 94 27 e4 bd 84 0d 2b 3e e0 2f a9 3b
       0.0054675033 -0.111403614 0.16704375 0.005163178
000020 e7 74 69 bd bd 9d b1 bd c9 66 4a ba 70 5a 0c 3c
       -0.056996252 -0.08672664 -0.00077210047 0.008566484
000030 87 22 2e bd b4 97 c3 bc de f6 3f bd 26 b2 78 3a
       -0.042513397 -0.023876049 -0.04686629 0.00094869954
000040 80 35 f6 bc 6c 66 8f bd 25 d4 f6 39 af 29 d1 bc
       -0.030054808 -0.07001957 0.00047078836 -0.025532572
000050 91 11 e9 bd c4 ee c9 bd b9 a7 9c bc 23 20 1b 3d
       -0.11380304 -0.09859994 -0.019122945 0.037872445
000060 c6 31 c4 3c 97 6c 32 3d 28 7f 56 bd e0 c2 40 3b
       0.023949515 0.04356059 -0.05236736 0.002941303
000070 7d 0b 0d bb 47 86 e9 3c 82 ca a7 b9 3d 5e 3c bd
       -0.002152174 0.028506411 -0.00032003602 -0.04598831
000080 f2 94 33 3d 52 71 0b bd ad 57 ab bd c8 69 df 3c
       0.043843217 -0.034043618 -0.08366332 0.02727212
000090 f7 9a 18 3e 9d be af 3d 65 d4 6d 3c 44 6b 10 3e
       0.14902864 0.085812785 0.014515971 0.14103419
0000a0 d7 58 c6 3d 61 91 1b 3c 6c b8 ba bd 0f cf 55 bd
       0.096849136 0.00949511 -0.09117207 -0.05219942
0000b0 27 c7 df 3c 4d c1 f1 b9 a0 c2 c7 bd cb 84 17 bd
       0.027316643 -0.00046111122 -0.09753919 -0.036991876
0000c0 4c 37 f6 3d 61 37 54 3d e0 2c 33 ba 31 91 b5 3d
       0.12022266 0.051810626 -0.0006834995 0.08865584
0000d0 b6 c2 a0 bd c8 14 e4 bd 02 1d 2e bd 26 40 c5 3c
       -0.07849638 -0.11136776 -0.042508133 0.02407844
0000e0 2e 42 0b bd b4 d7 01 be 10 cf ec bd eb 1d c7 bd
       -0.03399866 -0.1267994 -0.115629315 -0.09722503
0000f0 31 6b 37 3c 15 ce d7 bc 6b d9 69 be af 34 8d be
       0.01119499 -0.026343385 -0.22836845 -0.27579257
000100 a2 e5 d4 bd 52 27 cc 3d a9 65 52 3d be 92 06 be
       -0.103953615 0.09968437 0.051366482 -0.13141915
000110 68 73 7e bd ef c8 32 3d 28 6c c2 3c a0 c9 d7 3c
       -0.06212178 0.043648656 0.023733214 0.02634126
000120 fc 2e 04 3d 6e d1 33 be 40 b6 d3 bd 07 e6 b3 bd
       0.03227137 -0.1756036 -0.10337496 -0.087841086
000130 17 9d 76 bd 86 b7 a9 bd 3b ba 04 3b 87 3f b9 3d
       -0.060208406 -0.082869574 0.0020252604 0.0904532
000140 6f 0b bd 3c 19 e5 fb 3c 9a 07 c6 3d 93 57 3f 3d
       0.023076741 0.03074889 0.09669419 0.046714377
000150 9f 6e 89 3d 81 69 dc 3c c1 67 f9 bb 47 22 2c be
       0.067105524 0.026905777 -0.0076112454 -0.16809951
000160 0c 68 aa bd ea 42 95 bd 4b f8 57 bd 7e 21 42 bd
       -0.083206266 -0.072881535 -0.052727025 -0.047395222
000170 42 40 68 be 06 06 c9 bc 54 63 4a 3d cd bf 44 3c
       -0.22680762 -0.024539005 0.049411133 0.0120086195
000180 7b 3d 33 bd c8 96 d5 3c eb a2 a5 3d d6 67 15 3d
       -0.043759804 0.026072875 0.08087715 0.03647598
000190 2a 86 10 bd 7c be 90 bd 05 25 34 3c e1 92 88 3d
       -0.0352842 -0.07067582 0.010995154 0.0666864
0001a0 cb 70 23 3d 5b 2e dc bd 06 a5 ce bd bb 17 be bd
       0.03990249 -0.10751029 -0.100900695 -0.0928187
0001b0 20 f8 e4 3c 0d 82 aa bc 5a ab 22 bd 01 30 9a 3d
       0.027950346 -0.020813966 -0.039714195 0.07528687
0001c0 12 03 95 bc 26 4d c8 bc 87 8b 98 bd d5 b1 db bd
       -0.01818994 -0.02445085 -0.07448488 -0.10727278
0001d0 20 7d 35 3c 6b f4 14 bd 62 82 00 3d fa 64 cd 3d
       0.011077195 -0.036365908 0.031374343 0.100290254
0001e0 75 03 23 bd b5 41 fd 3c f5 97 99 3d 48 36 4e bc
       -0.03979822 0.03091512 0.07499687 -0.012586184
0001f0 7c 95 21 3d e6 e6 12 3d 95 eb 4e 3d c3 aa c1 bb
       0.0394492 0.035864733 0.050517637 -0.005910249
000200 4e 24 f8 bc cf fb 9a 3c f6 7d 9d 3c dd 11 99 3c
       -0.030290749 0.0189189 0.019225102 0.018685276
000210 a1 b2 82 bc cb c8 50 3d 81 d4 ac 3d 23 cb 35 bd
       -0.015954318 0.05097274 0.084389694 -0.04438318
000220 2b 88 e1 3c 1d 84 d7 bc 1d e5 67 3d a6 d8 64 3c
       0.02753075 -0.026308114 0.056614984 0.013967669
000230 f9 4e b1 bc 0a fe c0 bd 14 b1 0a bc 95 00 13 3d
       -0.021644102 -0.09423454 -0.00846507 0.035889227
000240 c5 59 d3 bc 66 6b ab bc cb 12 c2 bd 04 79 0c bb
       -0.025799641 -0.020925235 -0.09476241 -0.0021434436
000250 63 d6 62 3d 50 b6 5e 3c be 25 25 3c 69 c6 af 3c
       0.055380236 0.013593271 0.010079799 0.021456914
000260 ea d4 52 3b 94 09 89 bc d1 69 2c bb e3 e7 85 3d
       0.0032170364 -0.0167282 -0.0026308189 0.065383695
000270 9c 6d 80 3c 5d 4d 28 bc 20 7f bc 3b 34 93 59 bd
       0.015677266 -0.010272351 0.005752459 -0.0531189
000280 a3 9c 0c bd 9a 21 1f 3c a1 f1 72 bd 87 c2 bd bd
       -0.034329068 0.009712601 -0.059312467 -0.09265619
000290 46 34 92 3d 55 1c 85 3b 1d 6c a0 bd 83 f0 12 3d
       0.071388766 0.0040622153 -0.07833121 0.0358739
0002a0 1c 21 35 bd b0 90 a8 3c 60 9f ed 3d c3 15 ea 3d
       -0.04422103 0.020576805 0.11602664 0.11429932
0002b0 9d d7 a3 bc a2 0e af 3c 55 0e a6 3d 39 64 25 bc
       -0.020000273 0.021369282 0.08108202 -0.010094696
0002c0 aa fa eb bd b5 c5 cb 3a 5d 59 79 bd ce 66 d8 bd
       -0.1152242 0.0015546592 -0.06087624 -0.105664834
0002d0 dd 34 28 bd 18 2a 43 bd b5 da a9 bb b2 33 79 bd
       -0.04106604 -0.047647566 -0.0051835426 -0.060840316
0002e0 cc f4 cb 3d a4 d8 82 3c 35 d7 bf bd 08 a8 eb bc
       0.09958801 0.015972443 -0.09367219 -0.028766647
0002f0 b3 5e 34 bd 44 81 fb 3d 69 da 03 3e 3d 36 db 3b
       -0.044035625 0.12280515 0.12876286 0.0066898153
000300 76 45 00 3d 29 f9 ca 3d f8 2e ae 3d 54 3b c8 3d
       0.031316243 0.09910805 0.08505052 0.09776941
000310 49 35 02 bd 8f aa 36 3c 27 4c 87 3c b7 3f c5 bd
       -0.031789098 0.011149063 0.016515804 -0.09631293
000320 d0 ee da bc 69 46 10 bd b5 8c 9d bb 60 eb ad bd
       -0.026725203 -0.0352234 -0.0048080334 -0.0849216
000330 bd 69 a6 3c 3e 4d 89 bc ac a1 1e bd e9 f3 b9 bd
       0.020314092 -0.016760465 -0.0387284 -0.09079725
000340 ac b0 52 3d 61 c8 de bd d5 a6 95 3d e8 c2 20 3d
       0.05143802 -0.10878063 0.07307211 0.039248377
000350 de 2e 13 3b ec 67 72 bd 5c b0 84 3d 3c 4f 0f 3d
       0.0022458355 -0.05918114 0.064789504 0.034987673
000360 1c 67 c7 3c 65 48 b2 bd 81 08 f1 bd 3e d1 6d bc
       0.024341159 -0.087052144 -0.117692 -0.014515219
000370 a6 d0 a6 ba e6 80 45 bd 7b 95 b6 bd 78 6d 28 be
       -0.0012726977 -0.04821863 -0.0891523 -0.16448009
000380 a6 a7 14 3d 63 b9 86 3d dd e7 68 bc 6a 6b f6 bc
       0.036292695 0.065783285 -0.014215437 -0.030080516
000390 fc 8b fc 3d a2 aa e5 bc 4c 34 f3 bd ad 5d ed bd
       0.123313874 -0.028035466 -0.11875209 -0.11590133
0003a0 7c 5e 80 bd 63 2a 6b bd e3 de 1e 3d ce 3a 2a bc
       -0.062680215 -0.05741347 0.03878678 -0.010389997
0003b0 a7 7c 24 be 82 2c 68 3c d5 be 63 3d e6 25 e5 bd
       -0.16063176 0.014170768 0.055601913 -0.11188869
0003c0 d3 a3 3a 3e 1d 38 16 3d 47 15 85 3c 18 ef c0 3d
       0.18226556 0.036674608 0.016245497 0.094206035
0003d0 55 dc fb 3d 21 1d f0 ba da b5 f1 bc c5 39 1b bc
       0.122978844 -0.0018319228 -0.029505659 -0.009474223
0003e0 33 73 8e bd f3 fe 66 bd ab 75 c2 bd 90 ee ee bd
       -0.06955566 -0.056395482 -0.094951 -0.11666596
0003f0 88 6d e4 3c 0f 6a 50 3d bd 2d 06 bd e8 6b 23 be
       0.02788426 0.050882395 -0.032758463 -0.15959132

bias f4 [50]
000000 39 5d 8d 3e 55 c2 8e 3e 69 2d 5c 3e e8 0a c4 3d
       0.27610186 0.2788264 0.21501698 0.09572393
000010 9d 64 40 3d 72 ac b9 bb 81 3b f0 3d cf 44 13 3d
       0.046970952 -0.005666309 0.117300995 0.035954293
000020 fb 06 28 bd 6c bc 42 3d ae 55 a2 3e c7 6f a8 bd
       -0.041022282 0.047542974 0.31705993 -0.08224445
000030 e2 1a 6a bd 8b a9 9b 3e 82 16 ac 3d 9e 4e e9 3c
       -0.057154544 0.3040279 0.084027305 0.02847987
000040 3c 0e b1 3c f0 1f 92 3e c3 73 13 bc f5 5a 84 3e
       0.021613233 0.2853999 -0.008999768 0.25850645
000050 80 85 6b bd 2c 7d 23 3e 97 16 07 bc 2a 79 99 3e
       -0.057500362 0.15965718 -0.008245132 0.29975253
000060 25 02 ae 3e 2b 3e 0e bb 3f ae 9c 3e 65 bf 71 3e
       0.3398601 -0.0021704535 0.3060169 0.23608167
000070 49 a2 80 3d 2d 89 b5 3c 55 c9 8c 3e 9e 68 98 3c
       0.062809534 0.022160137 0.27497354 0.018604573
000080 db e3 51 3d 27 9b b4 bd 28 d9 a2 3e ad ae 19 3e
       0.05124269 -0.088186555 0.31806302 0.1500804
000090 ad 59 0a be 1e 60 71 3d 1c 5e 5b 3e 4a e3 f1 bc
       -0.13510771 0.058929555 0.21422619 -0.029527325
0000a0 25 55 de 3d 77 17 c6 bd 87 ee 2f 3e 0a e0 e1 3b
       0.10856084 -0.09672444 0.17180835 0.0068931626
0000b0 53 e9 e3 3e 94 ec d1 3d 23 b3 0b be c5 00 f8 bc
       0.4451395 0.10250202 -0.13642554 -0.030273804
0000c0 19 2c d7 3e ab aa df 3c
       0.4202583 0.02730306

weight f4 [10, 50]
000000 0b 92 3c 3e 96 f6 d5 bd 81 76 64 3e 59 75 dc 3d
       0.18415086 -0.10447423 0.2231083 0.1076457
000010 d3 ca 25 3e 15 fd 89 be e4 6c 22 3d c9 82 9d 3d
       0.16190653 -0.269509 0.039654627 0.07690961
000020 bc 4b 04 be 0d 92 16 be 2b a7 85 bd a6 f7 69 be
       -0.12919515 -0.14704151 -0.065260254 -0.22848377
000030 e0 3a 03 bd 7f e7 17 be 06 19 3e be 6e 82 f4 3d
       -0.03203857 -0.14834403 -0.18564233 0.1193894
000040 c5 19 bd bd 54 55 2b be 21 ea 4e be 14 d3 48 be
       -0.09233431 -0.16731769 -0.202065 -0.1961177
000050 91 ba 48 3d 53 32 49 be f9 eb 95 be b8 e4 06 be
       0.04900605 -0.19648103 -0.29281595 -0.13173187
000060 0b f3 8a be a1 78 eb bd 24 3a 0e 3e a2 a9 a5 bd
       -0.27138552 -0.114976175 0.13889366 -0.080889955
000070 55 4f a2 3d 28 7d 61 3d d6 ec b0 bd 30 59 09 3e
       0.07925288 0.055051 -0.08638923 0.13412929
000080 fb cf 01 be 7b 29 fe bc 25 51 3b 3d 3c b5 29 be
       -0.12676995 -0.031025639 0.045731682 -0.16573042
000090 a5 31 98 bd be 37 8e bd 2a e7 8a be ca 14 35 be
       -0.07431344 -0.06944226 -0.2712949 -0.17683712
0000a0 33 54 f5 3d f4 03 74 be 21 05 ec bd 13 43 fc bd
       0.1197895 -0.23829633 -0.11524416 -0.12317481
0000b0 c4 47 37 3e 6b c2 8a be 67 76 26 be 53 9b 24 3e
       0.1789847 -0.27101454 -0.16256104 0.16074876
0000c0 64 29 ad bd 82 90 d3 bd 90 98 36 be d8 e9 2d 3e
       -0.0845516 -0.10330297 -0.17831635 0.16983736
0000d0 99 d7 b1 3d 48 a6 c6 be 61 94 78 be 12 bd 87 be
       0.086837 -0.38798738 -0.24275352 -0.26511437
0000e0 18 db 38 3d b2 8a 99 be af 4b 5d be ec 3a 40 be
       0.04513082 -0.2998863 -0.21610902 -0.18772477
0000f0 d1 b1 11 3e 97 6d 3a bd f1 c6 5a be 73 24 1f 3e
       0.14227988 -0.04551467 -0.21364953 0.15541248
000100 7d 71 aa bd 44 f3 9b 3b ca 73 9a be de 7c e1 3d
       -0.083224274 0.004759224 -0.30166465 0.11010145
000110 be c5 61 be f5 c1 d1 3d af df a6 be 6e fa b6 3d
       -0.22048089 0.102420725 -0.32592532 0.089344844
000120 51 63 20 be 90 85 26 3e fc 43 2c 3e 72 29 27 be
       -0.15662886 0.16261888 0.16822809 -0.16324404
000130 28 26 01 3e 12 21 1a 3e eb 0e 8d be 6d 80 f3 bd
       0.12612212 0.15051678 -0.27550444 -0.1188973
000140 a7 c1 10 3e 5d cc 49 be a5 4c 04 be 7d c0 11 bd
       0.14136373 -0.19706865 -0.12919863 -0.03558396
000150 30 d2 a7 3c 3a b0 d7 3d 4f c4 8f be 4c 1b 9a 3d
       0.020485967 0.105316594 -0.2807946 0.07524738
000160 2c c6 24 3e 84 8e 59 bd 5a 1f aa be 2e fa 54 be
       0.16091222 -0.05311443 -0.33227044 -0.20798561
000170 27 c8 d8 b9 45 4b 77 be 7d c4 10 3e bd 20 33 3e
       -0.00041347856 -0.24149807 0.14137454 0.17492957
000180 ba a5 98 be df d2 6e be 7d b7 3d 3e 18 c7 dd 3d
       -0.2981394 -0.23322628 0.18527026 0.1082899
000190 bb 1b 11 bc 79 82 c3 bd 40 83 4e bd 16 9f 1b be
       -0.008856709 -0.0954637 -0.05041814 -0.15197405
0001a0 4b a7 13 3e 22 f3 c7 bd 68 9e bb 3d b3 b5 2f be
       0.14419286 -0.09763171 0.09161073 -0.17159157
0001b0 f1 4d 0b 3d 8b b3 5c bd e9 3e 51 be ba de 04 3e
       0.034009878 -0.053882163 -0.20434155 0.12975588
0001c0 85 77 c4 bd b9 bb 4b be 26 b7 70 bd 20 66 04 3e
       -0.09593109 -0.1989583 -0.058768414 0.12929583
0001d0 09 d7 45 be b4 de 0d be 64 f5 36 be 03 89 f3 3d
       -0.1932031 -0.13854486 -0.17867047 0.11891367
0001e0 3d 40 92 bd 5a db c6 3d bf ce 38 bd 5a d0 2b 3e
       -0.07141159 0.09709807 -0.045119043 0.16778699
0001f0 8b eb a3 bd 06 3a 92 bd 47 33 27 3e f5 b7 c0 3d
       -0.08003911 -0.07139973 0.16328155 0.09410087
000200 b4 b3 1a be 25 40 a2 3d 5f 1a c4 bd fb 13 aa 3d
       -0.15107614 0.07922391 -0.095753424 0.08304592
000210 65 d1 cb 3c f8 b1 df bb 8a b2 7e be 0c 14 f3 3d
       0.02488012 -0.0068266355 -0.24872795 0.11869058
000220 1f 15 1a 3e dc ce d6 be 11 d5 25 3e 89 1a 1d 3e
       0.1504712 -0.41954696 0.1619456 0.15342154
000230 96 4a ff bd 74 f5 23 be a9 50 19 3d 0c c6 02 3e
       -0.12465398 -0.16011602 0.03743044 0.12770861
000240 31 c7 0e be 5d 82 13 be ab b7 46 be c2 02 10 3e
       -0.13943173 -0.14405198 -0.19406001 0.14063552
000250 54 3e 81 bc 1e 4f 01 be 18 88 34 be 18 de 83 be
       -0.01577679 -0.12627837 -0.1763004 -0.25755382
000260 78 96 2e bd b9 4e 3d be ae 84 70 bd 2c 51 cf bd
       -0.042623967 -0.18487062 -0.058720283 -0.10122904
000270 c3 68 97 3d db a8 77 be 9e 78 08 be d5 74 2a 3d
       0.073930286 -0.24185507 -0.13327262 0.041615326
000280 e8 2f 01 be 5f 31 22 3e 14 de de 3d 83 70 44 be
       -0.12615931 0.15839146 0.10882202 -0.19183545
000290 ec 70 a3 bd f4 9d 1b be 47 1d 7a be a4 04 06 be
       -0.079805225 -0.15196973 -0.24425231 -0.13087708
0002a0 34 55 8b 3d 04 c8 f2 3d 40 58 87 3d c3 ad c4 3d
       0.068033606 0.11854556 0.06608629 0.09603455
0002b0 00 9a 7b bd 4b 73 32 bd 15 12 80 be f9 81 0c bd
       -0.061426163 -0.043566983 -0.25013795 -0.03430364
0002c0 44 64 30 be 6e 5e 79 be e9 7c cf 3c 9d 16 b1 3d
       -0.17225748 -0.24352428 0.025328116 0.08646891
0002d0 fc 33 06 3e 6a be 3f be fb 1c 57 bd ce 44 54 3b
       0.13105768 -0.18724981 -0.052517872 0.0032389644
0002e0 b7 5b 83 be 75 94 dc 3d b5 37 de 3b 79 95 b9 bd
       -0.2565591 0.107705034 0.006781543 -0.09061713
0002f0 4e 4e c4 bd ca 93 37 be c4 39 e8 3d 02 5d d1 3d
       -0.09585248 -0.17927471 0.11339143 0.10222818
000300 38 7c a6 3c 43 ae 1a 3e 30 29 47 be c3 84 41 3e
       0.020322904 0.15105538 -0.19449306 0.18898301
000310 58 56 38 3e c4 ae fa bd 3a 9f 74 be 17 05 29 3e
       0.18001688 -0.12240365 -0.23888865 0.16505848
000320 f1 22 2e be db e5 13 3e eb 2d 4f bd 3b 9a 84 be
       -0.17005517 0.14443152 -0.0505809 -0.25898919
000330 88 0a 6f be 53 67 22 3e 9f 0b 65 be be a8 a0 3d
       -0.23343861 0.15859728 -0.22367714 0.07844685
000340 3e dc ab 3d c1 2e c8 bd 7e ce 17 be fb 41 77 be
       0.08391617 -0.097745426 -0.14824864 -0.24146263
000350 99 78 63 be ce 09 1d 3e be a5 44 3e 77 76 a0 3d
       -0.22213973 0.15335771 0.1920385 0.078350954
000360 57 20 07 3e 9d 44 f2 3d 2e 18 ed 3d 3f 43 01 be
       0.1319593 0.11829493 0.115768775 -0.12623309
000370 31 a5 9e be cd 53 ad 3d 89 6a 04 3e d8 29 c5 bd
       -0.30985406 0.08463249 0.12931265 -0.09627122
000380 4e 57 70 3d 49 0b c2 3d 3a b4 d5 bd ef cb 36 3e
       0.05867701 0.09474809 -0.10434766 0.17851232
000390 f9 e2 98 3d 86 e2 5f be 7a c1 fe 3d f7 f7 00 3e
       0.074651666 -0.21863756 0.124392465 0.12594591
0003a0 f7 ee 3d 3e bc e5 ba bc fc 7a 86 be 56 d9 dd 3d
       0.18548189 -0.022814624 -0.26265705 0.10832469
0003b0 11 6e 25 be 4c 08 5a bc c9 66 03 3e dd 5f 15 bd
       -0.16155268 -0.013307642 0.12832178 -0.036468375
0003c0 67 8d 68 be 26 59 bd bd 37 75 7e be 20 17 35 3e
       -0.2271019 -0.09245519 -0.24849401 0.17684603
0003d0 8b 18 45 be 8f 69 88 bd 43 53 f4 bd d8 05 6e bd
       -0.19247644 -0.06660759 -0.119299434 -0.05811104
0003e0 0b 06 28 3b 0f 7d 9a be eb fc cd bd de ae 64 be
       0.0025638368 -0.30173537 -0.10058006 -0.22332332
0003f0 26 83 06 be 7e 00 40 3d a4 6b ae 3c 33 de 19 3e
       -0.13135967 0.04687547 0.021291561 0.15026169

bias f4 [10]
000000 4d d8 9b 3e bb 79 e7 3e 33 4a a7 3c 9c db 38 bd
       0.30438462 0.4521006 0.020421123 -0.04513131
000010 5e 64 9b bc 16 4b 9d be 71 66 01 be 0e d0 19 be
       -0.018968757 -0.3072135 -0.12636735 -0.15020773
000020 b1 6b 99 be 33 40 cb bd
       -0.29964975 -0.099243544

exp_avg f4 [10, 1, 5, 5]
000000 21 3c 48 bc ce 7e 54 bc 23 f1 3b bc 75 41 10 bc
       -0.012221367 -0.012969686 -0.011471066 -0.008804669
000010 e9 6e b2 bb b1 84 39 bc f4 bf 29 bc c3 ee 11 bc
       -0.0054453504 -0.01132314 -0.010360707 -0.008907023
000020 55 f9 a7 bb a5 ba 41 bb fa 45 c8 bb 45 7b 00 bc
       -0.0051261582 -0.0029560712 -0.0061118575 -0.00784189
000030 e0 11 ba bb 79 56 7f bb 87 c7 0f bb c2 7a 9e bb
       -0.0056784004 -0.0038961454 -0.0021938996 -0.004836411
000040 e9 5a 5a bb be cf 19 bb c0 0e 2b bb 57 04 4f bb
       -0.0033318347 -0.0023469771 -0.002610132 -0.003158828
000050 6d fb 20 bb 8c 99 3a ba fd 71 21 bb 11 96 64 bb
       -0.0024563924 -0.0007118217 -0.0024634593 -0.0034879486
000060 1a 29 5e bb 35 cb 07 3c a3 d2 88 3b 4b 03 8c ba
       -0.003389901 0.008288194 0.0041755005 -0.0010682134
000070 67 0b 57 bb 45 78 be bb f3 9e 8b 3b 61 89 02 ba
       -0.0032813193 -0.005812677 0.0042608916 -0.00049795775
000080 9e ee 92 bb 9c d7 e2 bb f8 23 d7 bb 82 fa ea b9
       -0.004484012 -0.0069226753 -0.006565567 -0.000448186
000090 71 9f 8c bb ad 6d a7 bb e2 9b ba bb 15 b0 7c bb
       -0.004291468 -0.00510951 -0.005694852 -0.0038557102
0000a0 6c 7b 43 bb 01 ad 95 bb 43 ee 97 bb b8 dd 81 bb
       -0.0029828204 -0.004567743 -0.0046365573 -0.0039631985
0000b0 62 ca 6e ba 2d 1d 0e 39 23 9b 19 ba 5c 4a f8 ba
       -0.0009109137 0.00013553044 -0.0005859604 -0.0018943059
0000c0 e7 91 00 ba 2f 26 35 3b 22 bb 64 bb 6a 20 38 bb
       -0.00049045536 0.0027641167 -0.003490158 -0.0028095492
0000d0 ee 08 20 bb fa cb 6a bb e3 47 9b bb 4c af ce 3a
       -0.0024419385 -0.0035827146 -0.004738794 0.0015768795
0000e0 bf 73 fc 39 2d b3 35 b9 6e 18 46 ba b7 8f 20 bb
       0.00048151423 -0.00017328253 -0.0007556741 -0.0024499723
0000f0 cc 45 b0 3b c5 df 3c 3b a7 2f 57 3b d9 1f 42 3b
       0.005379414 0.00288199 0.00328348 0.0029621033
000100 a0 f3 4d 3a 28 ee 2c 3c f4 10 dc 3b 7f c6 f3 3b
       0.00078564323 0.010554828 0.006715888 0.007439434
000110 62 94 d3 3b 22 58 8f 3b cd 6e 72 3c 88 f4 3b 3c
       0.0064568976 0.00437452 0.014796925 0.011471875
000120 9e aa 1f 3c 0b b2 20 3c ae a5 19 3c ae d9 2d 3b
       0.009745268 0.009808074 0.00937788 0.0026527452
000130 91 20 60 3a 5f 9a e2 ba 5e e9 97 bb ee b3 b7 bb
       0.00085497746 -0.0017288438 -0.004635974 -0.005606166
000140 d6 cd ce 3b 32 e7 42 3b 38 9f 19 3b fd 82 a5 3a
       0.0063111586 0.0029739854 0.002344085 0.0012627539
000150 f2 d9 35 bb bb 45 12 3c 5d 35 1f 3c b8 50 8a 3b
       -0.0027748314 0.008927758 0.009717313 0.004221048
000160 bb 43 c8 ba ff d2 7d ba a2 19 1d 3c 68 6c ee 3b
       -0.0015278974 -0.0009682625 0.009588631 0.0072761066
000170 d4 cd 31 3b ea 07 89 bb 1c ff b7 bb 69 e8 e2 3b
       0.002713074 -0.0041818516 -0.005615128 0.006924678
000180 d1 d5 aa 3b 5c 00 98 3a 73 9b a0 bb d4 10 ae bb
       0.005213477 0.0011596787 -0.0049013435 -0.0053120647
000190 c3 b3 d9 bb 5b b3 d1 bb 4b bf c6 bb d3 bd 55 bb
       -0.0066437437 -0.0063995547 -0.0060652844 -0.0032614365
0001a0 05 ec ea ba ea aa f8 bb fb c6 18 bc 50 ba ed bb
       -0.0017923123 -0.007588734 -0.009324784 -0.007254876
0001b0 be 92 10 bb 9f 4b fc 39 76 b2 25 bc 0d 39 24 bc
       -0.0022060121 0.00048121528 -0.010113349 -0.010023368
0001c0 97 e0 a7 bb 9c 7b 89 ba 1c 0a 04 38 3c b7 05 bc
       -0.0051232087 -0.0010489109 3.1480668e-05 -0.008161362
0001d0 e4 5b cb bb f4 c1 30 bb 0c 81 b7 ba b2 10 1c 39
       -0.0062060226 -0.0026971074 -0.0014000251 0.00014883539
0001e0 74 28 88 bb 31 a6 5c ba 26 ca 54 b8 4d 2c a7 3a
       -0.004155213 -0.00084170984 -5.0733004e-05 0.0012754292
0001f0 dd 08 41 3b f7 f5 26 bb 25 79 03 bb a1 d6 19 bb
       0.0029454746 -0.0025476196 -0.0020061221 -0.0023473876
000200 03 39 7d bb ef c6 dd ba 1f 93 22 bb 84 18 09 39
       -0.0038638718 -0.0016920249 -0.002480693 0.00013074471
000210 e0 9d 1f ba 68 a5 04 bb a8 66 17 bb c9 ad d8 ba
       -0.0006088894 -0.0020240191 -0.002310196 -0.0016531284
000220 4e 15 04 3a db 48 34 ba 88 8e 16 bb c6 d3 8a bb
       0.0005038575 -0.00068773114 -0.002297314 -0.004236671
000230 9f 60 82 3b 6a 41 4e 3b ce e0 45 3b 0b b0 18 39
       0.0039788033 0.0031472095 0.0030193808 0.0001456143
000240 10 2b 73 ba 60 43 0f 3c 50 e7 d7 3b d8 8f 96 3b
       -0.0009276131 0.008744091 0.006588854 0.004594784
000250 22 83 22 3b ac 1f 33 3b d2 64 a2 39 b6 a0 6c 3a
       0.00247974 0.002733211 0.00030974165 0.00090266333
000260 dc d9 87 39 af 39 aa ba 87 24 3f ba d9 2b 3e ba
       0.00025911524 -0.0012987162 -0.0007291515 -0.00072544586
000270 0a 01 28 b9 f9 4d b3 ba 11 bf 40 bb 94 ca ec 3a
       -0.00016022116 -0.0013679854 -0.002941076 0.0018065744
000280 8b 80 26 bb ff a0 8d ba b3 4c 2f bb 3c c0 cf ba
       -0.0025406207 -0.0010805427 -0.0026748597 -0.0015850137
000290 7c e6 58 3b fc 00 3b b9 27 7f 86 ba dd df 54 bb
       0.0033096364 -0.00017834076 -0.0010261283 -0.0032482066
0002a0 bd 9a 57 3a 95 8c 57 3b 91 d7 76 ba 9e 99 49 bb
       0.0008224657 0.003289019 -0.0009416277 -0.003076173
0002b0 50 18 00 bb a1 e2 e0 3a a8 75 60 3b 84 7d 7b 3b
       -0.0019545741 0.0017157384 0.0034249816 0.0038374374
0002c0 a3 d6 32 3b d5 44 5c 3a 97 72 28 3a b9 e6 04 3b
       0.0027288578 0.0008402591 0.00064257666 0.0020279123
0002d0 0d 2b 2b 3b 26 d2 b5 3a 35 e8 be b9 97 e3 14 ba
       0.002611819 0.0013871833 -0.00036412632 -0.00056796655
0002e0 8e fd cb b8 1e 8a 40 3b b5 47 83 39 4b 56 d2 ba
       -9.7270226e-05 0.00293792 0.00025039693 -0.0016047446
0002f0 30 a9 eb ba 18 97 d7 ba ab e3 45 3b 92 cf 77 3a
       -0.0017979499 -0.0016448228 0.0030195515 0.00094532326
000300 cf d5 ad ba 64 3f 19 bb 0f 19 72 bb fb b3 63 ba
       -0.0013262572 -0.002338373 -0.0036941206 -0.0008686182
000310 5d 54 f5 ba 29 f3 71 bb 20 bb 72 bb ba e1 9e bb
       -0.0018717159 -0.0036918616 -0.0037037805 -0.004848686
000320 e1 51 ad 3a a0 00 98 3b 23 03 8e 3b cd 35 3e 3b
       0.0013223254 0.0046387464 0.00433387 0.0029023767
000330 dc 5f 4f 3b 9a 3a bb 3a cc b7 25 3b c1 85 66 3b
       0.003164283 0.0014284432 0.0025286553 0.0035174938
000340 07 0a 75 3b 56 2f 95 3b db 5c 22 ba 97 75 96 3a
       0.003739001 0.004552762 -0.0006193646 0.0011479136
000350 1b fb 54 3a ec 2b 26 3b 66 3e 2c 3b 4a 56 50 bb
       0.0008124576 0.002535577 0.002628231 -0.0031789714
000360 cb 43 23 bb d2 9e 6f ba 0a fb a7 3a 2a 93 31 3b
       -0.0024912234 -0.00091407925 0.0012815904 0.0027095773
000370 39 4c 00 bc 34 fe dc bb 3d bc 16 bb ce 21 07 39
       -0.007830673 -0.0067441706 -0.0023000382 0.00012887196
000380 df ce 07 39 41 44 3b bb e0 db 18 38 5f 06 fd 3a
       0.00012951669 -0.0028574618 3.64444e-05 0.0019304267
000390 4c 4e 28 3a 01 65 9a 3a 26 e9 a0 ba bb 3f 63 3a
       0.00064203585 0.0011779369 -0.0012276515 0.00086688594
0003a0 9b 45 49 3b 68 67 5b 3b 4e 0d 7a 3b 60 a7 05 b9
       0.0030711654 0.0033478383 0.0038154903 -0.0001274622
0003b0 d5 6d 1d 39 1e 8f 70 3b 68 8c a8 3b eb c2 93 3b
       0.00015013602 0.0036706398 0.005143691 0.00450932
0003c0 c0 f7 15 ba 84 05 0a b9 f8 42 06 3b 61 25 97 3b
       -0.00057208166 -0.0001316276 0.0020486694 0.00461261
0003d0 cc 90 86 3b 27 f9 aa 3b 21 ff 2e 3b d3 3c 4c 3b
       0.0041066166 0.0052176896 0.0026702362 0.0031164184
0003e0 6c 99 84 3b 48 5f ae 3b
       0.0040466096 0.005321417

exp_avg_sq f4 [10, 1, 5, 5]
000000 b8 1b 44 3a eb ff 51 3a 86 f3 0e 3a 54 83 99 39
       0.0007480937 0.0008010852 0.0005453158 0.0002928028
000010 04 38 33 39 d4 74 41 3a be 52 34 3a 89 04 d2 39
       0.00017091638 0.00073797745 0.00068787846 0.000400577
000020 29 36 39 39 97 d3 01 39 73 2f 37 3a 8b 05 2a 3a
       0.00017663151 0.00012381222 0.00069879665 0.00064858113
000030 f3 50 d9 39 8e 1b 59 39 d8 c2 2f 39 db a5 2d 3a
       0.00041449777 0.00020704998 0.00016761885 0.00066241407
000040 c9 6c 2f 3a b7 9c 08 3a 5f 06 cd 39 f3 43 b2 39
       0.00066919305 0.00052113406 0.00039105394 0.00034001432
000050 f3 9e 31 3a 87 4c 39 3a 1e c9 1e 3a eb 43 06 3a
       0.00067756994 0.00070685934 0.00060571905 0.0005121815
000060 be 98 eb 39 ad 35 36 3a bc 21 58 3a 17 54 6f 3a
       0.00044936495 0.00069507473 0.0008244773 0.0009129657
000070 9c 59 6f 3a 62 82 49 3a 65 bf 5b 3a a1 dc 6e 3a
       0.00091304793 0.000768697 0.0008382707 0.0009111856
000080 46 04 63 3a 8f 0f 55 3a e5 4e 44 3a 2e 0b 38 3a
       0.00086599996 0.00081276236 0.0007488563 0.0007020709
000090 90 c9 16 3a 56 e3 e2 39 e4 83 f8 39 15 09 08 3a
       0.0005752081 0.00043275458 0.00047400512 0.00051893416
0000a0 27 e0 d4 39 33 b8 6f 39 f3 5b 4f 39 fc 5d 8a 39
       0.00040602798 0.00022861436 0.00019775312 0.00026391435
0000b0 cf 35 c1 39 ea bd 6d 39 61 9f 08 39 77 75 19 39
       0.0003685192 0.0002267283 0.00013029344 0.00014634976
0000c0 5d 90 78 39 c9 52 b9 39 c2 3a d6 38 1e 84 98 38
       0.00023704903 0.0003534763 0.0001021526 7.2725335e-05
0000d0 ef b2 b5 38 52 ce 1f 39 5b c3 99 39 76 fb 10 39
       8.6640815e-05 0.00015240282 0.00029327985 0.00013826587
0000e0 c6 4d a4 38 ba b9 b0 38 f6 ad b6 38 44 16 f1 38
       7.834616e-05 8.426928e-05 8.710839e-05 0.00011495923
0000f0 d4 5a c6 39 00 9d 3e 39 ef bd e9 38 fb 8c b0 38
       0.00037833175 0.00018178299 0.00011145684 8.418594e-05
000100 ed 35 cd 38 41 61 3c 3a a4 55 14 3a 68 db aa 39
       9.785206e-05 0.0007186123 0.00056585134 0.00032588397
000110 bd c4 63 39 39 cf 64 39 12 fc 7b 3a 48 05 82 3a
       0.00021721698 0.00021820971 0.00096124515 0.0009919787
000120 0f 04 61 3a c8 6e 2c 3a 13 62 2b 3a 41 8d 81 3a
       0.00085836736 0.0006577787 0.00065377465 0.0009884016
000130 70 39 8e 3a 72 1d a8 3a 6d 25 6a 3a a3 dc 3d 3a
       0.0010850858 0.0012826158 0.00089319685 0.0007242655
000140 30 dd 5b 3a 5d 39 93 3a 4d c7 cb 3a de 52 c3 3a
       0.00083871465 0.0011232306 0.0015547067 0.0014902016
000150 e8 18 a9 3a 93 b7 67 3a 4a f2 8e 3a 94 8d c4 3a
       0.0012901099 0.00088393054 0.0010905948 0.0014995807
000160 c4 ef d8 3a 64 15 b6 3a ff 6d 3d 3a 7f 23 39 3a
       0.0016550948 0.0013891873 0.00072261685 0.0007062479
000170 c5 12 79 3a 37 1e 95 3a 60 17 93 3a 79 e0 d6 39
       0.0009501393 0.0011376803 0.0011222176 0.00040984506
000180 29 64 ee 39 d7 b1 1a 3a 7c 8e 2f 3a 80 c6 53 3a
       0.00045469523 0.0005901134 0.0006696952 0.000807859
000190 4d 39 b0 3a c3 4a 9b 3a 18 7c 22 3a ef b5 82 39
       0.0013444811 0.0011847842 0.0006198301 0.00024931083
0001a0 35 2e 35 39 d3 46 bb 3a 14 32 69 3a 33 52 90 39
       0.00017278719 0.0014288075 0.0008895707 0.00027527064
0001b0 a9 31 06 39 3e f4 01 39 5c e1 ac 3a 50 1b 21 3a
       0.00012797736 0.00012393386 0.0013189721 0.00061457325
0001c0 7f 1a 3a 39 89 af e9 38 a2 0e 06 39 25 43 97 3a
       0.00017748213 0.00011143002 0.00012784687 0.0011540396
0001d0 db 99 08 3a cd 03 3a 39 0b 78 02 39 32 71 37 39
       0.00052109145 0.00017739758 0.00012442486 0.00017494409
0001e0 03 aa 80 3a 08 dc 06 3a de ee 7c 39 45 de 4f 39
       0.0009816292 0.00051444815 0.00024121578 0.0001982386
0001f0 40 c7 b7 39 4e d2 0e 3a 57 e9 cc 39 14 a0 84 39
       0.00035052933 0.0005448208 0.00039083764 0.0002529627
000200 25 07 68 39 f4 18 79 39 00 49 13 3a c5 29 c5 39
       0.00022127906 0.00023755786 0.0005618483 0.0003760589
000210 35 be 8b 39 f8 f7 77 39 22 b6 57 39 cf 62 1f 3a
       0.0002665386 0.00023648131 0.00020571848 0.0006080092
000220 03 ae 05 3a 08 2c d2 39 74 ef b8 39 a1 f0 a0 39
       0.0005099477 0.00040087127 0.0003527362 0.0003069686
000230 d9 1b 1a 3a 14 95 16 3a 23 d5 1d 3a 89 04 0b 3a
       0.00058787834 0.000574426 0.00060208346 0.0005303105
000240 a9 e7 f3 39 74 5c 14 3a 29 bb 21 3a fc 45 30 3a
       0.00046521172 0.00056595285 0.00061695516 0.00067242957
000250 11 d3 22 3a 99 11 fe 39 a6 6e 8f 39 25 80 50 39
       0.0006211261 0.00048459767 0.00027357525 0.00019884163
000260 f6 33 17 39 dc e9 35 39 bd 87 a6 39 02 c7 1b 39
       0.00014419839 0.00017348625 0.0003176312 0.00014856088
000270 06 9e d3 38 27 7f be 38 6c 1f 22 39 7e b2 c9 39
       0.00010090698 9.08359e-05 0.0001546123 0.00038470695
000280 5d 36 b1 38 e1 37 a0 38 ca 4a c5 38 03 e4 82 39
       8.450144e-05 7.639803e-05 9.4076226e-05 0.00024965414
000290 b7 f3 21 3a 31 ac c9 38 78 fa e6 38 59 eb 77 39
       0.0006177979 9.6165e-05 0.00011013908 0.0002364343
0002a0 f1 61 18 3a b5 b1 5d 3a 2f 4a 2a 39 01 8f 7e 39
       0.0005812934 0.00084569614 0.00016240099 0.00024276601
0002b0 b7 7c 09 3a 91 7d 54 3a c8 a3 6e 3a b8 48 89 39
       0.0005244719 0.0008105869 0.0009103385 0.00026184856
0002c0 85 08 9f 39 d2 db f5 39 c3 05 32 3a 0e a2 33 3a
       0.0003033319 0.0004689382 0.00067910197 0.0006852456
0002d0 14 46 57 39 3d 79 96 39 1c 57 05 3a 56 3e 3c 3a
       0.00020530104 0.0002870056 0.00050865277 0.00071809196
0002e0 11 ce 26 3a f9 8a 3d 39 cc 48 89 39 c4 a2 13 3a
       0.0006363104 0.00018076216 0.00026184914 0.0005631859
0002f0 f2 6b 45 3a 9c de 26 3a 21 61 2f 39 53 95 aa 39
       0.0007531039 0.0006365569 0.00016725484 0.00032536182
000300 a2 5e 2c 3a c1 07 54 3a 9a 30 3c 3a 79 bf 6e 39
       0.00065753807 0.00080883136 0.0007178873 0.00022768778
000310 f7 e6 e3 39 73 d2 37 3a e1 8f 5c 3a 4a 31 41 3a
       0.00043468896 0.00070122554 0.00084137736 0.00073697104
000320 99 70 39 39 45 63 20 39 ae da 39 39 f8 ea 7e 39
       0.00017684921 0.0001529577 0.0001772444 0.0002431086
000330 7b 2f 94 39 62 96 03 39 c2 09 15 39 a6 91 5e 39
       0.00028264135 0.00012549156 0.00014213382 0.00021225828
000340 13 8a a2 39 31 7a b6 39 32 1a 3b 39 c0 b7 71 39
       0.0003100192 0.00034804785 0.00017843468 0.00023052003
000350 fd 92 b6 39 f6 17 d8 39 c1 de ca 39 35 60 bc 39
       0.0003482326 0.00041216583 0.00038694407 0.00035929834
000360 22 66 f0 39 34 36 08 3a 07 7a fb 39 97 ff be 39
       0.00045852462 0.0005196065 0.00047965368 0.00036430053
000370 b3 60 03 3a 9b 7d 0f 3a 4b ac 03 3a 9b 4b d5 39
       0.0005011663 0.0005473734 0.0005022927 0.00040682856
000380 2a 53 98 39 1f 29 94 39 95 eb a0 39 8f 1f a7 39
       0.0002905366 0.00028259397 0.000306931 0.00031876235
000390 19 21 55 39 df 89 4f 39 c6 71 c4 39 33 42 d5 39
       0.00020325593 0.0001979242 0.000374688 0.00040675848
0003a0 88 bb c2 39 ae 56 89 39 76 e5 d2 39 2e df cb 39
       0.00037142285 0.00026195258 0.00040225283 0.0003888546
0003b0 b3 96 06 3a db 21 07 3a 0a bd 07 3a 86 67 33 3a
       0.000513415 0.0005154886 0.00051780103 0.00068437343
0003c0 02 bd 96 39 36 60 01 3a 03 e8 24 3a 88 03 2a 3a
       0.0002875105 0.0004935296 0.0006290676 0.00064855115
0003d0 18 ff 30 3a 23 7f 96 39 69 71 00 3a b8 01 1b 3a
       0.0006751879 0.00028704954 0.0004899712 0.0005913037
0003e0 c0 d4 03 3a fc c5 ed 39
       0.00050289556 0.00045351672

exp_avg f4 [10]
000000 6f 09 a3 bb 54 c9 0b b7 46 8e 65 ba 2c 78 87 3a
       -0.00497549 -8.331921e-06 -0.0008756857 0.0010335497
000010 90 27 31 ba 9b 77 09 3b eb f9 7b 3b f1 41 95 ba
       -0.00067579094 0.0020975831 0.0038448523 -0.001138745
000020 9e e8 b3 ba 51 1e 50 39
       -0.0013725942 0.0001984772

exp_avg_sq f4 [10]
000000 ae 2c b1 39 e1 65 aa 39 83 11 bf 39 a8 e1 49 3a
       0.0003379336 0.00032500832 0.00036443406 0.0007701167
000010 7a 91 10 3a ca f8 13 39 87 ae a8 39 2e 63 80 39
       0.0005514842 0.00014111694 0.0003217349 0.00024487957
000020 ae 60 f4 38 af 34 20 39
       0.00011652835 0.00015278415
