checkpoints/mnist/mask_model_7x7.pth (torch_old, 276861 bytes, 24 tensors)

weight f4 [10, 1, 5, 5]
000000 98 9a 31 3e 90 b0 5a 3c 51 d5 20 3c 50 33 e6 3c
       0.17344129 0.01334776 0.009816484 0.02810064
000010 54 de 2b be 82 ea dc bd 4f 8b 03 be 7c 50 96 3c
       -0.1678403 -0.10786916 -0.12846111 0.018348925
000020 84 ad dc bd 4b 3c 38 bd 75 b1 28 be d4 e2 2d bc
       -0.10775283 -0.044979375 -0.16473944 -0.010613162
000030 2b 37 af 3d 0d 00 f4 bc 79 d4 19 3e 5e 31 33 be
       0.08555444 -0.02978518 0.15022458 -0.17499301
000040 fb c4 fd 3c d7 5a 28 3e 58 b2 b4 3d fb 06 14 3d
       0.030977717 0.16440903 0.08823079 0.03613947
000050 d9 48 08 be 13 40 1c be 3b ab ce 3d 4d 0e 07 bd
       -0.13309039 -0.15258817 0.10091253 -0.032972623
000060 39 5d 01 be 5c a7 de 3d ff 92 0d be 72 97 b0 bc
       -0.12633218 0.10871765 -0.13825606 -0.02155659
000070 de c6 b5 bd 28 20 7b 3c 3b 0b 0f be cf a9 3a 3e
       -0.088758215 0.015327491 -0.13969128 0.1822884
000080 b0 26 54 bd 54 7d 45 be 1d 9f 96 3a 67 60 34 3d
       -0.051794708 -0.1928609 0.0011491511 0.04403725
000090 1f 5c 3f 3e 55 a8 95 3c 11 18 44 be bf f0 72 bd
       0.18687485 0.018268744 -0.19149806 -0.059311625
0000a0 64 22 92 bd c0 c7 03 bd aa d4 7f 3b 04 6f 2d 3d
       -0.07135466 -0.03217292 0.003903667 0.0423422
0000b0 0f 16 d5 bd 62 05 c2 3b c6 cc b8 3c 69 40 6f bc
       -0.10404598 0.005921052 0.022558581 -0.014602759
0000c0 25 66 0f be 9f 65 30 be 80 6c 38 3e 1d 19 3f 3e
       -0.14003809 -0.17226265 0.1801014 0.18661924
0000d0 ae 19 2f 3e 71 04 13 be 19 00 c6 bc ec 85 1c be
       0.1709964 -0.14357163 -0.024169968 -0.15285462
0000e0 14 ec d4 3d 1b 14 3b 3e 91 f0 4e bd f7 d8 25 3e
       0.10396591 0.18269388 -0.05052239 0.16196047
0000f0 df 7d 9d bd 16 5c 92 bc c2 1e 2a be 5e bd 1d 3e
       -0.07690024 -0.017866176 -0.16613296 0.15404269
000100 2f b4 30 be 2a 43 88 bd 64 75 1a be cc bf 05 be
       -0.17256235 -0.066534355 -0.15083843 -0.13061446
000110 56 f6 0e 3e 6b 5a 55 bd 29 e1 c8 3d f7 ec b1 3d
       0.13961157 -0.052088182 0.09808571 0.086877756
000120 1a 39 39 3e 49 bc 01 3e cf 3e e0 3d 63 98 7d bd
       0.18088189 0.12669481 0.1094948 -0.061912905
000130 28 f7 49 3e 98 6c 03 be b2 5b e9 3d f1 4d b4 3c
       0.19723189 -0.12834394 0.113944426 0.022009822
000140 40 78 c3 3b e1 de b5 bd 1b 3d df 3d f5 37 44 3e
       0.0059652627 -0.088804014 0.10900327 0.19161971
000150 f2 1a 9c bd 88 1e 4c 3d f0 b4 0f 3d 8a 4b ae 3d
       -0.07622327 0.049833804 0.035084665 0.08510502
000160 ff 86 f5 bd 17 8e 57 bd 57 6a a7 3c f5 dd 53 3d
       -0.11988639 -0.05262574 0.020436449 0.051725347
000170 b6 eb 30 3d 07 3e 1b be 29 10 f1 3d 45 1c 86 bd
       0.04319354 -0.1516038 0.117706604 -0.06548361
000180 51 e2 1b be c0 81 31 3d 5b 71 b7 bd 00 c0 1e bd
       -0.15223052 0.04333663 -0.08957168 -0.038757324
000190 ca b5 2d 3e 79 b5 28 be 18 20 1b bd fc 20 2c be
       0.16963878 -0.16475476 -0.037872404 -0.16809458
0001a0 ad a1 21 3e dc d0 46 be 4c 3f c9 3d 44 72 d8 3d
       0.1578433 -0.19415611 0.09826526 0.105686694
0001b0 ca 66 7c 3d b7 95 b7 bd a7 fd 4f bd f2 2c 0e be
       0.061621465 -0.08964103 -0.05077901 -0.13884333
0001c0 49 74 b7 3d 38 08 15 3e 11 e2 d9 3d 3d d7 a8 3d
       0.089577265 0.14553916 0.10638822 0.082441784
0001d0 bc 75 34 bd 3e 5e 43 3e d8 55 e6 bd 2b 8f cf bd
       -0.044057593 0.1907892 -0.11246842 -0.10134729
0001e0 46 9d 3a 3d 3b 99 15 be 5e b7 7c bb e4 9b f0 3d
       0.045560144 -0.14609234 -0.0038561444 0.11748484
0001f0 11 45 3f be 6e 8b aa 3d af b1 fc bd d9 b1 1d be
       -0.1867869 0.08327375 -0.12338578 -0.15399875
000200 3b f1 aa ba 89 83 0d be 87 07 91 3c cf 73 f6 bd
       -0.0013041863 -0.13819708 0.017703785 -0.120338075
000210 3b c0 07 be b1 13 e4 3d 2e 69 80 3c 19 ad b6 3c
       -0.13256924 0.11136568 0.015675154 0.022299336
000220 98 dd 16 be 32 6a 1d 3e 68 5c 34 3e 26 bd d9 bc
       -0.14732969 0.15372542 0.17613375 -0.02657945
000230 6d bd 16 be c8 11 94 3d c5 53 a0 3d c5 f2 72 3d
       -0.14720698 0.07229954 0.07828478 0.059313554
000240 03 45 46 be 40 b9 27 3e 15 5d 33 be 4d 4f 04 3d
       -0.19362263 0.16379261 -0.17515977 0.03230219
000250 fc fb 6a 3d c6 13 f9 bd a7 4b 37 3e 05 3e d9 bc
       0.057369217 -0.121619746 0.17899953 -0.026518831
000260 64 29 ce bd 48 1a bb bc 15 c9 3d be c8 53 aa 3d
       -0.100664884 -0.02283968 -0.18533738 0.08316761
000270 88 39 28 3e 98 b6 35 3e 43 43 9e bd 29 72 39 3e
       0.16428196 0.17745435 -0.07727673 0.18109955
000280 34 c8 b2 3d a8 9d 39 3e 7b e4 d4 3d ee de f9 bd
       0.08729592 0.18126547 0.10395142 -0.122007236
000290 bd e8 35 3e 54 5d 22 be fa 30 46 3e 86 1c c6 3c
       0.17764564 -0.15855914 0.1935462 0.024183523
0002a0 49 d7 9b bd f5 56 1e 3e b9 13 a3 bb 3d 6c 4f bd
       -0.07609422 0.15462859 -0.0049767164 -0.050640333
0002b0 cc 75 8d 3d c1 d1 cd bd 8a e6 bb bd 7a f2 3a 3d
       0.069072336 -0.10049773 -0.09174831 0.0456414
0002c0 9c 36 0a be 9e 5f 98 3d cd 0e 05 3e 54 f4 c5 3d
       -0.13497394 0.074401125 0.12993927 0.096657425
0002d0 27 87 41 be 53 2a 1c bd b2 9f 79 3b c7 cb a9 bd
       -0.18899213 -0.0381263 0.003808957 -0.082908206
0002e0 be 6b cc bd 82 dd 12 3e 14 b8 40 be 8e ef 83 3d
       -0.09981488 0.14342311 -0.1882022 0.06442176
0002f0 e7 37 21 3e b1 ca 22 be 6c a9 1e 3e 75 d7 47 be
       0.15743981 -0.15897633 0.15494317 -0.19515784
000300 6c 20 ca bd 55 ef 2e be d1 9a 36 be 35 06 91 bd
       -0.09869465 -0.17083485 -0.17832495 -0.07081262
000310 7b a9 18 be f1 51 0c 3d a6 86 38 3d 8f e5 1d be
       -0.14908402 0.034257833 0.045050286 -0.15419601
000320 22 8e 57 3d e3 c8 e1 3c 92 65 17 3e a5 4f 0b 3e
       0.052625783 0.02756161 0.1478484 0.136046
000330 c3 64 86 3c 81 50 d2 3d 43 4e 10 be 08 1f a0 3d
       0.016405469 0.10269261 -0.14092354 0.07818419
000340 5a 3b 63 bc f9 f1 89 bd 4c fd 0d 3d 89 90 40 3e
       -0.013869131 -0.06735606 0.03466539 0.18805136
000350 bf 5b 3c 3d 57 89 11 bd 5c b7 16 be 67 da 08 be
       0.045985933 -0.035531368 -0.14718384 -0.13364564
000360 8f b4 46 3e 53 82 25 3e 80 95 92 3d cb 57 cb bc
       0.19404815 0.16162996 0.07157421 -0.024822136
000370 3b 52 9c bd a8 cc bf bd 7f 6a 09 3e 34 cb 38 3e
       -0.07632872 -0.09365207 0.13419531 0.18046266
000380 9a ac 30 3d ae 9f 07 3e 07 f9 40 be cd 6c 9d 3d
       0.043133356 0.13244507 -0.18844996 0.07686768
000390 63 da c6 bd 15 e2 f7 bc c7 61 48 be bb 47 a9 bd
       -0.09709623 -0.030259172 -0.19568549 -0.082656346
0003a0 5b 3d a4 bd 71 ff 7c bd 01 b7 85 3d 32 06 3c 3e
       -0.08019515 -0.061767045 0.06529046 0.18361738
0003b0 50 54 9b bd 71 8d 16 3e d7 d4 ef bd 7f 36 c2 3d
       -0.07584441 0.14702393 -0.11710518 0.094830506
0003c0 40 67 b5 3d 05 9a c6 bd 40 06 1f 3d ae 23 12 3e
       0.08857584 -0.09697346 0.03882432 0.14271423
0003d0 29 b0 f6 bd cc 97 5c 3d bb e0 5c bb a7 e3 34 3e
       -0.12045319 0.053855702 -0.0033703286 0.17664967
0003e0 04 d5 c5 3b 69 23 ca bd
       0.0060373563 -0.09870035

bias f4 [10]
000000 c9 f0 e8 bd cb d8 41 bd 7e 5d 46 3d 8b 9c db 3c
       -0.11374051 -0.04732589 0.048429005 0.026808044
000010 ff 12 05 be 41 61 93 bd ce 57 03 3d 76 c2 27 be
       -0.12995528 -0.07196284 0.03206616 -0.16382775
000020 8b 6d 1b be 4f 11 d6 bc
       -0.15178506 -0.0261313

weight f4 [20, 10, 5, 5]
000000 5a 65 9c 3c fa a3 2e bd 0a 4b d8 bc 66 ac 7f bc
       0.019091297 -0.04263685 -0.026402969 -0.015605068
000010 37 7b bc 3c 8d cc 02 bd f9 b5 8d 3c 1d 66 b2 bc
       0.023007972 -0.031933356 0.017298685 -0.021777207
000020 a7 32 3f 3c 69 50 38 3d c0 f7 4f 3d 74 41 3f bd
       0.011669791 0.04499856 0.050773382 -0.04669328
000030 c1 34 7d 3c a5 be 4a 3d 9b 1a e3 3c 2b 89 9f 3c
       0.015454472 0.04949822 0.027722647 0.019474586
000040 48 19 d5 3b ba 4e 77 bd 74 dc fb bb da 47 65 bc
       0.006503258 -0.060377814 -0.007686192 -0.0139941815
000050 98 03 a0 3c 1a 6e d1 bc de 27 73 bc 42 1a 93 ba
       0.019532964 -0.025565196 -0.014841048 -0.0011223035
000060 d8 c1 6b bb f7 0e 1b bd d3 20 0e 3d d4 69 4d 3c
       -0.0035973694 -0.03785607 0.034699272 0.012537438
000070 57 4e 6e 3c d4 b9 b2 bc 00 22 11 3c 6a b0 50 ba
       0.014545045 -0.021817125 0.008858204 -0.0007960858
000080 b6 00 d0 bc b8 7a 44 bd 92 35 19 bd 31 2d 2c 3d
       -0.025390964 -0.047968596 -0.037404604 0.042035285
000090 d2 41 90 3c dc 61 54 3c 61 0a 6b 3d d8 3f b3 3c
       0.01760951 0.012962785 0.057382945 0.021881029
0000a0 a3 7a 29 bd c7 4e f9 bc a2 d5 c1 bc 1a 73 79 bc
       -0.04137672 -0.030433072 -0.023661438 -0.015225196
0000b0 f6 ee 44 3b aa e0 27 bc 6d d3 00 bd 77 bb 7b 3d
       0.0030049658 -0.010246435 -0.03145163 0.061458077
0000c0 29 7e 3b 3d 2c 71 3b 3b 8a 6e 92 3c c8 1a 45 3a
       0.045774613 0.0028601391 0.017874975 0.00075189443
0000d0 4d d2 6b 3d c9 8e a3 3c 82 60 30 3d 04 d5 f3 3b
       0.057573605 0.019965546 0.043060787 0.007441165
0000e0 63 09 21 3d 00 db 2e bd c4 26 ef 3c e6 a8 3a 3d
       0.039315592 -0.042689323 0.02919329 0.04557123
0000f0 31 4f 1c bd 5f 31 92 3c 6a 16 97 bc ad 74 44 bd
       -0.03816146 0.017845808 -0.018443305 -0.047962833
000100 11 8c 40 3d 6f 02 fb bc c4 bd f0 3c f5 4a 3e 3c
       0.047008578 -0.030640809 0.029387362 0.011614551
000110 9a bd 6d bb af 8c c1 3c bf 09 37 bd bb 41 c8 bc
       -0.0036276341 0.023626653 -0.04468703 -0.024445405
000120 14 69 aa bc 66 12 79 bc bd a2 e9 3c 8a 8d 12 bd
       -0.020802058 -0.01520214 0.028519982 -0.035779513
000130 c3 d1 4f 3d 7e b8 9d 3b 2e c0 04 bd e4 8e 3f ba
       0.050737154 0.004813253 -0.03240984 -0.0007307364
000140 be 8a 24 ba b8 bb cb 3c 60 08 84 3c 52 87 03 3d
       -0.0006276778 0.024869785 0.016117275 0.032111473
000150 01 56 ca bc 16 b0 51 bb d0 0c a8 39 98 89 72 3d
       -0.024699213 -0.0031995825 0.00032053003 0.05921325
000160 b8 77 fb b9 f6 f0 ca 3c 70 16 f8 3c 96 b3 2c 3d
       -0.00047963648 0.024773102 0.030284137 0.042163454
000170 f4 e3 0d 3d df 83 20 3d d9 b6 48 3d 64 c5 a0 bc
       0.03464122 0.039188262 0.049002502 -0.019625373
000180 dc 9f 59 bd 5b a9 0c 3d 8a e0 66 bb 59 1a f2 3c
       -0.05313097 0.034341197 -0.003522905 0.02955358
000190 df 01 3c bd db ca 12 3d e9 8b 8c 3c 45 ab 4d 3d
       -0.045900222 0.03583799 0.017156558 0.050212163
0001a0 a0 cb ca 3c 69 0b e8 bb 4a 48 02 3c 84 12 18 bd
       0.0247553 -0.0070814383 0.007951805 -0.037127033
0001b0 6b 64 47 bd 7a a4 e4 bc 87 d5 2f bc 9b f6 a7 bc
       -0.04867975 -0.02791046 -0.010732061 -0.020503333
0001c0 a0 56 50 bd 6c c2 fb bc 84 e6 0f 3d a7 9a be bc
       -0.050863862 -0.030732356 0.035131946 -0.023267103
0001d0 e9 e7 49 3d b8 c3 a5 bc 9b e7 56 3d 2f 5b c1 3c
       0.049293432 -0.020234928 0.05246697 0.02360305
0001e0 36 62 0f bd 5d cb 69 3b bc a9 e0 bc 56 34 44 bd
       -0.03500577 0.0035674192 -0.027424686 -0.047901474
0001f0 60 34 80 bd 9c 9b 89 3c 66 be 70 3d 01 61 1c bc
       -0.0625999 0.016797833 0.058775328 -0.009544612
000200 66 f4 a1 bc 61 7d 20 3c 97 c0 2e bd 1b 1a 89 bc
       -0.019769859 0.009795518 -0.042664137 -0.01673608
000210 cd 30 7b bc b3 fc 2b 3c 40 b8 a8 3c 59 f9 bb bc
       -0.015331459 0.01049726 0.02059567 -0.022946047
000220 2d 82 b7 3c 17 15 98 3b 9f 02 06 3c 19 10 73 3c
       0.02240094 0.004641186 0.008179336 0.014835381
000230 be 0a 01 3d c7 85 bf 3c 5d 12 67 3c 8e 79 35 bd
       0.031504385 0.02337922 0.014103499 -0.044305377
000240 46 41 b3 3b ee e0 3c 3c 32 4b 13 3d 4a c6 57 bd
       0.0054704277 0.011528237 0.035960384 -0.052679338
000250 52 f8 2a 3d 0b de 27 bc 26 88 14 3d 2a fd 3f bd
       0.041740723 -0.01024581 0.036262654 -0.046872295
000260 34 67 4d bd 2a a1 21 3b 67 af 3a bd 01 4c 47 bd
       -0.05014725 0.0024662712 -0.045577433 -0.048656467
000270 eb ff 5d 3d 32 02 65 3a 1e e6 7d bd 82 b8 97 bc
       0.05419914 0.0008735984 -0.061987035 -0.018520597
000280 7b 97 2f 3d d1 02 05 bd 23 9e 6f 3d 77 76 0c bd
       0.042869072 -0.03247339 0.05850042 -0.034292664
000290 b0 7b d3 b8 e2 90 3f 3d 10 3c e6 3c 79 51 93 3b
       -0.000100843026 0.04676903 0.028104812 0.0044957963
0002a0 1b 83 1a 3d d6 70 14 3d c9 54 a4 3c 4e 4d 1d bc
       0.03772269 0.03624042 0.02005996 -0.00960095
0002b0 3f 4e f9 3c 65 cd 66 bd 88 03 a7 3c 66 d4 4c bc
       0.030432818 -0.056348223 0.020387426 -0.012501812
0002c0 d6 f4 6f bd 68 69 30 bd 1b 4f 26 3d cc 39 89 b9
       -0.058583103 -0.043069273 0.040602785 -0.00026173738
0002d0 fe f8 20 3d 04 8a 68 3d 24 f8 c2 3c af 0b db bb
       0.039299957 0.056772247 0.023799963 -0.0066847424
0002e0 0e d3 54 bd d7 0f 3a 3d b3 80 4d 3d a3 0d 39 bd
       -0.05195909 0.045425262 0.050171565 -0.04517902
0002f0 b1 83 99 3c 66 38 6a 3d 5d ae ad bc 38 ff 4a bd
       0.018739553 0.057182692 -0.021201307 -0.0495598
000300 92 b4 47 bd cb 80 77 3d 0c c6 93 3c fb 01 ce 3c
       -0.04875619 0.06042556 0.018038772 0.025147429
000310 18 1c b2 3c 7d f2 2a bc e0 94 23 3d 30 c5 5b 3d
       0.021741912 -0.01043379 0.0399369 0.05365485
000320 30 0c 7a 3d f0 f1 1a 3c 72 78 c2 bb f3 71 6c 3d
       0.06104678 0.009457096 -0.0059347684 0.057725858
000330 7b fa 1c 3d fd 67 f6 3c a4 b2 1d 3d d0 e7 46 3d
       0.038324814 0.030078882 0.038500443 0.048560917
000340 df c7 07 bd 9d e7 85 bc 5a 5a 75 3c e9 42 c0 bc
       -0.033149596 -0.016345793 0.014975155 -0.023469405
000350 22 08 f9 ba 72 61 1c 3d 62 97 16 3b 8e 5b ad bc
       -0.0018999616 0.03817887 0.0022978415 -0.02116182
000360 61 11 fa bc 1f 40 47 bb 38 9e 68 bd e8 1f 4e 3d
       -0.030525865 -0.003040321 -0.056791514 0.050323397
000370 01 93 4d 3d 67 7b 24 bc 53 ae b9 bb 87 b8 01 bc
       0.050189022 -0.010039187 -0.005666533 -0.00791753
000380 43 71 a1 bc 91 1a af bc ef b9 1b bd 58 90 59 bd
       -0.019707328 -0.021374973 -0.038019117 -0.053116173
000390 60 a6 40 3c 1c 77 0d bd 2a 37 cc 3c c7 2f 73 3c
       0.011758417 -0.03453742 0.024928648 0.014842934
0003a0 bc 5b 5c bb d9 14 2a 3d 4f 83 30 bd 0a 99 0e bc
       -0.0033624014 0.041523788 -0.043093976 -0.00870348
0003b0 98 34 9c 3c 28 27 89 bc 39 04 d6 3b 7f ec c2 3c
       0.019068047 -0.016742304 0.006531265 0.02379441
0003c0 53 92 53 3d 29 bb 26 bd 66 fb 65 bd 90 eb 08 3d
       0.051653218 -0.040705834 -0.056147955 0.033427775
0003d0 1b d3 3c 3c d9 e8 19 bd eb 65 34 bd 3b f7 da 3c
       0.011524941 -0.037575576 -0.04404251 0.026729217
0003e0 91 1e 23 3c 2c 31 72 bd d0 63 4a bd 60 32 4e 3d
       0.009956018 -0.059128925 -0.049411595 0.05034101
0003f0 57 69 42 bd a6 b0 bf bc e6 40 72 bd 59 ea 4a 3d
       -0.04746374 -0.023399662 -0.059143923 0.049539898

bias f4 [20]
000000 b6 7f 93 3b 02 58 5f bd 7c 08 d7 bc 31 4d b5 3c
       0.0045013083 -0.05452729 -0.026249163 0.022131534
000010 97 79 08 3d 8f db 73 3d 69 07 23 3d bf bf ed 3b
       0.033319082 0.05953556 0.03980199 0.007255524
000020 e1 91 be 3c 26 69 6f bd 30 bb bc bc f1 8b 09 3d
       0.02326292 -0.058449887 -0.023038477 0.033580724
000030 e9 ff 6d bd c3 2b 9f bc b2 22 56 3d ba b8 3d 3d
       -0.058105383 -0.019430047 0.05227918 0.046318747
000040 ba f4 12 bd 2a 6b ea 3c 18 58 de ba 61 bc 0b 3d
       -0.03587792 0.028615553 -0.001696351 0.0341152

weight f4 [50, 320]
000000 78 d4 03 3c c9 62 5d 3d 4e 63 04 bd 1a 50 0b 3d
       0.008046262 0.054049287 -0.032321267 0.034011938
000010 4a 69 c3 bc cf 3f 55 3c cc dc 29 3d 28 38 b2 bc
       -0.023853917 0.013015701 0.041470334 -0.021755293
000020 80 2c 1f bb 9c 04 42 3d 5c 60 51 bd c4 81 4b bd
       -0.0024287999 0.047367677 -0.051117286 -0.0496843
000030 f1 8d 37 3b bd b2 5f 3d 3c 66 3e bd 1c cb 93 3a
       0.0028008188 0.054613817 -0.046484217 0.0011275741
000040 88 34 67 3c c7 3d 1c bd 91 5b e3 bc ed 30 2e 3d
       0.0141116455 -0.038144853 -0.027753623 0.042527128
000050 29 2d f0 bb 6e a1 4a 3d b0 76 0c 3c 8a 3a 0f 3a
       -0.0073296023 0.049470358 0.008573219 0.000546374
000060 46 66 3b 3d bb d5 00 3d a2 37 12 bc df 8b bb 3c
       0.045751832 0.03145383 -0.008924397 0.022893844
000070 d4 f6 12 3d c5 40 10 bd a6 3e a3 bc e9 a9 87 3c
       0.035879925 -0.03521802 -0.019927334 0.016560512
000080 5d dc 40 3c 72 26 d7 3c 88 5a 0e 3d 5d e0 4f 3d
       0.011771289 0.02626345 0.034754306 0.05075108
000090 37 d4 4e 3d 94 81 16 3d aa 54 d9 bc 9e 8d f9 bb
       0.050495353 0.03674467 -0.026529629 -0.007615759
0000a0 ba b2 61 3d 20 ac 19 3d b3 d6 59 3d 92 4f b8 3b
       0.055102088 0.037517667 0.05318327 0.00562472
0000b0 e3 45 fd 3c 8e ed 14 bd 0a 7c a3 bc 56 f3 19 bc
       0.030917114 -0.036359362 -0.019956607 -0.009396395
0000c0 00 ee b8 3b b8 e9 93 b9 96 f1 dd bc 6d 32 b3 3c
       0.005643606 -0.0002821216 -0.027092736 0.02187463
0000d0 7d 0c 3f 3d 29 a1 f5 3b 82 67 65 3d 93 86 35 bc
       0.04664277 0.0074960184 0.056006916 -0.011079448
0000e0 5e c2 60 3d 35 ac 09 bd 5f cc cd bc 0e b1 03 3d
       0.054872863 -0.033611495 -0.025121866 0.032151274
0000f0 bc c7 58 bd 7e 44 fb 3c 63 99 5d 3c 98 31 3b 3d
       -0.052924857 0.030672308 0.01352534 0.045701593
000100 97 bf a6 bc c2 74 22 3d f6 75 ad 3b 55 9a 3b 3d
       -0.020355029 0.03966213 0.005293603 0.04580148
000110 19 1a 5d bc f4 01 ab 3b 1d a5 87 bc 06 1a e9 3c
       -0.013494992 0.0052187387 -0.016558224 0.028454792
000120 89 0d 59 bd 6e a2 f8 3c 37 de 4d bd cb f7 8e 3c
       -0.052991424 0.03035089 -0.05026075 0.017452141
000130 a5 69 13 3d 21 06 0b bd c7 8d 22 3d 5a b0 61 3c
       0.035989422 -0.03394139 0.03968599 0.013774956
000140 80 75 ef bb 64 c0 60 3d df c2 83 bc 09 3f d5 bc
       -0.0073077083 0.054870978 -0.016084133 -0.026031034
000150 98 a0 a2 bc 15 b3 96 3c 1d d1 ec bb 28 14 02 3d
       -0.019851968 0.01839594 -0.0072270767 0.031757504
000160 ee 4b 6c bb 3e 6b 87 bc bd 80 b5 bc f3 40 13 bd
       -0.0036056 -0.01653063 -0.022156114 -0.035950612
000170 58 0b 9f 3c 70 b7 44 bb 40 e4 0f bc 6f fc 14 bd
       0.019414589 -0.0030016564 -0.008782446 -0.036373552
000180 fb 90 54 3d f9 2d bb 3c 70 54 ae bc bf 33 15 bc
       0.051896077 0.02284907 -0.021280497 -0.0091065755
000190 c1 7f 46 bc 89 53 d2 bc 67 e9 60 3d 7b e6 6d bc
       -0.01211542 -0.025674598 0.05491009 -0.014520283
0001a0 69 c3 05 3d 34 41 40 bc bb df c2 3c 6f 22 15 bd
       0.03265706 -0.011734296 0.023788324 -0.03640979
0001b0 c1 92 d4 bb fe da 98 3c d9 4e 7e bc 06 73 f4 bc
       -0.006487221 0.018659111 -0.015521728 -0.029840004
0001c0 98 57 49 3c 79 d6 ae bc 4c 09 cb 3c 8b 03 3b 3d
       0.01228895 -0.021342503 0.024784707 0.045657676
0001d0 e6 da fb 3b a9 d0 0e 3d 4a 27 27 3d 46 b4 bd 3a
       0.007686007 0.034866963 0.040808953 0.0014473281
0001e0 21 a3 5c 3d fd 5b 44 3d f6 80 04 bd e1 eb 88 bc
       0.05386651 0.04793929 -0.03234955 -0.016714038
0001f0 d9 e9 c1 3c 96 c0 5a 3d 05 25 8c bc c6 ee 42 3c
       0.023671078 0.05340632 -0.017107496 0.011897748
000200 d2 62 3c bd 59 4f 3a bd 88 8c 04 3d 3c 78 4b 3d
       -0.04599268 -0.045485828 0.032360584 0.04967521
000210 7e c5 31 bd af 3c 0d 3c f8 a6 28 3d 01 2d c4 bc
       -0.043401234 0.008620425 0.04117486 -0.02394724
000220 66 16 fb bc 41 a5 8a 3c 83 20 09 bd 6d 74 54 3d
       -0.030650329 0.016924502 -0.03347827 0.051868845
000230 88 0e 47 bb 5e 9f 46 bc 87 fa 01 bd ea e1 09 3d
       -0.0030373652 -0.012122957 -0.031733062 0.033662714
000240 f0 d1 60 3d 42 f6 18 bd 42 34 b3 3c c7 d9 04 bd
       0.054887712 -0.037344225 0.021875504 -0.03243425
000250 90 b9 81 3c 84 85 51 3d e1 db 13 3d 7b 20 81 3c
       0.015835553 0.05115272 0.036098365 0.015762558
000260 46 e9 c0 bc 88 48 e5 3c 6d ce d0 3b 12 f4 1d bd
       -0.023548733 0.027988687 0.006372264 -0.03856284
000270 d6 aa 03 3d 3f 70 0c bd 30 ea aa bc 4b 2b 03 3d
       0.032145344 -0.034286734 -0.020863622 0.03202371
000280 94 a2 52 3d e6 59 f5 bb 82 ca f3 3c d6 95 b7 3b
       0.051424578 -0.0074875234 0.02975965 0.0056025786
000290 df 80 33 bc db a4 0e 3d fb 25 0d bd 3b c8 f7 bb
       -0.010956018 0.034825187 -0.03446005 -0.007561711
0002a0 82 ac 4c 3b 75 6a 33 bd 51 8e 0a bd c2 38 2a 3d
       0.0031230752 -0.043802697 -0.03382713 0.041558035
0002b0 5a 0e 56 bd e7 99 ea bc 22 fa 2e bd dc 11 24 bd
       -0.05225978 -0.02863784 -0.042719014 -0.040056095
0002c0 a0 16 13 3d 33 7b 4b 3c 5a 9d 6e 3c 3c 60 00 3c
       0.03591025 0.01241951 0.014563883 0.007835444
0002d0 b1 ec 48 bd 96 43 21 3d a5 c2 18 bd c5 92 47 3d
       -0.04905385 0.039371096 -0.037295002 0.048723955
0002e0 98 e3 01 3d b6 96 f5 3b be 0b c6 bc 33 4d 02 3d
       0.03171119 0.007494773 -0.024175521 0.031811904
0002f0 50 43 aa ba 98 1b 0b 3d 56 f1 80 bc d8 59 84 bb
       -0.0012990031 0.033961862 -0.015740078 -0.0040390305
000300 34 b9 26 bd f9 a1 a8 3c 72 0d 04 bd aa 37 3e bd
       -0.040703967 0.020585047 -0.032239385 -0.046439804
000310 d3 47 29 3d b7 b6 06 3d 80 44 e7 3b 98 a9 02 bd
       0.041328263 0.032889094 0.0070577264 -0.03190002
000320 b5 05 df 3b 18 cd 4c 39 07 3d 6f 3b 31 5e e9 3c
       0.0068061003 0.0001953136 0.003650488 0.028487297
000330 c7 28 be bb f4 ae 9d bc ad 4b 05 3d 7c c3 8a bb
       -0.005803201 -0.019248463 0.032542873 -0.0042347293
000340 e8 41 b4 3c 22 56 bc 3c 92 27 85 bc 81 d5 93 3c
       0.022004083 0.02299029 -0.01625422 0.018046143
000350 a0 98 31 3d bf 21 45 bd 84 01 d8 3c e4 a8 af 3c
       0.043358445 -0.048127886 0.02636791 0.021442838
000360 af 82 93 3c 6d b1 b8 bc b2 fd 86 bc da 68 51 bd
       0.01800665 -0.02254554 -0.016478393 -0.051125385
000370 fe 0a 44 3d 1a b1 60 3d 27 00 7b 3c ec 38 d9 bc
       0.047862045 0.054856397 0.015319861 -0.0265164
000380 7b c3 7c 3c 13 f2 4f bc be 2c 29 bc 18 ed f4 bc
       0.015427466 -0.012691992 -0.010325609 -0.029898211
000390 45 0e 5d 3d ed 28 19 bd 4d d8 40 bd 8a 0f d5 bc
       0.053968687 -0.037392545 -0.04708128 -0.026008386
0003a0 d2 cf 56 3c 39 a7 f3 3c 02 06 5e bc e7 88 f3 3c
       0.013111072 0.029742824 -0.013551237 0.029728366
0003b0 bc dd 24 3c d4 77 0c bd e4 88 45 3d 19 69 2f bd
       0.010062631 -0.034293965 0.048226252 -0.04282484
0003c0 2f a8 0b 3c d1 79 f8 bb 66 65 2d 3d 02 3c 95 3c
       0.008523985 -0.007582881 0.04233303 0.01821709
0003d0 79 62 31 bd b2 43 07 bb 4d dc 56 3c 1f c7 52 bd
       -0.0433068 -0.0020639715 0.013114047 -0.051459428
0003e0 88 0e 0b 3d ae 56 38 bd 7e 9c 04 bd 2c 81 23 3c
       0.033949405 -0.04500454 -0.032375805 0.009979527
0003f0 65 0e 7e bc e3 e8 b9 bc 2e 2a 05 3d c3 b9 a6 bc
       -0.015506362 -0.022694057 0.03251093 -0.02035225

bias f4 [50]
000000 d9 c2 19 3d 7a 0d 5b 3d 53 8e 1c 3d e2 05 58 bd
       0.037539337 0.05347965 0.03822167 -0.052739985
000010 b8 7b ad 3c 15 d2 10 bc 6a 3c 0d bd 54 fd 56 3d
       0.021177158 -0.00883915 -0.034481443 0.052487686
000020 00 9f 27 3d c1 df bd 3c 49 0e 5e 3d e9 06 7d 3c
       0.04092312 0.023177983 0.054212842 0.015443542
000030 c4 20 98 bc 8a 54 c0 3b 0a 5e 01 bd d1 6d 5e bd
       -0.018570311 0.005869453 -0.031583823 -0.054303948
000040 36 29 9c 3b 10 a7 22 bc 22 6c 39 3d 87 59 49 3d
       0.004765655 -0.009927526 0.04526914 0.049157646
000050 64 3d 42 3b 1d 4e 67 3d 03 b2 1d 3c 38 88 34 3c
       0.0029638642 0.05647098 0.009624961 0.011018805
000060 cd 4b a3 bc 7c 47 4a 3c e6 e0 56 3d d5 80 26 3d
       -0.019933606 0.012346145 0.052460574 0.040650208
000070 b4 0f 01 3c 18 25 08 3b 3b 0e 0f bd f9 62 e5 3b
       0.007877279 0.0020774063 -0.03492568 0.007000324
000080 1a 8b e8 3b 57 cd 82 bc 14 9f 17 bc 1f 92 68 bd
       0.0070966603 -0.015967054 -0.009254236 -0.056779977
000090 12 ea 72 3b 3c 87 01 3d 63 f2 25 3c 43 85 49 3d
       0.0037065786 0.03162311 0.01012859 0.049199354
0000a0 69 bd a3 bb af d3 ef 3c b0 93 7b 3b 80 bd ec bc
       -0.0049969447 0.029275743 0.003838759 -0.028898954
0000b0 7e 7a e9 bb 83 cb 44 3d 9c e7 3a 3d 22 05 14 bd
       -0.007125198 0.048045646 0.045631036 -0.036137708
0000c0 82 92 79 3c 53 08 0b bb
       0.015232684 -0.0021214678

weight f4 [10, 50]
000000 80 f1 a5 3c 12 62 48 bd 65 00 21 bd b1 1b 1b 3d
       0.020256758 -0.048921652 -0.039307017 0.037868205
000010 72 50 98 3d 3f 10 ac 3d 43 33 ed 3d ae c1 3b 3d
       0.07437219 0.08401536 0.11582043 0.045839004
000020 9b 5d f2 3d ce 05 25 3d 2e 1e de 3d 73 4a 05 be
       0.1183426 0.04028874 0.108456 -0.13016681
000030 30 73 91 bd 87 0a 80 bc 39 1b 35 3d fa c0 18 3d
       -0.071020484 -0.01563002 0.044215415 0.03729341
000040 52 99 85 bd 26 a8 06 3e 04 b2 63 bd 40 c8 10 3d
       -0.06523384 0.13150081 -0.05558969 0.035347223
000050 49 8b b0 3d a2 b5 d5 3c 74 bc 08 bc 7b cd c4 3d
       0.086203165 0.026087586 -0.008345712 0.09609505
000060 75 42 bf 3b d8 51 1f 3d cd 3b 11 bd df 1b 86 bc
       0.0058367797 0.03889641 -0.03545742 -0.016370712
000070 a2 f6 90 3d dc c5 97 3d 77 ac 04 3d 27 34 da 3d
       0.070782915 0.074107856 0.032391038 0.106544785
000080 0a 80 a2 3d 14 f0 84 bb b2 ba 02 3e ef 7b 3f bc
       0.07934578 -0.00405694 0.12766531 -0.011687263
000090 db 8b 5b bd c3 c2 32 3d 96 db 44 bd 5b 7d 7a bd
       -0.053600173 0.04364277 -0.048060976 -0.061154705
0000a0 49 44 dd bc 6c aa 94 3d 1a d7 78 bc f0 49 f6 bd
       -0.0270101 0.07259068 -0.015188003 -0.12025821
0000b0 b6 30 3a 3c d8 fc dc 3c 15 71 93 bd 3d 6b bd bd
       0.011364153 0.026976034 -0.07199303 -0.0924897
0000c0 25 0f cc bd 9d dc 8d bd e1 ec 61 bd ba 7e 96 3d
       -0.09963826 -0.06926844 -0.055157546 0.0734839
0000d0 33 de ca bd b2 88 a6 bd 93 3c 0b 3e 9c ad f5 3d
       -0.099056624 -0.08131541 0.13597326 0.11996004
0000e0 31 70 a4 bd 44 50 7f bc 9a b6 eb bd b0 95 df 3c
       -0.08029211 -0.015583102 -0.11509438 0.027293056
0000f0 d6 a3 9f bd 66 9b 09 3e da 94 0a 3d 5e a5 07 be
       -0.07794921 0.13438186 0.033833362 -0.13246676
000100 e1 27 c4 bd 74 c7 f3 bd b7 59 00 be cd 6c 93 bd
       -0.09577919 -0.11903277 -0.12534223 -0.071984865
000110 83 65 d5 bb 2f 09 ac 3d 79 16 91 3d 54 7b af 3b
       -0.0065123453 0.08400189 0.070843644 0.005355278
000120 33 97 b3 3d 3e e1 d9 bc ec 2b a5 bd 65 bb c0 3d
       0.08769073 -0.026596662 -0.08065018 0.09410743
000130 cf 77 0b be c4 9a b7 3d 99 4e 9f bd 86 f8 96 bc
       -0.13619922 0.08965066 -0.07778663 -0.018429052
000140 72 66 06 3d 67 4a eb bd 40 e9 b9 3d aa 3e 96 3d
       0.032812543 -0.114888005 0.09077692 0.07336171
000150 cd c3 f8 bd d5 82 47 3d 3e d6 d1 3d b7 1b 05 3e
       -0.12146721 0.048708756 0.102459416 0.12998854
000160 92 51 0b be e9 2b c0 3c 4c 04 97 bb 3b e9 ec bc
       -0.13605335 0.023458438 -0.0046086665 -0.028919807
000170 9a 5f 08 be 74 a2 db 3b ae a3 48 bd 90 f8 0a 3d
       -0.13317719 0.0067027155 -0.048984222 0.033928454
000180 db 71 05 bc 1b 3e 88 3d 5d de f7 bd 5c 28 45 bd
       -0.008144821 0.06652471 -0.12102959 -0.048134193
000190 cd d5 ef bc 35 ce 08 be 90 6e eb bb 9c 14 51 bd
       -0.029276753 -0.13359912 -0.007184811 -0.051045045
0001a0 d2 4d c0 bd b2 52 05 3d d2 58 9a 3d 11 97 70 3d
       -0.09389843 0.032549568 0.075364724 0.05873782
0001b0 a0 e7 08 3e 59 8b 37 3d 82 3f 7b 3d 1c 5b 17 3d
       0.13369608 0.044810627 0.061339863 0.036952123
0001c0 62 8a 78 3d 00 ad 2d 3d d3 51 0f be 41 8a 82 3b
       0.060678847 0.042401314 -0.13996057 0.0039837663
0001d0 25 b3 b1 bd cb ef bb bd 1a 81 d8 3d 5f 51 45 3d
       -0.08676747 -0.09176596 0.10571499 0.048173305
0001e0 ca c8 83 bd ef 5d bf bd 22 05 05 3e 87 1d e0 3d
       -0.06434782 -0.09344088 0.1299024 0.10943132
0001f0 f7 65 4c bd 95 0d b3 bd 66 a0 d4 3d e4 8e 6b 3d
       -0.04990193 -0.08742825 0.10382156 0.057509318
000200 a2 50 0e 3e 49 7f 91 bd 2a a9 9d bd c8 05 9a bd
       0.13897946 -0.07104356 -0.07698281 -0.07520634
000210 dd 26 ab bb 35 03 06 3e 6b dd 54 bd 22 83 90 bc
       -0.0052231387 0.13087161 -0.051968973 -0.017640654
000220 46 9e ec 3c 7e 88 84 3d 23 0e c2 bc 24 dc 0d be
       0.028884064 0.06471346 -0.023688382 -0.13853508
000230 2e 01 bf bd 09 15 a0 3d c2 5d 95 3c be d7 b4 3c
       -0.09326397 0.07816512 0.018233184 0.02207553
000240 49 d6 83 3d 1b de a0 3d 45 7c 0b be 17 61 84 bd
       0.06437356 0.07854863 -0.13621624 -0.06463831
000250 40 06 0f be 00 02 18 b9 97 1f a8 3c 2c 96 32 3c
       -0.13967228 -0.00014496595 0.020522876 0.010900062
000260 a3 c5 e5 bc 61 e3 4f bd 6a cc a7 bc d2 3b 80 3b
       -0.028048342 -0.050753955 -0.020483214 0.003913381
000270 5d 41 d8 3d 30 13 0d bd 86 30 fb 3d 32 b5 7a 3d
       0.10559342 -0.034442127 0.122651145 0.061207958
000280 b0 c5 c4 bd 3e 8f 54 3d e8 42 a9 bd b4 49 7c bb
       -0.096080184 0.05189442 -0.082647145 -0.003849608
000290 bd e6 cf 3d 34 4e 03 be a9 48 0b 3e 97 62 45 3d
       0.10151432 -0.12822801 0.13601936 0.048189726
0002a0 1d ba 0e be d2 30 9c bd 2a 07 f3 bc b5 06 2f bc
       -0.13938184 -0.07626499 -0.029666502 -0.010682751
0002b0 56 d2 5f bd d9 0b 02 be 5e 6d 1c 3b fb 32 ee bd
       -0.05464395 -0.12699832 0.00238689 -0.116308175
0002c0 b6 e4 3e 3d e9 52 9a 3d 28 d6 4f bc cc 75 83 3d
       0.046604834 0.07535345 -0.012685336 0.06418952
0002d0 e2 5c 90 3d 1e 41 f4 bd 0a c7 52 3d e7 5a 5f 3d
       0.07048966 -0.119264826 0.05145935 0.05453005
0002e0 a4 1a e4 bc 82 16 26 3c 1c ff 20 bd 22 84 b5 3d
       -0.027844734 0.010137202 -0.03930579 0.08863093
0002f0 ed 7e 36 3d 8f 69 c9 3c 7b 07 19 3d ed 17 d2 bd
       0.04455464 0.024586467 0.03736065 -0.1025847
000300 4d 06 bf bd e8 da 2e bd cf 75 68 3c e8 df 3f bb
       -0.09327374 -0.042689234 0.014188244 -0.0029277746
000310 43 89 cd bd db 39 8d bd 67 b9 e7 3c e2 1c e6 3d
       -0.10035946 -0.06895801 0.028286649 0.11235978
000320 6a b9 6a bd 29 1e 0f 3d 9b 45 02 be 5b 5c 6a bd
       -0.05730573 0.034940872 -0.12721865 -0.057216983
000330 7a fc fd 3d aa c9 f7 3d d3 37 36 bd c9 ca d7 3d
       0.12401672 0.12099011 -0.044486832 0.10536725
000340 a1 b4 0d 3d 9a 73 a7 3d 7d 7f 0d be 7d e0 f5 bd
       0.03459609 0.08176346 -0.13818164 -0.12005708
000350 5a 39 c5 bd 46 08 06 be e4 88 08 be 86 2a e9 bd
       -0.096300796 -0.13089094 -0.1333347 -0.11385064
000360 b8 8f 6e 3b da 5d 3f 3d cc f2 38 3d 0c 5b 87 3d
       0.003640158 0.046720363 0.045153424 0.06609163
000370 14 2d 00 3d d2 26 0d be d4 c2 c7 3d 9e 59 48 bb
       0.03129299 -0.1378434 0.097539574 -0.0030570994
000380 2e 25 5a 3c 67 37 80 3d ba c9 d1 3d 0d 08 90 bd
       0.013314528 0.06260567 0.102435544 -0.070327856
000390 cf 15 d8 3d 4c 3f 04 3e 9a 77 52 bd 19 a9 82 bd
       0.10551035 0.12914771 -0.051383592 -0.06379909
0003a0 7f 5c 25 bd 74 b6 98 3c 0e 35 94 3d cf ec 64 3d
       -0.040371414 0.018641688 0.07236682 0.0558899
0003b0 c9 17 25 bd c0 10 8c 3c 16 c9 81 ba a9 59 5c bd
       -0.040305886 0.01709783 -0.0009901847 -0.053796444
0003c0 a0 82 d1 3c 7d 7f 06 3d 07 f5 a8 bd e1 a5 82 bd
       0.025574982 0.032836426 -0.0824986 -0.06379295
0003d0 a4 b4 0f bb 97 d7 95 bc 7c 87 01 bd 8a 81 dc bb
       -0.0021927739 -0.018291278 -0.03162335 -0.0067293094
0003e0 cb ac 3f 3d e5 17 af bb 28 c7 e2 bd 40 81 48 3d
       0.046795648 -0.0053434246 -0.11073142 0.048951387
0003f0 58 0e fc bc 7e 3b 05 be 42 87 4c 3d 88 67 60 3d
       -0.030768558 -0.13010976 0.04993368 0.054786235

bias f4 [10]
000000 fb 5b 34 3d e7 44 ca bd 63 9e 50 3d 4d 0e fe 3d
       0.044033032 -0.09876423 0.0509323 0.124050714
000010 cc 20 be bd 95 85 d5 3c 4f 3b 57 3d 8f fd 06 3e
       -0.09283599 0.026064673 0.052546795 0.13182662
000020 77 d6 68 bd 39 db f6 bd
       -0.056845155 -0.12053532

exp_avg f4 [10, 1, 5, 5]
000000 15 e3 4c 38 35 33 6b 38 7f 47 2b 38 87 cd 67 36
       4.8848877e-05 5.6076056e-05 4.0836163e-05 3.4541315e-06
000010 dd 43 93 b7 98 f2 e5 37 8b 9f 23 38 de 1a 40 38
       -1.7555367e-05 2.7411894e-05 3.9010814e-05 4.580139e-05
000020 58 1c 92 37 f3 1b c5 37 be 79 c9 37 00 3b ee 37
       1.7417755e-05 2.3497245e-05 2.4017758e-05 2.8399285e-05
000030 c1 48 c7 37 cb 91 cd b7 0a 5b 3c b8 6a 48 51 37
       2.3756527e-05 -2.4505794e-05 -4.490748e-05 1.2474231e-05
000040 1f a3 d7 b7 68 05 a5 b8 c9 ab 0a b9 47 da 9d b8
       -2.5705956e-05 -7.86882e-05 -0.000132247 -7.527001e-05
000050 55 d1 56 b8 a9 5a 33 b9 87 2f 85 b9 cf 48 46 b9
       -5.121653e-05 -0.00017104544 -0.00025403147 -0.00018909875
000060 f5 1d 77 b8 1f 56 bc 36 e0 ae f0 b7 82 5d 69 b8
       -5.891729e-05 5.6128624e-06 -2.8691662e-05 -5.5638615e-05
000070 a7 c1 15 b9 df 49 26 b9 fe 9a 23 b8 a3 ad 32 b7
       -0.00014281888 -0.00015858513 -3.9006576e-05 -1.0650055e-05
000080 18 c7 cc b8 0e fe 24 b9 9f 05 30 b9 e0 8a 6f b8
       -9.764562e-05 -0.00015734902 -0.00016786762 -5.7111378e-05
000090 51 f9 46 b8 c5 09 59 b9 25 33 39 b9 68 ed 2e b9
       -4.7439073e-05 -0.00020698372 -0.00017662028 -0.00016682374
0000a0 e9 30 b2 b8 a7 35 bb b8 3b e0 59 b9 9b 11 3a b9
       -8.496812e-05 -8.9268484e-05 -0.00020778265 -0.00017744901
0000b0 b1 12 37 b9 bd 03 fa b8 fd 63 13 b9 88 19 43 b9
       -0.00017459203 -0.00011921625 -0.00014056261 -0.0001860616
0000c0 66 42 3e b9 83 00 38 b9 8b fa 3f b8 f5 fe dc 36
       -0.00018144547 -0.00017547798 -4.5771285e-05 6.586192e-06
0000d0 b3 4d 0f 38 7b 06 74 37 03 e6 27 b8 f7 b9 02 38
       3.416622e-05 1.4545042e-05 -4.0030118e-05 3.116761e-05
0000e0 df 10 6a 37 1d d4 e7 37 4a 12 cf b6 c8 79 46 b8
       1.3951415e-05 2.7636119e-05 -6.17121e-06 -4.7320296e-05
0000f0 d2 6c b4 37 32 78 82 38 5c 56 b9 38 69 17 97 38
       2.1508346e-05 6.221271e-05 8.837573e-05 7.2046016e-05
000100 8b 66 a7 38 3f 53 a3 37 db b7 ad 37 ea b4 11 38
       7.982281e-05 1.9469879e-05 2.0708821e-05 3.4739183e-05
000110 b2 4b b8 38 2b 20 13 39 9b 9e 8a 37 7b 90 bc 36
       8.787903e-05 0.00014030996 1.6524738e-05 5.6196563e-06
000120 28 11 18 36 55 4c d5 38 ba c4 cf 38 ab e4 06 b9
       2.2659751e-06 0.000101708494 9.907172e-05 -0.00012864421
000130 1d 81 cc b8 71 45 2e 38 52 85 04 39 70 a7 2a 39
       -9.751527e-05 4.1549505e-05 0.00012638167 0.00016274839
000140 23 1a ec b8 2b c4 90 b8 23 bc cb 37 10 b4 e7 38
       -0.00011258225 -6.902994e-05 2.4287094e-05 0.000110484776
000150 fa 9f 05 39 27 d9 87 b8 fe a7 9e b6 36 42 a3 b7
       0.00012743464 -6.4777494e-05 -4.728324e-06 -1.9461946e-05
000160 42 53 af 37 51 c2 c0 38 9f aa 99 b8 60 49 9b b8
       2.0900396e-05 9.191468e-05 -7.327389e-05 -7.404643e-05
000170 86 db 9c b8 ca ae 13 b8 4f dc 09 38 df 7b b0 b8
       -7.479549e-05 -3.5210316e-05 3.2868524e-05 -8.415407e-05
000180 9f b9 cc b8 78 98 b9 b8 e2 84 df b8 1a e8 8f b8
       -9.762053e-05 -8.849887e-05 -0.0001065822 -6.862004e-05
000190 be 0c 39 38 93 ac 05 b8 d6 b2 87 b8 55 84 f9 b8
       4.4119304e-05 -3.1870393e-05 -6.4706124e-05 -0.00011897894
0001a0 5b 5f e6 b8 8a 0e c6 b7 c8 06 f9 b8 b2 4c 66 b9
       -0.00010985016 -2.361021e-05 -0.00011874508 -0.0002196308
0001b0 35 30 6b b9 25 f3 e4 b8 f3 f2 12 b8 3d f2 f6 b8
       -0.00022429305 -0.000109171764 -3.5035377e-05 -0.000117753145
0001c0 ea f7 70 b9 da 9d 94 b9 50 6a 25 b9 6d dc 91 38
       -0.00022980539 -0.00028346368 -0.0001577523 6.955196e-05
0001d0 e5 0b 09 b8 a8 2c e4 b8 5f bc 38 b9 ff 82 9f b8
       -3.2674423e-05 -0.00010880205 -0.00017617781 -7.606111e-05
0001e0 e7 51 d0 b7 ca cd 43 b8 38 4d 6e b8 fa 09 78 b8
       -2.4833671e-05 -4.668328e-05 -5.6815537e-05 -5.91371e-05
0001f0 bb 2b 78 b8 fa 50 b3 b6 2f 4c c8 b7 9c 36 2b b8
       -5.9168535e-05 -5.3440426e-06 -2.3877334e-05 -4.0820436e-05
000200 6a 75 92 b7 63 80 20 38 23 f9 63 b8 d3 d6 e4 b7
       -1.7459231e-05 3.8266542e-05 -5.4353044e-05 -2.7279753e-05
000210 6d 4e f7 37 2f bb 9d 38 6a 8a 0e 39 a8 3c 17 b9
       2.9481214e-05 7.521209e-05 0.00013593739 -0.00014423078
000220 4f 5f a0 b7 d8 c8 bb 38 c7 96 dc 38 fd b2 b8 38
       -1.9117868e-05 8.954265e-05 0.00010518502 8.807143e-05
000230 fa 91 90 b8 eb 40 70 b4 3c 83 c6 38 3b 56 d2 38
       -6.893645e-05 -2.2375359e-07 9.46582e-05 0.00010029642
000240 58 32 63 38 ac a5 0c b9 23 fd ef 37 8f 0c 8a 38
       5.4167904e-05 -0.00013413158 2.8608896e-05 6.582692e-05
000250 2d 50 c3 38 e5 2a d9 37 a3 49 d6 b6 a3 97 8e 38
       9.3132585e-05 2.588839e-05 -6.3862694e-06 6.799332e-05
000260 8f 3a 17 38 23 eb 29 37 23 53 f7 37 a5 61 ad 38
       3.6055742e-05 1.0127932e-05 2.9483408e-05 8.2674705e-05
000270 c8 3e 34 39 69 04 0c 39 27 19 e4 38 9b c7 2c 39
       0.00017189526 0.00013353083 0.00010876572 0.00016477557
000280 52 84 ce 37 67 89 9e 38 15 9f bf 38 2b 18 0f 39
       2.461873e-05 7.55962e-05 9.137221e-05 0.00013646546
000290 77 f4 28 39 99 bf c1 b7 4c d2 ab 38 b0 1d ce 38
       0.00016112799 -2.3096612e-05 8.193086e-05 9.828375e-05
0002a0 7f ae 17 39 77 a5 00 39 8a f3 a6 b8 c7 c5 23 37
       0.00014465487 0.00012268672 -7.9608595e-05 9.761606e-06
0002b0 07 c4 94 38 35 2f fd 38 a9 71 85 38 7a e7 82 39
       7.093703e-05 0.00012072773 6.363105e-05 0.00024967996
0002c0 d3 64 77 39 a5 d4 50 39 07 89 15 39 e2 b1 21 39
       0.00023593316 0.00019915642 0.00014260794 0.00015420423
0002d0 bf 17 31 39 77 36 28 39 85 38 3f 39 1f 81 73 39
       0.00016888882 0.00016042018 0.00018236235 0.00023222387
0002e0 22 e3 4e 39 10 02 5e 38 f8 53 0a 39 ee 8f 2c 39
       0.00019730304 5.2930845e-05 0.00013191986 0.00016456816
0002f0 ca 69 4b 39 ca c4 40 39 df 69 18 38 49 77 44 39
       0.00019398998 0.00018383857 3.6338224e-05 0.00018736454
000300 70 59 3f 39 30 b7 53 39 db 3a 4f 39 41 71 04 b6
       0.00018248498 0.00020190771 0.00019762984 -1.9735455e-06
000310 cb af 37 39 ff 12 de 38 5d e0 00 39 07 b7 44 39
       0.00017517728 0.00010589323 0.00012290613 0.000187602
000320 f7 ae be b8 51 89 19 b9 d3 b7 3e b9 08 a0 70 b9
       -9.092496e-05 -0.00014642371 -0.00018188292 -0.000229478
000330 3d e7 32 b9 eb 07 1b b8 e0 1f cf b7 ec cc 94 b8
       -0.00017061546 -3.6962254e-05 -2.4691166e-05 -7.0953596e-05
000340 f2 7c 6d b8 1b 08 69 b8 d5 10 32 38 af b3 18 39
       -5.6621568e-05 -5.5559078e-05 4.2454183e-05 0.00014562787
000350 9d b4 0b 38 60 81 d8 37 8d a5 ec b7 06 c9 a9 38
       3.330839e-05 2.5809451e-05 -2.8210483e-05 8.0959915e-05
000360 c8 14 14 39 8d eb c0 38 92 c2 ba 38 ea f7 cf 37
       0.00014122122 9.199148e-05 8.905413e-05 2.4791767e-05
000370 37 c4 11 39 ed 8e 74 39 13 5f a9 39 a5 e6 cd 39
       0.00013901373 0.00023322897 0.00032305028 0.0003927249
000380 e8 58 85 39 0d 17 e0 b6 89 6e 85 38 08 a0 75 38
       0.00025433977 -6.6784037e-06 6.362523e-05 5.8561593e-05
000390 d1 0e 9a 38 ef ba 81 38 cd 78 08 b8 11 42 3c 38
       7.346052e-05 6.1860184e-05 -3.253743e-05 4.4884222e-05
0003a0 16 40 a6 38 15 22 06 39 37 c0 09 39 81 49 3e b9
       7.927434e-05 0.00012791932 0.00013136944 -0.00018147194
0003b0 75 15 16 b8 68 bb 7b b7 60 12 68 38 e4 ef ae 38
       -3.578277e-05 -1.50044e-05 5.5330223e-05 8.34165e-05
0003c0 8d 6a 64 b9 53 d5 60 b8 c5 88 32 b8 6f 3f 9f 36
       -0.00021783468 -5.3604435e-05 -4.2565884e-05 4.745954e-06
0003d0 02 92 c3 38 bf a3 a4 b9 1d 05 2e b9 c8 11 9a b8
       9.325521e-05 -0.00031402518 -0.00016595838 -7.346604e-05
0003e0 5a b7 15 37 3c 0d ac 38
       8.923782e-06 8.204064e-05

exp_avg_sq f4 [10, 1, 5, 5]
000000 f6 2e 83 2f 3f df ac 2f 8d 5a 37 2f 0b ea a7 2b
       2.386213e-10 3.1445244e-10 1.6675923e-10 1.1931024e-12
000010 36 8b 07 2e bb 3c a5 2e 16 54 27 2f e5 a6 66 2f
       3.081909e-11 7.514119e-11 1.5218435e-10 2.0977671e-10
000020 59 6d 05 2e 40 d3 72 2e d6 b3 7d 2e 02 5b b1 2e
       3.033782e-11 5.5212057e-11 5.7685266e-11 8.065194e-11
000030 b4 36 78 2e 0f 0f 84 2e 8b bc 5d 2f 75 df 88 2d
       5.6437258e-11 6.00534e-11 2.0166817e-10 1.5560645e-11
000040 84 4f 91 2e 27 33 2a 30 e7 5e f0 30 ee bb 1b 30
       6.6079614e-11 6.191833e-10 1.7489271e-09 5.6655736e-10
000050 51 35 90 2f a7 0c 49 31 f1 ba dd 31 bd ba 75 31
       2.623133e-10 2.9256542e-09 6.4531993e-09 3.575834e-09
000060 75 d5 be 2f f6 b0 5d 2c b1 06 b5 2e 7a 2f aa 2f
       3.471247e-10 3.1504222e-12 8.232116e-11 3.0956554e-10
000070 32 2b 0c 31 05 d3 2c 31 c8 4a 27 2f 79 89 47 2d
       2.0397235e-09 2.5149245e-09 1.5215129e-10 1.1342365e-11
000080 21 0b 83 30 fd 23 2a 31 f7 a5 41 31 7b 50 b3 2f
       9.534667e-10 2.4758713e-09 2.8179536e-09 3.2617095e-10
000090 fa 70 77 2f 74 34 93 31 56 5e 56 31 56 3f 3f 31
       2.2504656e-10 4.2842263e-09 3.1194722e-09 2.783016e-09
0000a0 49 73 46 30 e1 0b 5b 30 ee 57 94 31 8a 62 58 31
       7.219581e-10 7.9688617e-10 4.3173634e-09 3.148815e-09
0000b0 2b 79 51 31 d8 55 c3 30 5f c6 07 31 40 e6 6d 31
       3.0482379e-09 1.4212516e-09 1.9757846e-09 3.461892e-09
0000c0 ce 3d 62 31 c6 9a 53 31 4f 59 66 2f 5c 9f 98 2c
       3.292246e-09 3.079252e-09 2.0950107e-10 4.3377923e-12
0000d0 6f 59 00 2f b0 16 ba 2d d7 2f 30 2f 14 9e d5 2e
       1.1673305e-10 2.1155827e-11 1.6024103e-10 9.714199e-11
0000e0 7a 35 ab 2d 96 f3 a7 2e de fe 85 2c 2d 34 76 2f
       1.9464198e-11 7.63755e-11 3.8083833e-12 2.2392106e-10
0000f0 22 75 4b 2e 56 c7 d4 2f e4 af 56 30 cd ad 0e 30
       4.626089e-11 3.8704212e-10 7.81027e-10 5.1906285e-10
000100 b8 24 2f 30 30 b8 26 2e d1 9c 3c 2e b5 b0 04 2f
       6.371681e-10 3.790762e-11 4.2885532e-11 1.2068109e-10
000110 d7 47 54 30 88 49 07 31 39 31 f0 2d 6f 3a 5e 2c
       7.722724e-10 1.9686883e-09 2.73067e-11 3.1580535e-12
000120 02 87 10 2b e3 2c 8e 30 30 e6 86 30 cb 73 e3 30
       5.134644e-13 1.0344617e-09 9.815206e-10 1.6549334e-09
000130 9f b1 82 30 c1 d0 3d 2f 9f 85 db 30 7e 04 36 31
       9.509228e-10 1.7263614e-10 1.5972325e-09 2.648704e-09
000140 5d 33 ae 30 a5 fb 02 30 54 b6 81 2e 2a c5 a7 30
       1.2674765e-09 4.7651333e-10 5.898629e-11 1.2206887e-09
000150 f8 31 df 30 32 af e6 2f df 52 1d 2c 69 95 26 2e
       1.6239587e-09 4.196124e-10 2.2357045e-12 3.7876733e-11
000160 4b 1e 40 2e ae 39 68 30 6c 95 13 30 4c b6 16 30
       4.368265e-11 8.4483076e-10 5.369063e-10 5.482874e-10
000170 d9 c6 19 30 52 50 08 2f bb 91 ed 2e 7d aa 42 30
       5.5943655e-10 1.2397663e-10 1.0803399e-10 7.081907e-10
000180 e2 f9 82 30 27 49 57 30 9f 20 9c 30 99 6e 01 30
       9.529766e-10 7.83205e-10 1.1359765e-09 4.7087095e-10
000190 78 05 56 2f 10 5c df 2e 22 2d e6 2f f5 8e c2 30
       1.946513e-10 1.01572195e-10 4.1868825e-10 1.4155989e-09
0001a0 30 d9 a5 30 63 2a 75 2e 5b cb c1 30 52 be a5 31
       1.2067058e-09 5.5744197e-11 1.4100395e-09 4.823769e-09
0001b0 d5 da ac 31 67 ce a3 30 6c f6 06 2f f6 91 be 30
       5.030737e-09 1.1918474e-09 1.2274776e-10 1.3865804e-09
0001c0 9f 74 b5 31 09 0b 0a 32 8c 03 2b 31 b5 f8 04 30
       5.2810516e-09 8.035166e-09 2.4885791e-09 4.8374754e-10
0001d0 8c c5 ea 2e dc b2 a2 30 b9 4b 55 31 60 06 1f 30
       1.06761794e-10 1.1837886e-09 3.1038623e-09 5.785292e-10
0001e0 c1 9d 87 2e a5 9e 6f 2f 24 76 b1 2f ab 42 c0 2f
       6.167112e-11 2.1793285e-10 3.2280056e-10 3.4971967e-10
0001f0 02 77 c0 2f f2 f6 48 2c 9a be 7a 2e 67 36 37 2f
       3.5009157e-10 2.8558792e-12 5.7012707e-11 1.666308e-10
000200 37 10 06 2e 2c 01 21 2f 6c 69 a2 2f e5 a5 a3 2e
       3.0482474e-11 1.4643281e-10 2.9542535e-10 7.4418506e-11
000210 59 20 bf 2e 9b 7e 1b 30 1a f9 fd 30 2e f4 0e 31
       8.6914205e-11 5.656859e-10 1.8478972e-09 2.080252e-09
000220 d7 be 20 2e dc 64 5c 30 98 0f 98 30 0e 36 55 30
       3.6549288e-11 8.0178864e-10 1.1063888e-09 7.7565765e-10
000230 e0 a0 02 30 6e 61 b4 27 a1 4b 76 30 45 41 8a 30
       4.752234e-10 5.006567e-15 8.9601754e-10 1.0059372e-09
000240 a9 4e a1 2f 32 45 f7 30 b5 fb b3 2e 24 38 ee 2f
       2.934162e-10 1.7991282e-09 8.18469e-11 4.3331838e-10
000250 96 6b 6e 30 66 61 93 2e 5c 7f 8f 2c 3e 28 fe 2f
       8.6736784e-10 6.7020875e-11 4.078444e-12 4.6230925e-10
000260 37 f0 0e 2f ae 73 34 2d a2 27 bf 2e ca e1 3b 30
       1.3000166e-10 1.02575014e-11 8.6927146e-11 6.835107e-10
000270 5b 0d 4b 31 70 0f f5 30 0c 97 a2 30 85 94 3a 31
       2.954798e-09 1.7830484e-09 1.1829981e-09 2.7150986e-09
000280 60 47 85 2e 3c 16 1d 30 07 7e 65 30 3a f3 ff 30
       6.0608185e-11 5.7147864e-10 8.348881e-10 1.8622821e-09
000290 3c 69 32 31 87 9d 6a 2e 31 84 38 30 09 c3 84 30
       2.5962228e-09 5.3345352e-11 6.7126665e-10 9.659696e-10
0002a0 b5 cb 0f 31 a2 df ce 30 64 34 2e 30 55 a2 27 2d
       2.0925033e-09 1.5052033e-09 6.3375283e-10 9.528896e-12
0002b0 fe 51 0a 30 e0 51 c8 30 5a 97 de 2f ea 32 d6 31
       5.0320625e-10 1.4575186e-09 4.0489107e-10 6.234008e-09
0002c0 fa 42 bf 31 30 48 88 31 46 c1 0b 31 5d 68 23 31
       5.566446e-09 3.9663277e-09 2.0337025e-09 2.3778945e-09
0002d0 f5 02 44 31 d8 d8 30 31 9e 88 64 31 81 4b b9 31
       2.8523435e-09 2.5734632e-09 3.3256025e-09 5.3927924e-09
0002e0 dd c1 85 31 10 06 9a 2f d6 2e ef 30 5b 1c 3a 31
       3.892849e-09 2.8016744e-10 1.740285e-09 2.708268e-09
0002f0 8f 4d 81 31 a3 3f 68 31 d5 2f 11 2f 33 3e 71 31
       3.7632115e-09 3.3796617e-09 1.3204667e-10 3.5105472e-09
000300 55 d7 64 31 ca 12 8c 31 64 33 86 31 2a 43 db 2a
       3.3300769e-09 4.0766723e-09 3.9057557e-09 3.894882e-13
000310 47 e1 52 31 8f 1d 9a 30 39 9d cf 30 d7 da 71 31
       3.0687077e-09 1.1213376e-09 1.5105918e-09 3.5194512e-09
000320 4b 40 63 30 7a 55 13 31 68 55 63 31 5d f0 b4 31
       8.2673485e-10 2.1439903e-09 3.3081395e-09 5.2660156e-09
000330 36 0a 48 31 59 37 16 2f 74 10 86 2e 88 62 0a 30
       2.9109635e-09 1.3662084e-10 6.096537e-11 5.034413e-10
000340 78 40 b0 2f 02 b3 a9 2f dc 2b 46 2f 97 bc 11 31
       3.206002e-10 3.0868114e-10 1.8023577e-10 2.1207478e-09
000350 6d f8 f3 2e aa 7b 92 2e 53 01 af 2e 3f 2b 34 30
       1.109449e-10 6.6612785e-11 7.958314e-11 6.5545075e-10
000360 dc 0c 09 31 14 9d 68 30 e6 fe 59 30 b1 28 87 2e
       1.9943434e-09 8.462433e-10 7.930637e-10 6.1463175e-11
000370 95 cc 04 31 03 e7 ba 31 ab 4a 33 32 2a 7c 84 32
       1.932482e-09 5.4395755e-09 1.0436149e-08 1.5423286e-08
000380 cd 44 de 31 14 ed 9c 2c ed 8c de 2f 5d 89 bc 2f
       6.468872e-09 4.4601076e-12 4.0481699e-10 3.4294603e-10
000390 21 56 14 30 c5 5f d2 2f a2 ce e8 2e c3 81 5d 2f
       5.3964483e-10 3.8266826e-10 1.0586844e-10 2.0145934e-10
0003a0 ad be 2c 30 6f e5 e0 30 f2 30 ed 30 b4 4e 62 31
       6.28442e-10 1.6363354e-09 1.7257931e-09 3.2932066e-09
0003b0 3e c8 0c 2f 39 07 c6 2d d9 4d a8 2f c5 44 3f 30
       1.2804066e-10 2.2513201e-11 3.0614336e-10 6.958312e-10
0003c0 2d 0b a3 31 04 f8 9d 2f 2b 37 47 2f c5 7f 1e 2c
       4.745195e-09 2.873436e-10 1.8118544e-10 2.2524077e-12
0003d0 6a 0c 6f 30 ee 69 29 32 b9 44 3d 31 d6 5b 14 30
       8.6965335e-10 9.86118e-09 2.7542184e-09 5.3972593e-10
0003e0 ea 17 0c 2d dc 02 39 30
       7.963389e-12 6.730667e-10

exp_avg f4 [10]
000000 07 ad fa 37 00 72 d6 39 65 cd 1d b8 13 b6 08 39
       2.9882895e-05 0.00040902197 -3.7623005e-05 0.00013037799
000010 15 27 83 b8 cd a2 85 38 98 3e 25 39 47 5e f2 b9
       -6.2538464e-05 6.372258e-05 0.00015758944 -0.0004622808
000020 7a 4f d1 38 f0 8d 65 b9
       9.9807e-05 -0.00021892018

exp_avg_sq f4 [10]
000000 b8 5e c4 2e 70 b5 8f 32 85 a2 1b 2f de 9f e9 30
       8.9298735e-11 1.67299e-08 1.4154906e-10 1.6998418e-09
000010 44 03 d7 2f 68 3b df 2f 33 a9 2a 31 e7 91 b7 32
       3.9110593e-10 4.0605674e-10 2.4834435e-09 2.1370353e-08
000020 b1 e8 88 30 33 ac a4 31
       9.961437e-10 4.792605e-09
