checkpoints/mnist/mask_model_7x7.pth (torch_old, 276869 bytes, 24 tensors)

weight f4 [10, 1, 5, 5]
00000000: 02c8 9fbd 6b4e b3bc fa17 a6bc 6e94 f7bd
00000010: 069a b9bd 0e79 0cbd 70fd 84be 4bdf 8dbd
00000020: 8b65 0c3e 0583 d53d 0236 b93d c473 373b
00000030: fcfa 89be 2571 62be 4916 11bd da0f 083e
00000040: f1f6 993d e4e7 fb3c 21f1 afbe 9bcb 29bd
00000050: 2079 423d 9968 d73d 0f3e 593e 7149 423e
00000060: ca5f 21be 7bec 0fbd 4701 833c 6838 2fbe
00000070: e4a5 fbbd 377e 15be 5319 dc3c dde8 7d3c
00000080: 5a24 92bb 0893 02be 8a90 1d3e 0b55 cbbd
00000090: f628 543e af04 30bd 78ca 2bbe 9c64 d1bd
000000a0: ff83 03bd 4c0f 563d ce1d 89be 3bb6 d83d
000000b0: eb97 1f3e aa1b 00be 4126 213e 55cb 7fbe
000000c0: 8e78 24bc 7fa0 41be 30c0 b6bd 55d9 a3be
000000d0: 6b94 3cbe dbd0 83be 30c2 44be 3cdc b8be
000000e0: 6abb 92be c165 74be 3c04 d23d a6aa b23d
000000f0: 2d85 97be 55f7 de3d a488 9b3e d187 2c3e
00000100: a9b5 a7bd bff3 bb3e 4a18 753e 2f87 cf3d
00000110: 8a7a c23d e6de 393d 7527 1e3e bdb8 3b3e
00000120: 04aa 8ebd 8fad b03d 0055 c9bb 1da7 8e3d
00000130: d677 0dbe 0485 e3bd 031f 063e 94bc 04bd
00000140: af05 003e f9c5 64bc c004 e3bd 8600 503e
00000150: 04fd 433e 325c d53d ee5b 2c3e d69b 31be
00000160: cdd5 6cbe a30b 4a3e 2515 42be db00 0d3d
00000170: 83c1 8abe c7c5 96be 2abd 12be 496c 94bd
00000180: 6d83 053e 42df 503e 8041 cfbd 4fcf 893c
00000190: 2073 e7bb 1111 2dbe 2bb4 783e cadd c23d
000001a0: dfb0 efbd 56dd 993c 8e4a b03d 3a3c 803e
000001b0: 3e59 2dbd 2f77 613e d43f 643d afb1 cbbd
000001c0: 6e5e 573e e7f9 9cbe 92f2 37be 0ab8 b5bc
000001d0: 6b7d 583e 6f54 213e ab9f d03d d4a9 b6bc
000001e0: 1b5a f5bd 8f2a 703d b8a2 223e f95b 0d3e
000001f0: b167 153e 0657 853e 35cc fabd e0ae 39be
00000200: 9c3e 96be 1730 c23d 17ce 5e3e da8e 8b3e
00000210: eebf a03a fffd fe3d be87 613e c545 3abd
00000220: 6b37 6c3e e2a6 013d 608f 0e3e faa9 683e
00000230: 513a edbc c975 0c3e 2f87 503e 05a1 2d3e
00000240: 8bae dbbd eede 3bbd 97cb 153d 1f61 0a3e
00000250: b1fe 3cbd 0376 a1bd 27df 053e 6810 393e
00000260: fb22 67be fef4 23be 507f 51be f48f 923d
00000270: a125 943e 5909 863e ccf7 95bd 015d 11bd
00000280: fbae e5bd 08f3 dabc b0c6 c1bd 8b39 c03d
00000290: df17 f1bd 1d00 7d3e 215f 90bc f835 03be
000002a0: 2eca babb 4374 1abe 8071 30bd 9110 3ebe
000002b0: 7e53 08be 9769 1a3e 39d4 96bd fc6e bc3d
000002c0: 654a 32bd c9bd 8b3e ff0b 71bc 9be0 93be
000002d0: e044 3e3e 4f84 19be b4a5 813e 85ac 52be
000002e0: a693 b8bd b50d 60bc d7ba 7abd 2afd 263e
000002f0: e36c ebbd 4abc 26be 35c8 eebd 634b 8b3e
00000300: 47ec 373d 1724 0dbe 94e1 d6bd cb5c 013c
00000310: 3e4d 683e c04a 72be 6f17 bdbd ce96 23be
00000320: e90b bebd 7e49 883c 6a47 703e c946 993e
00000330: 082f 1c3d 74ae 173d f690 84be 783e e0bd
00000340: 9624 343e ebf6 2cbe 99a3 57be 6b39 1d3d
00000350: 15e9 cf3c b425 933e 567b c03d f679 aabe
00000360: fd22 293d 57ee 623d b739 6a3e a59b b5bd
00000370: 15fd 8e3d a975 7a3c 7c9f 6b3e 7b06 7f3d
00000380: c596 afbd d309 0b3e a4fd 5ebe 9865 fdbd
00000390: f924 72bc 1d27 acbd c58a 99be b35a 963d
000003a0: 8980 423e 3c29 60bd 1fb5 433e ec3d bf3d
000003b0: a508 433e fab2 6f3e 9984 b43e 5057 673e
000003c0: 8795 4b3e 8ba3 d03d 303a 08be a1da 09be
000003d0: 9392 053e b52f b0bd 06a5 31be c7e8 f8bd
000003e0: a77a b7be 976c 0bbe
-0.0780182 -0.021887979 -0.020275105 -0.120888576 -0.09062581 -0.034295134 -0.25974607 -0.069273554
0.1371061 0.104253806 0.09043504 0.0027992586 -0.26949298 -0.22113474 -0.035421643 0.13287297
0.075178035 0.030750223 -0.34363654 -0.04145394 0.047478795 0.10517997 0.2121508 0.18973328
-0.15759197 -0.035137635 0.01599182 -0.17111361 -0.122875005 -0.14598928 0.026867544 0.015497413
-0.0044599 -0.127514 0.15387169 -0.0992833 0.2071875 -0.042973217 -0.16776454 -0.10224268
-0.032108303 0.052260682 -0.26780552 0.10581633 0.15585296 -0.12510553 0.15737249 -0.24979909
-0.010038508 -0.1890888 -0.089233756 -0.3200175 -0.18415992 -0.25745282 -0.19214702 -0.36105525
-0.2865861 -0.23866941 0.10254714 0.08723955 -0.29593793 0.108870186 0.30377686 0.16848685
-0.08188946 0.367094 0.23935047 0.10133206 0.09496029 0.04537859 0.15444739 0.18332191
-0.06966022 0.08626854 -0.006144166 0.06965468 -0.13815245 -0.11109355 0.13097768 -0.032406405
0.12502168 -0.013963216 -0.1108489 0.203127 0.19139487 0.104179755 0.16831943 -0.17344603
-0.23128434 0.19731002 -0.18953378 0.034424644 -0.27100763 -0.29447767 -0.14329973 -0.07247216
0.13038416 0.20397666 -0.10119915 0.016822485 -0.0070632845 -0.16901042 0.24287479 0.09514959
-0.11703657 0.018782299 0.0860797 0.2504595 -0.042321436 0.22018121 0.055724934 -0.09946
0.21032116 -0.3065941 -0.17963627 -0.022182483 0.21141593 0.15754865 0.10186704 -0.022297777
-0.11980077 0.058634337 0.15882385 0.13804616 0.14590336 0.26042956 -0.12245981 -0.18133116
-0.29344642 0.09481829 0.21758305 0.27257425 0.0012264231 0.1245079 0.22024438 -0.045476694
0.23068015 0.031653292 0.1392188 0.22721091 -0.028958471 0.13716806 0.20364068 0.16955955
-0.10726651 -0.0458669 0.03657111 0.13513611 -0.04614133 -0.07883837 0.13073407 0.18072665
-0.22571938 -0.16011426 -0.20458722 0.07156363 0.2893496 0.26179007 -0.07322654 -0.035489086
-0.112150155 -0.026727214 -0.09461725 0.093859755 -0.11772131 0.24707074 -0.017623486 -0.12813556
-0.005700371 -0.15083413 -0.043076992 -0.18561007 -0.133131 0.15079342 -0.07364697 0.09200856
-0.04352798 0.27293232 -0.014712333 -0.28882298 0.18580961 -0.14991878 0.25321734 -0.20573623
-0.09012537 -0.013675143 -0.06121334 0.16307512 -0.11495378 -0.16282764 -0.1165928 0.27205953
0.044903066 -0.13783298 -0.10492244 0.007895659 0.22685716 -0.23661327 -0.09232985 -0.15975496
-0.092796154 0.016636606 0.23464742 0.29936817 0.03813079 0.037031606 -0.25891846 -0.10949415
0.17592081 -0.16891067 -0.21058501 0.038384836 0.025379697 0.28739703 0.093985245 -0.33296174
0.041293133 0.05540308 0.22873579 -0.088675775 0.06981865 0.015286841 0.23010057 0.06226204
-0.08573679 0.13577966 -0.21776444 -0.12372893 -0.014779323 -0.08405898 -0.29988685 0.07341518
0.18994345 -0.054726824 0.19112061 0.093379825 0.19046266 0.23408118 0.35257414 0.22591901
0.19881259 0.10187443 -0.13303447 -0.13462307 0.13044195 -0.086028494 -0.17348108 -0.12153774
-0.35835764 -0.13615642

bias f4 [10]
00000000: f9da b8bc aadf b3bd 31dc 54be 64a0 133a
00000010: 5dea 8ebe be18 78be 951a 29be 1439 67be
00000020: c4e5 4fbe 9d96 02be
-0.022565352 -0.08782895 -0.20787121 0.0005631505 -0.2791318 -0.24228188 -0.16514046 -0.22580367
-0.20302492 -0.12752767

weight f4 [20, 10, 5, 5]
00000000: 2064 32bd 9259 40bd d0de 42bc de79 d83d
00000010: 4fa3 1fbd 6930 78bd cfd6 34bd 3139 2dbd
00000020: 2d87 99bd 8a90 313d 174f f7bc ccb4 fdbc
00000030: 8946 b4bd 5eb2 0ebe 33e1 c7bd 58be 44bd
00000040: 3f58 67bd 4186 8cbc ded6 a3bd 3ce5 fcbd
00000050: 0c10 87bd 4a47 36bd 4cb2 e23c e229 bbbd
00000060: a33b a5bc 389b 23be af0f ddbd ed5b 1cbd
00000070: 1b7c 1e3c 9018 88bd 52d4 68bd 97f1 42bd
00000080: 2abf 8d3c afec 903d aa60 5f3c b7c7 8bbd
00000090: 2726 1fbe bc77 7fbd b07f 3d3d 1011 abbb
000000a0: 268c a4bd ce12 79bc 4d9c 833c 5f3e cc3d
000000b0: d519 643c 61bf 56bc 6545 0fbd c7cf 1cbc
000000c0: 3ce5 46bd d370 b6bd 4e31 6e3e 419d b63d
000000d0: 6c78 443d bb38 d0bd 2461 20be c0ee 0e3e
000000e0: d787 b33d 8bfe 6abc faaa e7bd c103 3dbd
000000f0: f27e 263e 22be c63c 7c42 d9bb 5712 313d
00000100: 3a06 353c 403b 9ebd 89f6 21bd d177 403d
00000110: 8f28 773c 3dcd 26bd 6d77 103e 2d5f 5c3d
00000120: 6ecf 433d 53c6 823d e51a 7dbd 33f8 1bbd
00000130: 65a8 ce3d 494c af3d eaa5 ed3d 2d71 58bd
00000140: 44de c6bd c6fd 623a d7e8 f2bb 1508 1e3d
00000150: 6f8e 63bd 1150 153d 8e55 1f3c 5d16 92bb
00000160: c247 f4bd 481e d0bd 228e 8dbd 0f75 10bd
00000170: 2b09 01be e44e 04be 5a23 11be fc3e a5bc
00000180: 70e1 913a 608d debd 11bc 9fbc 03ec 35bd
00000190: 2ec6 653d 79a0 0c3c 277d 023d 9f5f a13d
000001a0: 6773 943d 002b 1dbd eae6 45bd 2e7b 723d
000001b0: b9bc b03c 17e5 2c3c 100e a93c 0e60 043d
000001c0: 4b16 25bd e72a 6b3d b829 3e3d ade6 33be
000001d0: 3055 0bbe a9fa ddbc 5cb7 c03d 7513 833d
000001e0: 2b92 05be da85 e7bd fdb9 3cbc e6bb 3c3e
000001f0: 04af 033c fe86 683c 3d0d 853d 3c41 0b3e
00000200: 75a1 e23b 64b3 4a3e e4e0 063b 0a78 d4bd
00000210: fdc5 39bc de8e 773d cfe3 363e 908f ac3b
00000220: b330 f7bd 4656 4fbd 3e55 553c 69d4 bb3d
00000230: 6914 23be 4370 32bd e359 2fbd 006d 9f3d
00000240: 6eb7 babd d8b4 20bc 8977 22bc 9759 b63d
00000250: 0e02 1a3c 519b f9bd 0d36 f13c 61c4 943d
00000260: ae5e f43b 6b2b 00be 2cc2 20be 274b 9e3d
00000270: e065 9dbd a63f abbc f543 b6bc 088a fbba
00000280: 8660 e23d 22c2 96bd b364 99bc d215 b33d
00000290: 32cf bf3b 8707 9b3d d1e6 883d 7e0f 6c3d
000002a0: 4750 0abd dc9d de3c ae57 20be b648 b8bc
000002b0: e231 443d b1f5 133c 63d6 603d 417d d6bd
000002c0: a363 98bd 9056 7bbd d2cd 1fbe 496f debb
000002d0: d850 d7bc 20db a2bd 5272 e9bc 7a05 bd3c
000002e0: f5c9 a2bd 4981 993d b2af 153d 95e4 083d
000002f0: 06c8 d03d 78d1 15bc 26fc 6dbd 6580 da3c
00000300: 0388 143e 8a48 b93d f311 0c3d f873 d4bd
00000310: 45a5 0e3e 70c4 443d 8562 0e3e d8b8 403d
00000320: 3268 a23a 9a8e 35bd 92ea 51bd da14 073d
00000330: c659 87bd 767e 80bd dcff dbbd 55ba 033d
00000340: a681 b53d 33cd db3d 44f4 84bd 4632 5abe
00000350: e875 0a3b e5eb e23d 049f b33d 6e41 a73d
00000360: 921b 45bd 1b6e e2bc 6b19 003e 4f47 003c
00000370: eace 7ebd a88d 93bd e335 9e3d c6a2 8b3d
00000380: a838 85be 45e4 f13d 06df 1a3e 6cd3 2d3e
00000390: 56c6 43bb b8ff adbc 4486 b43d 6672 043d
000003a0: 727b fa3c df76 13bd bf1e 28bd 4dab 72bc
000003b0: 0f19 18bd e12d 81bd ed52 96bd 2c6b cb3c
000003c0: 92a6 143d cd0a 95bc 08c7 57ba d2a3 cebc
000003d0: 1e02 a3bd c1bd 043d 50ab b53d 9eb7 b33d
000003e0: 5767 df3a b2fc c6bd f8f1 58bd 183b 23bd
000003f0: b4e2 3bbc 3e9c b5bd 0286 63bd 5a37 dfbd
-0.043552518 -0.04696042 -0.011893943 0.10570119 -0.038974103 -0.060593043 -0.04415017 -0.04229087
-0.07496486 0.043350734 -0.03018908 -0.03097 -0.08802516 -0.13935229 -0.0975975 -0.04803309
-0.056480642 -0.017153861 -0.07999967 -0.123484105 -0.065948576 -0.04450158 0.02767291 -0.09138848
-0.020170039 -0.1597718 -0.10794007 -0.038173605 0.009673144 -0.0664531 -0.05684311 -0.04759368
0.017303068 0.07076394 0.013633886 -0.06825202 -0.15541898 -0.062370047 0.04626435 -0.00522054
-0.08034544 -0.015202237 0.016065741 0.09972834 0.013922174 -0.013107152 -0.03497829 -0.009571022
-0.04855846 -0.08908238 0.23260996 0.089167126 0.047966406 -0.101670705 -0.15662056 0.13958263
0.08766144 -0.014342914 -0.11311908 -0.046146158 0.16259363 0.024260584 -0.00663024 0.04323038
0.011048848 -0.07726145 -0.039541755 0.046989266 0.0150853535 -0.040723074 0.14108057 0.053801704
0.047805242 0.063854836 -0.061793227 -0.038078498 0.100907125 0.08559472 0.11603911 -0.052842308
-0.097103626 0.0008659031 -0.0074130106 0.038581926 -0.055555757 0.03645331 0.009724988 -0.0044582323
-0.11927749 -0.10162026 -0.06911875 -0.035267886 -0.12601154 -0.1292072 -0.14173642 -0.020171635
0.0011129808 -0.10866809 -0.019498857 -0.04441453 0.056097202 0.008583182 0.031857636 0.078795664
0.07248574 -0.038371086 -0.04831592 0.059199505 0.021574365 0.010552666 0.020636588 0.032318167
-0.040304463 0.05741396 0.046426505 -0.17568465 -0.13606715 -0.027097063 0.09409973 0.064001955
-0.1304404 -0.11304827 -0.011518952 0.18431053 0.008037332 0.014192341 0.064966656 0.13599104
0.00691622 0.19794995 0.0020580823 -0.10374458 -0.011338708 0.060438983 0.1786034 0.0052661374
-0.120698355 -0.050619386 0.013020812 0.091713734 -0.15925755 -0.043564092 -0.042810332 0.07784462
-0.09117018 -0.0098087415 -0.009916195 0.08903807 0.009399904 -0.121878274 0.029444719 0.07264019
0.0074575758 -0.12516563 -0.1569907 0.07729178 -0.07685447 -0.020904373 -0.022249201 -0.0019190917
0.11053567 -0.07361247 -0.018724775 0.08744396 0.005853557 0.07569795 0.0668465 0.057631962
-0.033767965 0.027174883 -0.15658447 -0.022495609 0.047899134 0.009030745 0.054891955 -0.10473109
-0.07440879 -0.06136185 -0.15605858 -0.0067881686 -0.026283666 -0.07951951 -0.028496895 0.0230739
-0.079486765 0.07495362 0.03654451 0.033421118 0.101944014 -0.0091441795 -0.058101796 0.026672551
0.1450501 0.09047039 0.034196805 -0.10373682 0.13930233 0.0480389 0.1390477 0.04705128
0.0012390672 -0.04432545 -0.051249094 0.03297887 -0.0660892 -0.062741205 -0.10742161 0.032160122
0.08862619 0.10732498 -0.064919025 -0.2130824 0.0021127407 0.110801496 0.08770564 0.081667766
-0.048121996 -0.027640393 0.12509696 0.007829501 -0.062209047 -0.07204753 0.07725122 0.06818156
-0.26019788 0.11811117 0.15124139 0.16975182 -0.0029872856 -0.0212401 0.08814672 0.03233566
0.030576441 -0.036002036 -0.041044947 -0.014811349 -0.037133273 -0.06307579 -0.073400356 0.024831377
0.036291666 -0.018193627 -0.0008231257 -0.0252246 -0.07959388 0.032407526 0.08870566 0.087752566
0.0017044347 -0.097161666 -0.052965134 -0.039851278 -0.011467624 -0.088676915 -0.05554772 -0.10899229

bias f4 [20]
00000000: 2260 a1bd 3e00 713d 6cde 5f3d ca3f 853c
00000010: 663f b13d 3697 523d 2366 9b3d abc2 d83b
00000020: b218 13bc 4db5 f13c 3771 9c3c d11a 453d
00000030: aae5 ebbc 60be a93d 2312 88bd 2a48 3d3d
00000040: 9502 b83b 1425 75bd e032 383c cee2 ea3c
-0.07879664 0.05883812 0.054655477 0.016265769 0.086546704 0.051413737 0.075878404 0.006615003
-0.008978056 0.029505396 0.019096954 0.048121277 -0.028796036 0.08288264 -0.06644084 0.0462114
0.005615542 -0.059849814 0.011242598 0.028672602

weight f4 [50, 320]
00000000: a6d8 3fbd 26f4 b93c 3797 a83c ac50 fdbb
00000010: 638c 073b 76dc 91bd c395 d43d 89a1 3dbd
00000020: c366 413d 1e3c ff3c 686c 3fbd f70f bebc
00000030: 6b54 b7bb 77d4 f63d 19f3 26bd 89e5 42bd
00000040: bf33 463d 41e6 043d 3937 a73d 29c3 70bc
00000050: 1067 58bd 4b05 923c a423 08bd a30a 3d3e
00000060: c5a0 0dbd 5791 f5bd e476 01bd dd85 8c3e
00000070: a8d7 acbd 8095 14be 3697 bb3c 38da d6bc
00000080: da30 d83c 1876 373c 5272 903d 3360 4f3d
00000090: 1ba3 d5bb de65 72bd 4fd6 1d3c 0f38 dabc
000000a0: 2120 e03c 9080 d33c 7848 193e a740 8dbd
000000b0: 875d 26bc 6c44 c4bc 51e0 c0bd fc7d 403c
000000c0: aaab 2e3d 0f82 18bd d9ec 393d 2ec8 aebd
000000d0: 76d7 b33d 1114 4cbd 561c 85bd 015d 4f3d
000000e0: cc5c 713d 73bd 10bd c1a5 13be 77f0 413e
000000f0: dc04 e73d 9996 de3b 0af6 e9bc 6239 8dbc
00000100: ed5b c53d 971e 2c3d b086 833d 179b 09be
00000110: 017a fb3c c41b 203d 6261 823d 1b43 bbbd
00000120: e95a dcbd 8815 44bc e1b2 a7bd f619 4fbc
00000130: b203 923d 0322 0cbd 89c7 ea3c 3c6b 17bd
00000140: 3936 9c3d f15b 8d3c 13d6 143b 061b 11bd
00000150: 1a52 f9bc e4d7 833d 1848 873b bf36 5c3d
00000160: 4c5d 1bbc 4b50 b4bc 4618 bfbd cfa2 30bd
00000170: acdd 81bc 065a 0dbe 37bd a3bc 1af6 ae3c
00000180: f8b1 14ba 6831 afbc 1fd6 aebd d051 9c3c
00000190: 095d 963d 5a65 a5bd db2c 89bb 1631 d33d
000001a0: 1e87 343d a328 e1bc 69e7 3bbd c950 f73d
000001b0: 9239 f73d a60f 733c 6f76 28bc 17e6 e6bd
000001c0: 24d4 043c 886b 11bd 1e9d f0bd 7ff6 933d
000001d0: 7aaa c03d 37ed adbd 3412 88bd 0f23 a63d
000001e0: c9bc bdbc 0293 d3bd fd81 b53d bb1c 833e
000001f0: ca31 733d f44e 593d 2688 37bd 245d 6b3d
00000200: 54f0 d9bc fe34 2ebd 7090 fc3d 0d9a ca3d
00000210: d45b 4cbd 5d13 8abd 81cd 4abe 8994 b53d
00000220: 4f1c e7bc 86ac c83d fda2 0bbe d19b 503d
00000230: 7486 323d dd09 053e ccca fabd b53e 553d
00000240: 6b04 ae3c 3928 d1bd c7b5 6abd 8116 023e
00000250: 611a 1c3e a7e0 70bc 3e42 0e3d 457d 143d
00000260: 9a77 adbc 516a 0fbe f49d ffbd 4a6e 8dbd
00000270: 2433 0e3e 4a11 89bd d4c4 063d 860a 6b3d
00000280: 2b11 e43d cc4a 86bc eb59 94bc 8f82 833e
00000290: 6997 c23b 11b4 a5bb 36c4 973d ed42 b83d
000002a0: f91a 583d 6dca 85bd 717d afbd 12f1 16be
000002b0: 214f a1bd 5ebe 6ebd 0dff 60bc baac 433c
000002c0: c46e 0bbd bb02 bd3d d016 60bc 3c06 48bd
000002d0: f54f 81bd a3f4 db3c eb5a bdbd f830 5dbd
000002e0: 10c8 92bc 4aee be3d 8c8c c03c 0df0 25bd
000002f0: 45cd fabd 6675 8ebc 8566 d1bc 6b66 8dbd
00000300: 4f69 0e3b 1289 a93b 89ab 2b3b 1a4c 0530
00000310: d698 cd3b e0de 143b a086 11ba 0a85 afb2
00000320: 49cb f73a 5dbe 6d39 0076 24af 07d1 a5b0
00000330: cff1 39b5 76d0 d4a7 8081 ab01 3c1a 5613
00000340: f6ba a33c 9c39 123d f045 32ba cee7 dfbd
00000350: 5f9d 5e3b f11b f9bc 333d 893c 887c 2abd
00000360: 951b 3abd 4467 fe3c 179e 50bd 6821 fc3d
00000370: 6b26 013c cf50 e33c bb9d a2bc 9172 123e
00000380: 10ee c5bc 2c3d 64bd e2d9 cdbd 8ef2 343d
00000390: d76d 3c3d ae0f 1b3d e54f e63a 2f18 fc3b
000003a0: a84e ee3d 1e35 b4bc e9a9 d63d 02bb 3f3e
000003b0: 2a70 cdbc 3a30 213d 7ab4 96bd c065 8bbc
000003c0: 93fb 3c3d ffeb b43c 6557 073e 133f 89bd
000003d0: 1180 933c 44a9 ac3c e7b6 8d3d a5f6 6cbd
000003e0: 0705 a8bd b02c 3f3d ff91 9bbd 896d 32bd
000003f0: 2feb ffbd d672 6a3d 278b f73c 4358 a9bc
-0.04683747 0.022699427 0.020579917 -0.007730564 0.0020683042 -0.07122128 0.10380127 -0.04629663
0.04721714 0.031156596 -0.046734244 -0.023200972 -0.00559478 0.12052243 -0.04075918 -0.047582183
0.048389193 0.03244615 0.0816483 -0.014694967 -0.052832663 0.01782479 -0.033237115 0.18461089
-0.03457715 -0.11990612 -0.031607524 0.2744588 -0.08439571 -0.14510155 0.022899251 -0.026227102
0.026390482 0.011197589 0.07053055 0.050628852 -0.006519688 -0.05917918 0.009633615 -0.026638059
0.02735907 0.02581814 0.14969051 -0.06897097 -0.010154135 -0.023958407 -0.09417785 0.011748787
0.04264418 -0.03723341 0.04539189 -0.08534275 0.0878133 -0.049823824 -0.06499545 0.050625805
0.05892639 -0.035336923 -0.14418699 0.18939386 0.11280224 0.006792855 -0.028559703 -0.017239276
0.09636674 0.04202136 0.06422174 -0.13438068 0.030697824 0.03908898 0.063662305 -0.09143659
-0.10759527 -0.011968024 -0.08188415 -0.012640467 0.07129611 -0.034212124 0.028659599 -0.0369675
0.0762753 0.017255755 0.0022710606 -0.035426162 -0.030434657 0.06437662 0.0041284673 0.053763147
-0.009482693 -0.022010943 -0.09330802 -0.043124016 -0.015852772 -0.13803872 -0.019987686 0.021357585
-0.00056722714 -0.021385863 -0.08536934 0.01908198 0.07341964 -0.08075972 -0.0041862554 0.10312097
0.04407417 -0.027485197 -0.045874987 0.120759554 0.120715275 0.014835274 -0.010282143 -0.11274355
0.008107219 -0.03550294 -0.11748718 0.0722475 0.09407516 -0.08492511 -0.06644097 0.08112156
-0.023161309 -0.10330774 0.08862684 0.25607857 0.059373654 0.05305381 -0.044807576 0.057461873
-0.026603855 -0.042531006 0.12332237 0.09892664 -0.04989226 -0.067419745 -0.19804956 0.088662215
-0.02821174 0.09798531 -0.13636394 0.050929848 0.043585256 0.12992044 -0.12245712 0.052061755
0.021242341 -0.1021275 -0.057302263 0.12703897 0.15244438 -0.014701999 0.034731142 0.03625228
-0.021175195 -0.140054 -0.12481299 -0.069058016 0.13886696 -0.06692751 0.032902554 0.057383083
0.11136087 -0.016393088 -0.018109282 0.25685546 0.0059384597 -0.005056866 0.07410471 0.0899714
0.052760098 -0.0653275 -0.08568848 -0.14740399 -0.07876421 -0.058287017 -0.013732684 0.011943037
-0.03404118 0.092290364 -0.013677314 -0.04883407 -0.06314079 0.02685005 -0.09245857 -0.05400178
-0.017917663 0.09322794 0.023504518 -0.040512133 -0.12246183 -0.017389964 -0.02556158 -0.069043
0.002173025 0.0051738108 0.0026194772 4.8493265e-10 0.006274323 0.0022715852 -0.0005551372 -2.043318e-08
0.0018905188 0.00022672997 -1.4957635e-10 -1.2064739e-09 -6.926975e-07 -5.9067834e-15 6.30013e-38 2.7023532e-27
0.01998661 0.03569947 -0.00068005826 -0.10932885 0.0033968312 -0.030408831 0.016752815 -0.04162267
-0.04543646 0.0310551 -0.050932016 0.12311059 0.007882695 0.027748493 -0.019850602 0.14301516
-0.024161369 -0.0557224 -0.100513235 0.04417663 0.04600319 0.03785675 0.0017571418 0.0076933126
0.11636096 -0.021997984 0.104816265 0.18723682 -0.025077898 0.039352633 -0.07358642 -0.017016292
0.046138357 0.022085188 0.13216932 -0.067014836 0.018005403 0.021076806 0.069196515 -0.057852406
-0.08204084 0.046673477 -0.07596206 -0.043561492 -0.124960296 0.057238422 0.03021772 -0.02067197

bias f4 [50]
00000000: 1126 833e d1bb cc3d 1944 ee3e a7b1 083f
00000010: e61d 223f 9ffc 1c3f 745c da3e 67f1 1c3f
00000020: b6d0 313f c9b7 373f b7e1 a43e 25f6 013f
00000030: 13d8 e23e 8255 8b3e 3347 a43e 5415 be3e
00000040: 5dbf 123f 820b b93e 4c80 033f 2d1d 5e3e
00000050: 44aa 3b3e bd32 fd3e b1d8 153f 7bbb 263f
00000060: 3e94 163f 9b50 973e 182d 063f 4b94 043f
00000070: f68e 4d3c 85e4 b53e 0db0 803e ab9d e93e
00000080: 4280 ee3e 8bf4 093f d1e1 a13e ac45 e43e
00000090: 3d72 f13d e2a1 cf3e e4e4 de3e a576 b83e
000000a0: 9fc3 0b3f a965 ac3e 3417 863e fadb 33bd
000000b0: 287d 0f3f 1c16 eb3e 331a 0d3f 3037 293e
000000c0: 374d 1d3f 0a92 053f
0.2561498 0.09996761 0.4653633 0.53396076 0.6332687 0.6132297 0.4264866 0.6130585
0.6945909 0.7176481 0.32203457 0.5076621 0.44305477 0.27213675 0.3208557 0.37125647
0.5732325 0.36141592 0.5136764 0.21690817 0.1832667 0.49452773 0.5853377 0.6512982
0.5881995 0.29553685 0.5241256 0.5178878 0.012546292 0.3552591 0.25134316 0.45628104
0.46582228 0.5388877 0.31617597 0.44584405 0.11789367 0.40553194 0.43534005 0.3602802
0.5459537 0.3367131 0.26189578 -0.043910958 0.5605035 0.45915306 0.551181 0.16524959
0.61445946 0.5217596

weight f4 [10, 50]
00000000: 9e0d 723d 860d 35be ddde 45be 7a75 1cbd
00000010: 7405 7e3d 2105 a0be 9fab 0abe a7bd 9abe
00000020: a682 9fbc 9382 58be f98c 803c a707 2bbe
00000030: bed6 d5bb 46c0 22bd b9cd 343d 1fe8 a03c
00000040: d1a6 e73c 0211 19be bb36 acbe 5a99 243d
00000050: d9dd 8cbe 9104 aa3d 38c3 bcbe 35e0 d33d
00000060: 190b 35be 3cdb 0b3d 1763 73be 41af 92be
00000070: 4a4d ef3b 1f98 f4bc 84c8 0d3d d32e 393c
00000080: 9f80 7cbe 952d 6d3c c5f4 a53a 8c11 0fbd
00000090: 2258 65bd 3b85 26be 16cd 80be dd5d 193d
000000a0: 9893 3fbe d836 6bbe b5bd 9f3c d2e7 d1bc
000000b0: d140 c5be 55ef f8bd 8891 303b b1d4 9c3d
000000c0: 1265 b2be c7da 643d f16c 81be 85a1 59be
000000d0: 5b7e 97be c6a5 813d eaee 5d3d ab84 563b
000000e0: 7bc5 d33d 6d58 0b3d 877c db3d 80b4 923d
000000f0: 44b0 b1be 96c0 afbc f760 ffbe c81f 81be
00000100: 8c58 d9be 0237 b6be 4339 7a3b bbdc 483c
00000110: a8b2 81bc c5f7 d9be ccbd 3fbe 0a96 9a3d
00000120: 8b6f ae3d 243f 34be 137e 633d fc19 aebe
00000130: 4098 e53d 6bb7 71be 3c65 9ebe 7c94 233d
00000140: 68c6 ddbe 5405 e0be 5d77 9a3c 87af b53d
00000150: 1c1d e3be f96f a53a b299 b7be 661c 573e
00000160: 7a86 b7be 8874 8fbe da98 51bd 0eec 9dbe
00000170: 0631 edbe 54ff 5abc ed36 183d b3af f93c
00000180: e430 853c 2fbe a8be a8fb 933d 3818 83be
00000190: 35b4 793c 62f8 d1bd c264 0d3d e3f8 75be
000001a0: fcff 92bd 775d 373c d536 01be c6dc 2d3d
000001b0: 7789 43be 77e8 9dbc 4b87 c53c 0a34 49be
000001c0: b6e6 aabc 79ed 3ebe 0aba 383c 46b3 d7bd
000001d0: 3ecf 433d be80 8ebc 40d0 383d b961 653d
000001e0: 80bd 3dbe c661 03bd 98a7 e63c cf39 5dbe
000001f0: a969 9ebd f3d7 843d 6c64 10bd 9821 11be
00000200: be8d 23be 3d3e 9dbe df8f d23c 8047 3dbe
00000210: 3c1c 01bb 4c17 c5bd 1f35 6cbe 7181 403d
00000220: cb8e e2bb ac72 19be 8680 90bc 416e b2bc
00000230: e2c7 24be d224 5e3d 239e 1fbd 86a2 103d
00000240: 2481 f6bd 4674 523c 38cc b7bb 2240 f2bd
00000250: 3a5f b63b d4a7 5fbe e6fd 9bbd f8ac 8b3b
00000260: 07d2 ec3c 43f5 a6be 54f8 173d dca7 3cbe
00000270: a023 d5bd 180c 14be 1070 923d c4f4 32be
00000280: b3c6 39be dcb3 69be 0188 0fbe c780 9f3d
00000290: 38f7 04bb be04 933b 3d75 d9bd 4f7f 253d
000002a0: 3a75 db3a 1a2e e33c 345d debb 66f8 58be
000002b0: ad32 9abe 52b8 f4bd c79d 63be 9318 64be
000002c0: fc09 10be d18e 243d c415 5fbe afba 39bd
000002d0: b02c f63b 77ef cfbc 6225 943c e4a2 07be
000002e0: 09fa b5be 34ae 0f3d 6ca6 c0bd cf58 4fbe
000002f0: 693e 8eba e415 c73c 27f4 a6bd ec98 04be
00000300: e326 4abe dc8a 573b bca8 3f3d 4b24 6c3c
00000310: 9e2c 783c ae29 1ebe db37 e83d f20e d13c
00000320: c14f fa3c 2b41 02be 634f b63c d006 92bb
00000330: 4105 5bbe 3f83 f0bb c524 1fbe ea1e 02bd
00000340: 99d4 81be bc70 8a3d bc51 0a3c ea12 be3c
00000350: 6732 bf3c 9b1f 2abe 226c cbbd 44de a5bb
00000360: 4444 50be 77ea 4bbd ec59 713d 6d0a 4bbd
00000370: 0346 78bd e96c 87be 0eae 23be c608 32be
00000380: 103d 16be a4d0 103d ad0b 52be f25c 473c
00000390: 2775 443c dc03 343b 7465 29be 5519 4f3b
000003a0: 15e5 933b fdb4 99be 3149 043c 74a8 97be
000003b0: 29df 1fbe 96c3 f13d dfc6 983c 62bd 93be
000003c0: a0cf f33c 8bd2 f83c 841b 07bd 48c8 0f3d
000003d0: 26c9 8abc 0107 8abe 3e1f 4cbe 7423 69be
000003e0: 5856 163d ff44 6ebd e8c1 93be f7a8 9f3d
000003f0: 82d0 b13c 9e7c ffbd 033f 583b 83ef 70be
0.059095018 -0.1768094 -0.19323297 -0.038197972 0.06201692 -0.31253913 -0.13542031 -0.30222818
-0.019471478 -0.2114356 0.015692221 -0.16702138 -0.0065258434 -0.039734147 0.044141505 0.019641934
0.028277786 -0.14947894 -0.33635506 0.04018531 -0.27513006 0.08301652 -0.3686769 0.103454985
-0.17680015 0.034144625 -0.23768269 -0.28649333 0.0073029147 -0.029857693 0.034615055 0.011302668
-0.2465844 0.0144762 0.0012661448 -0.034928843 -0.055992253 -0.16261761 -0.25156468 0.03744303
-0.18708646 -0.2297014 0.019499639 -0.025623236 -0.38526013 -0.12155024 0.0026942212 0.07657755
-0.34842736 0.055872705 -0.25278428 -0.21253021 -0.2958859 0.06330447 0.054182924 0.0032732885
0.10340401 0.034019876 0.10717111 0.07163334 -0.34704792 -0.021454137 -0.49878666 -0.2521956
-0.42450368 -0.35588843 0.0038181103 0.0122596575 -0.01583226 -0.42571846 -0.18724746 0.07548149
0.08517369 -0.17602211 0.055540156 -0.340042 0.1121068 -0.23605125 -0.3093661 0.039936528
-0.43315434 -0.43754065 0.018855745 0.0887137 -0.44358146 0.0012621871 -0.35859448 0.21006927
-0.35844785 -0.28018594 -0.05117116 -0.30844158 -0.46326464 -0.013366539 0.037161756 0.030479288
0.016258664 -0.329576 0.07225734 -0.25604415 0.015240719 -0.102524534 0.03451992 -0.24020724
-0.071777314 0.011191717 -0.12618573 0.042446874 -0.19095407 -0.019275887 0.024112364 -0.19648758
-0.020861965 -0.18645276 0.011274824 -0.105322406 0.047805063 -0.017395373 0.045120478 0.0560014
-0.1852932 -0.032075666 0.028156087 -0.21604083 -0.07734997 0.064865015 -0.03525202 -0.14172971
-0.15972039 -0.30711547 0.025703369 -0.18484306 -0.0019700667 -0.09623584 -0.23067139 0.046998445
-0.006913995 -0.1498515 -0.01763941 -0.021781089 -0.16091874 0.054234333 -0.03896917 0.035311244
-0.1203635 0.012845105 -0.0056090616 -0.118286386 0.005565551 -0.21841365 -0.07616787 0.004262563
0.028908743 -0.32608995 0.03710206 -0.18423408 -0.104071856 -0.14457738 0.071502805 -0.17476183
-0.18142204 -0.22822517 -0.14016725 0.07788234 -0.0020288955 0.0044866493 -0.106180646 0.040404614
0.001674331 0.027731944 -0.006786013 -0.21188506 -0.30116788 -0.11949219 -0.22228156 -0.22275
-0.14066309 0.040175263 -0.21785647 -0.04534405 0.0075126514 -0.02538274 0.018084232 -0.13245732
-0.35542324 0.035078242 -0.094067425 -0.20248722 -0.001085234 0.02430243 -0.08152037 -0.1294896
-0.19741397 0.0032889163 0.046791777 0.01441295 0.015147356 -0.15445587 0.113387786 0.025519822
0.030555608 -0.12720172 0.022254651 -0.0044563785 -0.21388723 -0.0073398645 -0.1554137 -0.031767763
-0.25357512 0.067597836 0.008442339 0.023202378 0.023339463 -0.16613619 -0.09932734 -0.0050618965
-0.20338541 -0.04978415 0.058923647 -0.04957049 -0.060613643 -0.2645028 -0.15984365 -0.1738616
-0.14671731 0.035355225 -0.20512266 0.012168156 0.011990822 0.002746812 -0.16542608 0.0031600792
0.0045133927 -0.30020896 0.008074091 -0.29620707 -0.15612473 0.11804883 0.018649517 -0.28855425
0.02976209 0.030373832 -0.032985225 0.035103112 -0.016941618 -0.2695847 -0.19933793 -0.2276743
0.036703438 -0.05817127 -0.28858876 0.07795899 0.02170587 -0.12474941 0.0032996542 -0.23528866

bias f4 [10]
00000000: 78aa 55bf c9df 20bf 138d 89bf d5b6 62bf
00000010: 78c0 7dbf dc46 96bf a1ca 75bf fd27 69bf
00000020: 5b07 a0bf 7cc5 91bf
-0.8346324 -0.6284147 -1.0746177 -0.8856023 -0.9912181 -1.1740375 -0.9601231 -0.9107664
-1.2502245 -1.1388392

exp_avg f4 [10, 1, 5, 5]
00000000: 3fd0 5e39 53c3 2c39 57c8 adb6 7a6e 1439
00000010: 38d7 0e39 4083 aab9 94bd 73b7 429b 7137
00000020: 2454 ceb7 f5a4 8bb8 5099 27b7 9b04 8939
00000030: c82e 1e38 a54d 6a39 c0db 1039 9685 3438
00000040: 4850 5039 282e ccb7 d950 1639 a3ac 3839
00000050: e252 d739 9ed5 003a 7cfd d438 3363 3c39
00000060: 0209 2439 2ca4 69ba 5c1f 16ba 45f6 abb9
00000070: 9148 5bb9 e555 b639 2508 81ba 3701 8cba
00000080: eef5 01ba 582f 0fb9 21e5 6c3a 0e19 a7ba
00000090: b04b b2ba a6ac 1eba f6c5 25b9 d02d 653a
000000a0: f550 84ba 83f4 6fba 8f45 9bb9 e406 8638
000000b0: 9173 5c3a 6731 3cba 7860 a3b9 fb65 1cb9
000000c0: 89e1 4c39 89cc bf39 de4c b1b7 409c aab6
000000d0: 6078 cfb9 8e62 12ba 5dfd b9b9 4e58 3539
000000e0: 8bcb e739 0cb6 08b9 d80e aeb9 3ac9 1ab9
000000f0: 53d8 d639 a459 7838 d7cf e8b9 2d9a 32ba
00000100: df7c abb9 36ab e739 9b97 9139 72d4 9cb9
00000110: e151 3bba 57a6 87b9 e350 513a 47a8 2d3a
00000120: 2151 8939 b352 bab9 e8af 0038 b69e e839
00000130: 4723 f039 f66d d639 e062 2f39 3b31 1d39
00000140: 7fc2 463a 0564 3b3a edc7 393a ab60 5d3a
00000150: 205c 233a 1738 803a bea6 8c3a da55 1f3a
00000160: 55e7 333a 53b1 d939 7fe7 9139 4689 a439
00000170: defb cd38 ad29 c638 216c be38 9d82 8039
00000180: 7365 0339 4470 9eb8 bebb 6c39 605d 6e36
00000190: bbb5 8cba 8c79 8eba e763 39ba 2a7c b1b6
000001a0: 9ca3 7339 678c 79ba 4bf3 6dba c94e eab9
000001b0: 1dbe 7839 28c1 093a 4e9b b9b9 de65 f5b8
000001c0: 21f0 273a 9216 793a cce1 143a 009c d9b9
000001d0: 254c 9139 3449 753a 3e4a 9d3a f33d 6c3a
000001e0: ded5 6637 0146 2f3a f3e8 8a3a b8bd a03a
000001f0: ef30 833a 2cc7 2839 3b3f a238 9dac e9b9
00000200: b061 1fba 9368 d6b9 99fe db39 f06c f938
00000210: 52a1 feb9 aabe 0dba 8eac 2db8 90c9 beb7
00000220: 1e40 9239 4e3f 06ba 025f 86b9 594c ec39
00000230: c3bc e4b9 ea67 01ba 17ae 34b9 fe4c 8939
00000240: 2f00 8d39 a3eb feb9 44f2 c6b9 4ba6 25b9
00000250: fd4f afb8 f80c 2db9 97bf 15ba 1bea 9ab9
00000260: b596 1ab8 a06a fbb8 f3a5 42b9 98c5 64ba
00000270: 01d3 8339 2838 8839 8df3 c0b8 0978 13b9
00000280: b612 2fba 4268 1139 4515 7fb8 429d 59b9
00000290: be12 8eb9 c403 e5b9 66fb 0639 1905 1138
000002a0: d9f9 3eb9 58de bdb9 d0da a0b9 9c2e 5fb9
000002b0: 5b56 45b9 6019 d8b9 ee73 01ba 7fd9 07bb
000002c0: 6312 a2ba ee91 97ba 7e00 2bba bd9d 9139
000002d0: 7255 ebba bfc3 48ba 856d 15ba 1d34 84b6
000002e0: 6c38 343a c857 6eba bc5d 01ba e5df 78b9
000002f0: ddda fa39 7cfb 7d3a fecb 1aba ef34 88b8
00000300: 572d 4a39 9b42 353a 31ae 6a3a 263d 27ba
00000310: fa3b 57b9 0671 363a d137 653a 5404 163a
00000320: 5413 5aba bd88 9bba 64c1 c3ba ccde 9aba
00000330: 7d4a bab9 d500 60b9 a133 a4b9 cf78 d4b9
00000340: 7901 e8b9 6046 2e38 4222 c8b9 0740 01ba
00000350: bc54 deb9 464c 2339 c8ba 163a da6a f0b9
00000360: aaf3 b0b9 bb68 b2b8 a766 1b3a ef01 423a
00000370: 6904 cfb9 c6b4 46b9 4092 533a 1c09 ae3a
00000380: 1c9f 8c3a b291 dc39 e1ba ca39 a6f4 15b9
00000390: 0efe 0239 77c1 0f39 ce7f 803a 70aa 963a
000003a0: d400 2739 1ab9 e039 0ae3 ce39 2c07 353a
000003b0: 5708 413a a27e c438 ad22 8139 66ba 6e39
000003c0: 9bab 923a 6034 8b3a 2cc7 3339 bb0b 3739
000003d0: f534 64b9 bfcd 293a 00c9 2f3a 8557 9438
000003e0: 4d3a 0b38 65a4 9bb9
0.00021249148 0.00016475962 -5.1791244e-06 0.00014155536 0.0001362235 -0.00032522716 -1.4528068e-05 1.4400868e-05
-2.4596295e-05 -6.658762e-05 -9.9896715e-06 0.00026134108 3.7713704e-05 0.00022344904 0.00013814773 4.3039756e-05
0.00019866333 -2.4340188e-05 0.00014335233 0.0001761192 0.00041069748 0.0004914644 0.00010156163 0.00017966032
0.00015643614 -0.0008912708 -0.0005726719 -0.00032799147 -0.000209125 0.00034777742 -0.0009844346 -0.0010681514
-0.0004957606 -0.0001365518 0.00090368284 -0.0012748556 -0.0013602879 -0.00060529483 -0.00015809372 0.00087424833
-0.0010094928 -0.00091535616 -0.0002961573 6.3909014e-05 0.0008409555 -0.00071789924 -0.00031161658 -0.0001491531
0.00019538974 0.0003658275 -2.1135838e-05 -5.0845847e-06 -0.00039571803 -0.0005584144 -0.0003547472 0.00017294401
0.00044211405 -0.00013037788 -0.00033198926 -0.00014761547 0.00040978435 5.9211292e-05 -0.0004440534 -0.0006813135
-0.00032708698 0.00044187316 0.0002776951 -0.00029912923 -0.0007145685 -0.0002587314 0.00079847703 0.00066245015
0.00026191122 -0.000355383 3.0681404e-05 0.00044368737 0.0004580265 0.00040899188 0.00016726134 0.00014991027
0.0007582083 0.0007148388 0.0007086981 0.00084448856 0.0006231684 0.0009782341 0.0010730845 0.00060781615
0.0006862779 0.00041521582 0.00027829033 0.00031382794 9.822076e-05 9.4491385e-05 9.0800466e-05 0.00024511377
0.00012530926 -7.554938e-05 0.00022576653 3.5519115e-06 -0.0010735312 -0.0010869964 -0.00070720766 -5.2894657e-06
0.00023235235 -0.0009519518 -0.0009077086 -0.00044690658 0.00023721946 0.0005254918 -0.0003540166 -0.000117014846
0.00064063264 0.00095019594 0.00056793983 -0.00041505694 0.00027713287 0.00093569164 0.0012000275 0.00090119167
1.3758863e-05 0.00066861516 0.0010597989 0.0012263572 0.001000909 0.00016095926 7.7365396e-05 -0.0004456983
-0.0006079925 -0.00040895175 0.00041960625 0.000118935364 -0.00048566848 -0.00054071343 -4.140712e-05 -2.2743625e-05
0.0002789506 -0.00051211275 -0.00025629258 0.0004507031 -0.00043628187 -0.0004936444 -0.00017230991 0.0002618804
0.00026893753 -0.00048622218 -0.00037946005 -0.00015797575 -8.359549e-05 -0.00016503397 -0.0005712448 -0.0002954759
-3.6856818e-05 -0.00011988473 -0.00018563103 -0.00087269535 0.00025143477 0.0002598178 -9.200638e-05 -0.00014063729
-0.00066785084 0.00013867117 -6.0816546e-05 -0.00020753316 -0.00027098315 -0.0004368109 0.00012872889 3.457544e-05
-0.00018212888 -0.00036214548 -0.00030680606 -0.000212843 -0.00018819554 -0.00041217636 -0.00049382343 -0.0020729003
-0.0012365099 -0.0011563876 -0.00065232057 0.0002777408 -0.0017954542 -0.0007658563 -0.00057002186 -3.9399733e-06
0.00068748626 -0.000909206 -0.0004934927 -0.0002373453 0.00047846782 0.0009688658 -0.0005905031 -6.494845e-05
0.00019281112 0.0006914527 0.0008952348 -0.0006379656 -0.00020526341 0.0006959591 0.0008743974 0.0005722691
-0.000831892 -0.0011866313 -0.0014934954 -0.0011815666 -0.00035532183 -0.00021362615 -0.00031318984 -0.000405258
-0.00044251585 4.1550375e-05 -0.00038172497 -0.00049305 -0.00042406272 0.00015573305 0.00057498785 -0.00045855978
-0.0003375088 -8.507209e-05 0.0005928077 0.0007400801 -0.00039485403 -0.00018950095 0.0008070804 0.0013277861
0.0010728571 0.0004207022 0.00038667678 -0.00014300886 0.00012492409 0.00013709614 0.0009803714 0.0011494886
0.0001592667 0.0004286252 0.0003946054 0.0006905671 0.00073636085 9.3695955e-05 0.00024630633 0.00022766888
0.0011190058 0.0010620467 0.00017144968 0.0001745661 -0.00021763502 0.0006477497 0.00067056715 7.073492e-05
3.319448e-05 -0.00029686387

exp_avg_sq f4 [10, 1, 5, 5]
00000000: 555a b936 94de 7836 734c 3b36 6df0 2336
00000010: b2f2 4036 6e1b 0a37 6d5e 8836 e8d0 3d36
00000020: 4f67 3d36 9195 7636 1fe5 7c37 7432 fc36
00000030: 6bf9 6636 e446 2f36 45d5 6036 f4e9 ab37
00000040: 178d 6d37 34dc fb36 ba4f 8436 b969 8236
00000050: 794e 9137 6413 9337 04e8 8837 b165 3237
00000060: c1c7 c136 bea2 9436 2e43 b836 d13d 7336
00000070: 7417 4f36 75db e536 4445 bf36 a4fa ed36
00000080: aab2 9836 950c 7b36 b0b7 4937 cec0 c736
00000090: 6ee0 2137 be26 9836 e22c 8536 a6cf 1b37
000000a0: a7a0 ca36 5929 0e37 7328 7a36 4a84 ce36
000000b0: 19c7 4137 2f0e d536 d756 1b37 1940 7336
000000c0: 2de4 af36 ceae b536 cd78 0236 f99b ea35
000000d0: e4fe fa35 d689 2b36 160e 1936 7dfa ec35
000000e0: 1c12 cf35 1e3f 2836 6ee2 a736 4b6d 8336
000000f0: da08 2236 231a c036 9200 1e37 d4d9 4737
00000100: 0752 de36 7e97 2337 e2c1 8637 ee60 8037
00000110: c807 9337 e27e 4537 8cb5 3637 c6c2 6d37
00000120: 7a75 3137 1d20 6037 1e1f 1137 5add 0e37
00000130: 4559 c236 c830 a036 c279 3737 b9c9 8037
00000140: 421a 6337 60ae 3a37 558c f636 ae6b 6137
00000150: b4e8 b637 5d87 6f37 9b70 6937 6559 b836
00000160: 1f5f cd36 832c 8337 c56c 0237 af7e 2537
00000170: 1aca 6d36 6d31 2636 c5ab ee36 9881 ef36
00000180: d752 5137 7f1b 0a37 4412 9136 d472 0d37
00000190: 63a2 6436 ae29 1d37 3942 f937 a9f2 a137
000001a0: 8dc3 d036 6c24 9236 7e74 5937 fc90 de37
000001b0: 02b2 5937 7613 ad36 a81d 8f36 5453 2837
000001c0: 8227 6437 322b 9736 0660 3736 5093 8c36
000001d0: 2f8b 4437 8032 8137 66a7 2737 86f0 f936
000001e0: afbf 4d36 a926 1337 db01 7937 1ac3 7e37
000001f0: c809 4637 0e05 7837 e362 2337 9233 3336
00000200: 6f55 1336 c4e7 ae36 e8bf a737 1880 8837
00000210: 6bd5 ad36 303a b536 9403 0f37 a717 4f37
00000220: ddc2 4f37 6e5b b636 fea1 f036 e772 0537
00000230: 4e60 c036 13f7 c336 8142 af36 839e d236
00000240: 39f2 8e36 e35e 2c36 4199 4336 fa82 8b36
00000250: ba47 8c36 0773 2236 ef43 a036 b4e3 8f36
00000260: 1e03 2236 68ab b535 5843 7a35 4f05 c636
00000270: 2c68 c736 f2bf 7836 379f 0e36 9cfb b235
00000280: 7e9b d536 5d37 9336 c135 1836 aec2 fb35
00000290: 52a0 9d35 ccd2 2037 2595 7636 4fff bf35
000002a0: afd0 bb35 d2b4 7e35 12bd a336 c498 e835
000002b0: 8401 8e35 eb4a 0c36 f2a9 b935 bf0e ba37
000002c0: 8b5f 0938 619b 4d38 1f69 c937 c0a9 0237
000002d0: 5b6c 0238 7124 2138 27e6 4838 da51 8537
000002e0: 5ef6 d736 b0c4 e937 434c 2938 b340 1c38
000002f0: f98d 3437 064d ba36 6e57 0c38 4d1f 6b38
00000300: d0c9 fa37 bab3 0c37 4b73 b736 31f7 0438
00000310: 3bcb 2838 6ca8 7437 12b7 d136 3c4b af36
00000320: 4d24 9b36 9121 f536 bab8 9837 cedc ee37
00000330: d71d a537 9730 4836 6d4e 4b36 49d6 1a37
00000340: e2fb 8537 7ee0 2037 61e0 2536 dc69 8336
00000350: 8233 8c37 bdfc b837 bc2b 3e37 c529 2536
00000360: b1ab 0637 8d13 c837 b754 b437 d14d 1237
00000370: d2e0 d536 f59f 8a37 dea6 fb37 21c9 9237
00000380: ab50 e036 17d9 6436 f6cc 1336 008e 5e36
00000390: 52be 8a36 ee38 af36 5bd7 6436 3064 c836
000003a0: 15be 1f37 2db6 1837 7c7c 4f37 bbb6 0137
000003b0: e378 5337 cadd 6137 7097 6137 cc60 9237
000003c0: f6d0 1437 b839 1b37 6b35 e136 932a cb36
000003d0: 3cd4 3f37 541c 8e36 e313 6a36 6fde 1c36
000003e0: 41c4 fc35 86b3 b036
5.5239457e-06 3.7084437e-06 2.790967e-06 2.442884e-06 2.8751497e-06 8.231827e-06 4.0641085e-06 2.8284794e-06
2.8223328e-06 3.6743916e-06 1.5073717e-05 7.5160588e-06 3.441785e-06 2.6118296e-06 3.350274e-06 2.0493731e-05
1.4159151e-05 7.506018e-06 3.943188e-06 3.8866096e-06 1.7321889e-05 1.7532795e-05 1.6320504e-05 1.0633304e-05
5.7751026e-06 4.4296894e-06 5.491448e-06 3.6245804e-06 3.0859055e-06 6.85028e-06 5.700307e-06 7.092329e-06
4.5507522e-06 3.7409238e-06 1.2023302e-05 5.9531076e-06 9.648602e-06 4.534463e-06 3.968934e-06 9.287067e-06
6.0387715e-06 8.473487e-06 3.7276448e-06 6.154679e-06 1.15500525e-05 6.349546e-06 9.258939e-06 3.6247131e-06
5.2419696e-06 5.4145703e-06 1.9441825e-06 1.7479753e-06 1.8700634e-06 2.5561217e-06 2.2806976e-06 1.7656272e-06
1.5427972e-06 2.507069e-06 5.0033477e-06 3.9168276e-06 2.4145033e-06 5.7250886e-06 9.417667e-06 1.1912041e-05
6.625665e-06 9.750829e-06 1.6064329e-05 1.5303925e-05 1.7527389e-05 1.1771657e-05 1.0890315e-05 1.417165e-05
1.0577374e-05 1.3358917e-05 8.6499185e-06 8.515397e-06 5.792043e-06 4.7740505e-06 1.0935999e-05 1.5352723e-05
1.3536368e-05 1.1127064e-05 7.347708e-06 1.3436116e-05 2.1804452e-05 1.4277027e-05 1.39141e-05 5.494034e-06
6.1205496e-06 1.5637144e-05 7.773929e-06 9.864262e-06 3.543339e-06 2.4764697e-06 7.1129493e-06 7.1378417e-06
1.2476658e-05 8.231843e-06 4.323463e-06 8.43099e-06 3.406917e-06 9.3676335e-06 2.971395e-05 1.9305693e-05
6.221648e-06 4.355379e-06 1.2961331e-05 2.6531976e-05 1.2975654e-05 5.1580673e-06 4.2651845e-06 1.0032982e-05
1.3599058e-05 4.5051793e-06 2.7325018e-06 4.1894746e-06 1.1714917e-05 1.5401514e-05 9.992951e-06 7.448779e-06
3.0658955e-06 8.770884e-06 1.4841989e-05 1.5185005e-05 1.1803997e-05 1.4783129e-05 9.738581e-06 2.6703096e-06
2.1954436e-06 5.212585e-06 1.9997315e-05 1.6272112e-05 5.180647e-06 5.4009943e-06 8.524297e-06 1.23436685e-05
1.2383532e-05 5.4346665e-06 7.1714157e-06 7.9541705e-06 5.7332572e-06 5.840216e-06 5.2231485e-06 6.276941e-06
4.260128e-06 2.5685229e-06 2.914647e-06 4.1577705e-06 4.180675e-06 2.4206836e-06 4.77628e-06 4.2882402e-06
2.4141696e-06 1.3535437e-06 9.3230256e-07 5.901478e-06 5.9427894e-06 3.7066607e-06 2.1252324e-06 1.3335261e-06
6.3659963e-06 4.3873865e-06 2.2681054e-06 1.8757617e-06 1.1744071e-06 9.585823e-06 3.674367e-06 1.4304914e-06
1.3993321e-06 9.48855e-07 4.8797892e-06 1.7329808e-06 1.0580266e-06 2.0905234e-06 1.3833035e-06 2.2179795e-05
3.2752327e-05 4.9020517e-05 2.4010018e-05 7.788127e-06 3.109533e-05 3.841933e-05 4.7898062e-05 1.589295e-05
6.4361802e-06 2.7867354e-05 4.0363764e-05 3.7253554e-05 1.0761892e-05 5.5521987e-06 3.3460026e-05 5.6057517e-05
2.9896299e-05 8.386496e-06 5.467247e-06 3.1701467e-05 4.0243594e-05 1.4582747e-05 6.2499976e-06 5.224165e-06
4.623586e-06 7.3054766e-06 1.8205832e-05 2.8474631e-05 1.9683428e-05 2.9830605e-06 3.0295007e-06 9.229007e-06
1.5972128e-05 9.589012e-06 2.4717522e-06 3.916428e-06 1.6713286e-05 2.20522e-05 1.1335065e-05 2.461123e-06
8.026997e-06 2.3850962e-05 2.149712e-05 8.720396e-06 6.374067e-06 1.6525368e-05 2.9999235e-05 1.7498214e-05
6.685111e-06 3.410101e-06 2.202401e-06 3.3163233e-06 4.1348767e-06 5.222034e-06 3.41e-06 5.972128e-06
9.521395e-06 9.102322e-06 1.2367145e-05 7.731544e-06 1.2604726e-05 1.3462684e-05 1.3446304e-05 1.744963e-05
8.87014e-06 9.252159e-06 6.711741e-06 6.0548277e-06 1.1433902e-05 4.2352276e-06 3.4880293e-06 2.3375285e-06
1.883258e-06 5.266108e-06

exp_avg f4 [10]
00000000: 829c c8b9 570d 3d3a b786 8fb8 d166 b4b8
00000010: a9fe d639 ba78 1e3a e8cf 2d3a 4da9 aeba
00000020: 227a 3e39 ab3f 5939
-0.0003826358 0.00072117656 -6.843864e-05 -8.60222e-05 0.00041006997 0.00060452113 0.0006630407 -0.0013325602
0.0001816531 0.00020718451

exp_avg_sq f4 [10]
00000000: dd1e 4037 bdad 8037 50f2 4837 97a5 0537
00000010: 2724 0937 6622 8c36 56f8 8336 45c5 e537
00000020: 58b1 8537 909c 0d37
1.1451278e-05 1.5339692e-05 1.1977347e-05 7.965972e-06 8.174254e-06 4.1763296e-06 3.9330143e-06 2.7390788e-05
1.5937418e-05 8.4407075e-06

exp_avg f4 [20, 10, 5, 5]
00000000: 1ca0 43b8 1a34 b3b7 4e81 9e38 4e3e 06b9
00000010: dd75 6cb9 ddb0 eab8 9684 4cb8 c59c e737
00000020: 2376 0e38 932c 24b7 d936 0ab9 12b6 fbb8
00000030: 752b 01b9 da3e 6fb8 bad5 e037 6ba3 d7b7
00000040: 05a7 17b8 24d7 5538 010d 98b8 7e74 37b9
00000050: e302 87b7 eb2e fbb7 512b 0a38 acc8 da38
00000060: 586f 92b8 df99 67b8 3be6 aeb8 c8aa c738
00000070: 69f0 44b7 dcb0 1e36 a7dc ccb8 31b5 d1b7
00000080: 3564 7738 8697 b236 2971 c8b8 0140 a4b8
00000090: da2a 8db7 8a96 8436 10fb fe37 16ae e5b8
000000a0: cca4 79b8 9b36 0db8 bd93 17b8 40c0 a435
000000b0: 8da7 dfb8 1209 03b8 dc51 72b8 3942 70b7
000000c0: 7de5 1f38 d0c5 bbb8 adaf 4439 89d7 5938
000000d0: 2424 d9b8 698e 8fb8 8b95 8ab8 f99b 4cb9
000000e0: 76fd 5eb8 c1a1 07b9 c7c8 afb8 200e 0338
000000f0: 4229 6ab9 af63 e6b8 48b3 a7b8 38b0 3fb7
00000100: 71b5 4339 85c1 b5b7 d28c 9cb8 3ce2 04b9
00000110: 0557 79b9 cedc 7eb9 8d95 9c38 8771 4836
00000120: 5929 26b8 29c1 bfb8 64aa e1b8 1d95 b0b8
00000130: 1225 68b9 5629 6737 8a19 9bb8 8c4c 20b9
00000140: 4bd7 01b9 680f 05b9 695b f9b8 474e 84b8
00000150: 459a e6b8 4091 7ab8 41e6 e4b8 3515 f6b8
00000160: fc5d 9fb7 7a2c 89b8 ba69 ccb7 17cc 4037
00000170: b2c3 7d38 07f2 3239 d7bb 97b7 3528 69b7
00000180: 8558 4bb8 3b98 c0b8 20b4 c638 9440 d3b8
00000190: 3705 4438 fa03 0938 864c 62b9 eab0 f3b9
000001a0: be6e 3837 cbd0 7437 67eb b3b7 7302 a7b8
000001b0: 7c1d 50b9 0339 0239 0bf8 a134 db55 ccb7
000001c0: e19c 59b8 dd00 04b9 ff9a 7839 8c99 8bb8
000001d0: 3937 28b8 e592 a335 7ace 38b9 c8bb 2839
000001e0: 0042 9ab5 1bef 8ab8 1149 15b9 8bc8 56b9
000001f0: ddd1 6fb7 3460 6839 1834 3d38 9d64 99b9
00000200: 332f cbb9 5b2b f3b8 e791 0a39 1737 9437
00000210: 035b 9fb8 d943 c0b9 1652 bab8 e27f 2db8
00000220: 86c8 89b8 768c 62b8 712f 1739 2b28 ba37
00000230: 589d 98b8 5ab0 a9b8 f1df 34b9 b368 e9b8
00000240: 7f16 7438 b37f 57b8 3bdd a0b8 8de9 8eb9
00000250: 463c 42b9 73c0 9bb6 20a1 afb7 62dd 8a37
00000260: 99ee 0339 d880 64b9 2964 12b9 cc6b 4937
00000270: b574 2739 3e96 0939 fa67 bdb9 5f4f bbb9
00000280: 4d0e bd38 318e 8438 6f53 a238 586d 0eb9
00000290: dbed 48b9 0a94 f9b8 8963 54b8 7af7 da37
000002a0: 7ad1 b438 47b1 6e38 4546 37b8 b43b 96b8
000002b0: eb05 b638 5630 e4b8 d5b7 2eb9 1c75 9ab8
000002c0: dd3d a138 9eff 8c38 05ef 92b9 ec38 32b9
000002d0: df8c aab8 0a9e 4538 8984 4b38 2b32 37b9
000002e0: 0a73 8eb8 73a4 a137 50c5 6337 68e8 b838
000002f0: c3fc 5fb9 96a2 c136 6f73 ccb7 b8cd d1b7
00000300: f164 0e39 5baf 35b8 5bde 6938 257b b0b7
00000310: 521d a8b8 1600 d238 f08a 56b9 90d5 1eb9
00000320: 4ca3 d538 4108 03b9 3a98 f6b9 f1dd 35b9
00000330: e9ed 1739 6f44 3539 0074 bab8 5c83 e0b9
00000340: 5ff8 beb8 00b6 a439 fb2a 37b8 ec4b 0a35
00000350: 58b3 1ab9 c811 aab8 eebb 1e39 6fb4 d1b8
00000360: 3687 a4b6 9687 1fb8 83ce b3b8 11fd 9d38
00000370: c27b 92b8 4ae3 09b9 d4d0 a1b8 be59 92b7
00000380: adb0 1038 f6d5 f438 3822 abb9 8c25 f8b9
00000390: e1f2 53b9 5fb2 ccb8 0676 1d38 992f 86b8
000003a0: 6758 96b9 1458 92b9 9edb 1bb8 c462 8037
000003b0: ea39 0cb8 2478 a8b8 2a05 9f38 47b0 7d39
000003c0: 57af 0bb9 410d bdb6 1c98 19b8 ecc8 14b8
000003d0: bc6b c3b7 db08 cdb8 e0eb 49b8 4dea 51b9
000003e0: cef7 31b9 bcb6 fbb6 5712 c937 06d7 1938
000003f0: 63b6 84b8 883f 96b8 6398 9a38 db75 09b8
-4.6640736e-05 -2.1362725e-05 7.558112e-05 -0.00012802446 -0.00022550621 -0.00011190933 -4.876087e-05 2.7610347e-05
3.396546e-05 -9.78554e-06 -0.00013181138 -0.00012002526 -0.00012318588 -5.7040575e-05 2.6802405e-05 -2.5706095e-05
-3.6156755e-05 5.0983523e-05 -7.250347e-05 -0.00017495637 -1.6094598e-05 -2.994338e-05 3.2942105e-05 0.00010432428
-6.982562e-05 -5.5217995e-05 -8.33985e-05 9.52087e-05 -1.1738485e-05 2.364678e-06 -9.768578e-05 -2.4999115e-05
5.8982714e-05 5.322453e-06 -9.557821e-05 -7.832051e-05 -1.6828464e-05 3.9514316e-06 3.039607e-05 -0.00010951997
-5.9519705e-05 -3.3667875e-05 -3.6138797e-05 1.2274904e-06 -0.000106646774 -3.124128e-05 -5.7773534e-05 -1.4320533e-05
3.812228e-05 -8.9537e-05 0.00018757461 5.1937564e-05 -0.00010354098 -6.845297e-05 -6.608207e-05 -0.0001951306
-5.316498e-05 -0.00012934861 -8.382048e-05 3.124599e-05 -0.00022331349 -0.00010985822 -7.996574e-05 -1.1425516e-05
0.00018664241 -2.1666996e-05 -7.4648895e-05 -0.0001267278 -0.00023778908 -0.00024305584 7.466516e-05 2.9868404e-06
-3.9615992e-05 -9.1435686e-05 -0.00010760574 -8.4201085e-05 -0.00022139054 1.3778297e-05 -7.395733e-05 -0.00015287305
-0.00012382602 -0.00012689608 -0.00011890272 -6.308831e-05 -0.000109959896 -5.973992e-05 -0.00010914775 -0.00011734144
-1.8998042e-05 -6.5409535e-05 -2.4367928e-05 1.149161e-05 6.0502156e-05 0.00017065565 -1.8088072e-05 -1.3897244e-05
-4.848141e-05 -9.1836286e-05 9.4749266e-05 -0.00010073293 4.67349e-05 3.266705e-05 -0.00021581547 -0.00046480383
1.0993039e-05 1.4592147e-05 -2.144808e-05 -7.963637e-05 -0.0001984741 0.00012419005 3.0169062e-07 -2.4358675e-05
-5.1882937e-05 -0.00012588823 0.00023708864 -6.656637e-05 -4.010575e-05 1.2187198e-06 -0.00017624526 0.00016091682
-1.1493103e-06 -6.62489e-05 -0.00014236967 -0.00020483338 -1.4294373e-05 0.00022161083 4.5109628e-05 -0.00029257397
-0.00038754343 -0.000115952185 0.00013215058 1.7668628e-05 -7.598663e-05 -0.00036671644 -8.884461e-05 -4.1365514e-05
-6.5700195e-05 -5.4013413e-05 0.00014418155 2.2191633e-05 -7.277232e-05 -8.091396e-05 -0.00017249562 -0.000111298075
5.8195084e-05 -5.1378924e-05 -7.670602e-05 -0.0002725836 -0.00018523735 -4.641764e-06 -2.0936655e-05 1.6553971e-05
0.00012582018 -0.00021791772 -0.00013960958 1.2005632e-05 0.00015969838 0.00013121308 -0.00036126358 -0.00035726556
9.014886e-05 6.320736e-05 7.740303e-05 -0.00013582909 -0.00019162094 -0.0001190082 -5.0637438e-05 2.6102865e-05
8.622087e-05 5.6908724e-05 -4.3696044e-05 -7.163678e-05 8.6795386e-05 -0.000108808905 -0.00016662416 -7.3651056e-05
7.688601e-05 6.7233326e-05 -0.00028025373 -0.00016996608 -8.132471e-05 4.7115645e-05 4.8522405e-05 -0.00017470929
-6.792515e-05 1.9269273e-05 1.3576195e-05 8.817093e-05 -0.00021361098 5.7707757e-06 -2.4372448e-05 -2.5010537e-05
0.00013579779 -4.3317075e-05 5.5758614e-05 -2.1038179e-05 -8.0163256e-05 0.00010013596 -0.00020460389 -0.00015147612
0.00010187048 -0.00012496208 -0.00047034194 -0.00017344185 0.0001448911 0.00017286999 -8.890778e-05 -0.0004282248
-9.106169e-05 0.00031416118 -4.367063e-05 5.1519487e-07 -0.00014753395 -8.109544e-05 0.00015138063 -9.999505e-05
-4.9033215e-06 -3.803483e-05 -8.573851e-05 7.533481e-05 -6.984874e-05 -0.0001315001 -7.7159755e-05 -1.7446346e-05
3.4496818e-05 0.0001167468 -0.00032641157 -0.0004733022 -0.00020213008 -9.760702e-05 3.7541635e-05 -6.398484e-05
-0.00028676094 -0.00027912913 -3.7159414e-05 1.530478e-05 -3.3432538e-05 -8.033242e-05 7.582673e-05 0.00024193629
-0.00013321392 -5.634182e-06 -3.6619705e-05 -3.5473073e-05 -2.329598e-05 -9.776811e-05 -4.814181e-05 -0.00020019077
-0.0001697235 -7.501656e-06 2.3969607e-05 3.66783e-05 -6.328223e-05 -7.164391e-05 7.3716765e-05 -3.2773107e-05
